/home/mirror/.local/lib/python3.12/site-packages/pylama/lint/__init__.py:10: UserWarning: pkg_resources is deprecated as an API. See https://setuptools.pypa.io/en/latest/pkg_resources.html. The pkg_resources package is slated for removal as early as 2025-11-30. Refrain from using this package or pin to Setuptools<81.
  from pkg_resources import iter_entry_points
============================= test session starts ==============================
platform linux -- Python 3.12.3, pytest-8.4.1, pluggy-1.6.0
rootdir: /data/triton
configfile: pyproject.toml
plugins: pylama-8.4.1, xdist-3.8.0
collected 17619 items / 17618 deselected / 1 selected

python/test/unit/language/test_core.py // -----// IR Dump Before Inliner (inline) ('builtin.module' operation) //----- //
#loc1 = loc("a_base")
#loc2 = loc("stride_a0")
#loc3 = loc("b_base")
#loc4 = loc("stride_b1")
#loc5 = loc("b_scale")
#loc6 = loc("out")
module {
  tt.func public @dot_scale_kernel(%a_base: !tt.ptr<bf16> {tt.divisibility = 16 : i32, tt.pointer_range = 32 : i32} loc("a_base"), %stride_a0: i32 {tt.divisibility = 16 : i32} loc("stride_a0"), %b_base: !tt.ptr<i8> {tt.divisibility = 16 : i32, tt.pointer_range = 32 : i32} loc("b_base"), %stride_b1: i32 {tt.divisibility = 16 : i32} loc("stride_b1"), %b_scale: !tt.ptr<i8> {tt.divisibility = 16 : i32, tt.pointer_range = 32 : i32} loc("b_scale"), %out: !tt.ptr<bf16> {tt.divisibility = 16 : i32, tt.pointer_range = 32 : i32} loc("out")) attributes {noinline = false} {
    %0 = tt.make_range {end = 32 : i32, start = 0 : i32} : tensor<32xi32> loc(#loc)
    %1 = tt.expand_dims %0 {axis = 1 : i32} : tensor<32xi32> -> tensor<32x1xi32> loc(#loc)
    %2 = tt.splat %stride_a0 : i32 -> tensor<32x1xi32> loc(#loc)
    %3 = arith.extsi %1 : tensor<32x1xi32> to tensor<32x1xi64> loc(#loc)
    %4 = arith.extsi %2 : tensor<32x1xi32> to tensor<32x1xi64> loc(#loc)
    %5 = arith.muli %3, %4 : tensor<32x1xi64> loc(#loc)
    %c2147483647_i64 = arith.constant 2147483647 : i64 loc(#loc)
    %c-2147483648_i64 = arith.constant -2147483648 : i64 loc(#loc)
    %cst = arith.constant dense<2147483647> : tensor<32x1xi64> loc(#loc)
    %6 = arith.cmpi sle, %5, %cst : tensor<32x1xi64> loc(#loc)
    %cst_0 = arith.constant dense<-2147483648> : tensor<32x1xi64> loc(#loc)
    %7 = arith.cmpi sge, %5, %cst_0 : tensor<32x1xi64> loc(#loc)
    %8 = arith.andi %6, %7 : tensor<32x1xi1> loc(#loc)
    %9 = arith.muli %1, %2 : tensor<32x1xi32> loc(#loc)
    %10 = tt.splat %a_base : !tt.ptr<bf16> -> tensor<32x1x!tt.ptr<bf16>> loc(#loc)
    %11 = tt.addptr %10, %9 : tensor<32x1x!tt.ptr<bf16>>, tensor<32x1xi32> loc(#loc)
    %12 = tt.make_range {end = 256 : i32, start = 0 : i32} : tensor<256xi32> loc(#loc)
    %13 = tt.expand_dims %12 {axis = 0 : i32} : tensor<256xi32> -> tensor<1x256xi32> loc(#loc)
    %c1_i32 = arith.constant 1 : i32 loc(#loc)
    %c1_i32_1 = arith.constant 1 : i32 loc(#loc)
    %cst_2 = arith.constant dense<1> : tensor<1x256xi32> loc(#loc)
    %14 = arith.extsi %13 : tensor<1x256xi32> to tensor<1x256xi64> loc(#loc)
    %15 = arith.extsi %cst_2 : tensor<1x256xi32> to tensor<1x256xi64> loc(#loc)
    %16 = arith.muli %14, %15 : tensor<1x256xi64> loc(#loc)
    %c2147483647_i64_3 = arith.constant 2147483647 : i64 loc(#loc)
    %c-2147483648_i64_4 = arith.constant -2147483648 : i64 loc(#loc)
    %cst_5 = arith.constant dense<2147483647> : tensor<1x256xi64> loc(#loc)
    %17 = arith.cmpi sle, %16, %cst_5 : tensor<1x256xi64> loc(#loc)
    %cst_6 = arith.constant dense<-2147483648> : tensor<1x256xi64> loc(#loc)
    %18 = arith.cmpi sge, %16, %cst_6 : tensor<1x256xi64> loc(#loc)
    %19 = arith.andi %17, %18 : tensor<1x256xi1> loc(#loc)
    %20 = arith.muli %13, %cst_2 : tensor<1x256xi32> loc(#loc)
    %21 = tt.broadcast %11 : tensor<32x1x!tt.ptr<bf16>> -> tensor<32x256x!tt.ptr<bf16>> loc(#loc)
    %22 = tt.broadcast %20 : tensor<1x256xi32> -> tensor<32x256xi32> loc(#loc)
    %23 = tt.addptr %21, %22 : tensor<32x256x!tt.ptr<bf16>>, tensor<32x256xi32> loc(#loc)
    %24 = tt.make_range {end = 128 : i32, start = 0 : i32} : tensor<128xi32> loc(#loc)
    %25 = tt.expand_dims %24 {axis = 1 : i32} : tensor<128xi32> -> tensor<128x1xi32> loc(#loc)
    %c1_i32_7 = arith.constant 1 : i32 loc(#loc)
    %c1_i32_8 = arith.constant 1 : i32 loc(#loc)
    %cst_9 = arith.constant dense<1> : tensor<128x1xi32> loc(#loc)
    %26 = arith.extsi %25 : tensor<128x1xi32> to tensor<128x1xi64> loc(#loc)
    %27 = arith.extsi %cst_9 : tensor<128x1xi32> to tensor<128x1xi64> loc(#loc)
    %28 = arith.muli %26, %27 : tensor<128x1xi64> loc(#loc)
    %c2147483647_i64_10 = arith.constant 2147483647 : i64 loc(#loc)
    %c-2147483648_i64_11 = arith.constant -2147483648 : i64 loc(#loc)
    %cst_12 = arith.constant dense<2147483647> : tensor<128x1xi64> loc(#loc)
    %29 = arith.cmpi sle, %28, %cst_12 : tensor<128x1xi64> loc(#loc)
    %cst_13 = arith.constant dense<-2147483648> : tensor<128x1xi64> loc(#loc)
    %30 = arith.cmpi sge, %28, %cst_13 : tensor<128x1xi64> loc(#loc)
    %31 = arith.andi %29, %30 : tensor<128x1xi1> loc(#loc)
    %32 = arith.muli %25, %cst_9 : tensor<128x1xi32> loc(#loc)
    %33 = tt.splat %b_base : !tt.ptr<i8> -> tensor<128x1x!tt.ptr<i8>> loc(#loc)
    %34 = tt.addptr %33, %32 : tensor<128x1x!tt.ptr<i8>>, tensor<128x1xi32> loc(#loc)
    %35 = tt.make_range {end = 32 : i32, start = 0 : i32} : tensor<32xi32> loc(#loc)
    %36 = tt.expand_dims %35 {axis = 0 : i32} : tensor<32xi32> -> tensor<1x32xi32> loc(#loc)
    %37 = tt.splat %stride_b1 : i32 -> tensor<1x32xi32> loc(#loc)
    %38 = arith.extsi %36 : tensor<1x32xi32> to tensor<1x32xi64> loc(#loc)
    %39 = arith.extsi %37 : tensor<1x32xi32> to tensor<1x32xi64> loc(#loc)
    %40 = arith.muli %38, %39 : tensor<1x32xi64> loc(#loc)
    %c2147483647_i64_14 = arith.constant 2147483647 : i64 loc(#loc)
    %c-2147483648_i64_15 = arith.constant -2147483648 : i64 loc(#loc)
    %cst_16 = arith.constant dense<2147483647> : tensor<1x32xi64> loc(#loc)
    %41 = arith.cmpi sle, %40, %cst_16 : tensor<1x32xi64> loc(#loc)
    %cst_17 = arith.constant dense<-2147483648> : tensor<1x32xi64> loc(#loc)
    %42 = arith.cmpi sge, %40, %cst_17 : tensor<1x32xi64> loc(#loc)
    %43 = arith.andi %41, %42 : tensor<1x32xi1> loc(#loc)
    %44 = arith.muli %36, %37 : tensor<1x32xi32> loc(#loc)
    %45 = tt.broadcast %34 : tensor<128x1x!tt.ptr<i8>> -> tensor<128x32x!tt.ptr<i8>> loc(#loc)
    %46 = tt.broadcast %44 : tensor<1x32xi32> -> tensor<128x32xi32> loc(#loc)
    %47 = tt.addptr %45, %46 : tensor<128x32x!tt.ptr<i8>>, tensor<128x32xi32> loc(#loc)
    %48 = tt.load %23 : tensor<32x256x!tt.ptr<bf16>> loc(#loc)
    %49 = tt.reshape %48 : tensor<32x256xbf16> -> tensor<32x2x128xbf16> loc(#loc)
    %50 = tt.trans %49 {order = array<i32: 0, 2, 1>} : tensor<32x2x128xbf16> -> tensor<32x128x2xbf16> loc(#loc)
    %outLHS, %outRHS = tt.split %50 : tensor<32x128x2xbf16> -> tensor<32x128xbf16> loc(#loc)
    %51 = tt.load %47 : tensor<128x32x!tt.ptr<i8>> loc(#loc)
    %52 = tt.reshape %51 : tensor<128x32xi8> -> tensor<2x64x32xi8> loc(#loc)
    %53 = tt.trans %52 {order = array<i32: 1, 2, 0>} : tensor<2x64x32xi8> -> tensor<64x32x2xi8> loc(#loc)
    %outLHS_18, %outRHS_19 = tt.split %53 : tensor<64x32x2xi8> -> tensor<64x32xi8> loc(#loc)
    %54 = tt.make_range {end = 32 : i32, start = 0 : i32} : tensor<32xi32> loc(#loc)
    %55 = tt.expand_dims %54 {axis = 1 : i32} : tensor<32xi32> -> tensor<32x1xi32> loc(#loc)
    %c8_i32 = arith.constant 8 : i32 loc(#loc)
    %c8_i32_20 = arith.constant 8 : i32 loc(#loc)
    %cst_21 = arith.constant dense<8> : tensor<32x1xi32> loc(#loc)
    %56 = arith.extsi %55 : tensor<32x1xi32> to tensor<32x1xi64> loc(#loc)
    %57 = arith.extsi %cst_21 : tensor<32x1xi32> to tensor<32x1xi64> loc(#loc)
    %58 = arith.muli %56, %57 : tensor<32x1xi64> loc(#loc)
    %c2147483647_i64_22 = arith.constant 2147483647 : i64 loc(#loc)
    %c-2147483648_i64_23 = arith.constant -2147483648 : i64 loc(#loc)
    %cst_24 = arith.constant dense<2147483647> : tensor<32x1xi64> loc(#loc)
    %59 = arith.cmpi sle, %58, %cst_24 : tensor<32x1xi64> loc(#loc)
    %cst_25 = arith.constant dense<-2147483648> : tensor<32x1xi64> loc(#loc)
    %60 = arith.cmpi sge, %58, %cst_25 : tensor<32x1xi64> loc(#loc)
    %61 = arith.andi %59, %60 : tensor<32x1xi1> loc(#loc)
    %62 = arith.muli %55, %cst_21 : tensor<32x1xi32> loc(#loc)
    %63 = tt.splat %b_scale : !tt.ptr<i8> -> tensor<32x1x!tt.ptr<i8>> loc(#loc)
    %64 = tt.addptr %63, %62 : tensor<32x1x!tt.ptr<i8>>, tensor<32x1xi32> loc(#loc)
    %65 = tt.make_range {end = 8 : i32, start = 0 : i32} : tensor<8xi32> loc(#loc)
    %66 = tt.expand_dims %65 {axis = 0 : i32} : tensor<8xi32> -> tensor<1x8xi32> loc(#loc)
    %67 = tt.broadcast %64 : tensor<32x1x!tt.ptr<i8>> -> tensor<32x8x!tt.ptr<i8>> loc(#loc)
    %68 = tt.broadcast %66 : tensor<1x8xi32> -> tensor<32x8xi32> loc(#loc)
    %69 = tt.addptr %67, %68 : tensor<32x8x!tt.ptr<i8>>, tensor<32x8xi32> loc(#loc)
    %70 = tt.load %69 : tensor<32x8x!tt.ptr<i8>> loc(#loc)
    %71 = tt.reshape %70 : tensor<32x8xi8> -> tensor<32x2x4xi8> loc(#loc)
    %72 = tt.trans %71 {order = array<i32: 0, 2, 1>} : tensor<32x2x4xi8> -> tensor<32x4x2xi8> loc(#loc)
    %outLHS_26, %outRHS_27 = tt.split %72 : tensor<32x4x2xi8> -> tensor<32x4xi8> loc(#loc)
    %cst_28 = arith.constant 0.000000e+00 : f32 loc(#loc)
    %cst_29 = arith.constant dense<0.000000e+00> : tensor<32x32xf32> loc(#loc)
    %73 = tt.dot_scaled %outLHS, %outLHS_18 scale %outLHS_26, %cst_29 lhs = bf16 rhs = e2m1 {fastMath = false} : tensor<32x128xbf16> * tensor<64x32xi8>, tensor<32x4xi8> -> tensor<32x32xf32> loc(#loc)
    %cst_30 = arith.constant 0.000000e+00 : f32 loc(#loc)
    %cst_31 = arith.constant dense<0.000000e+00> : tensor<32x32xf32> loc(#loc)
    %74 = tt.dot_scaled %outRHS, %outRHS_19 scale %outRHS_27, %cst_31 lhs = bf16 rhs = e2m1 {fastMath = false} : tensor<32x128xbf16> * tensor<64x32xi8>, tensor<32x4xi8> -> tensor<32x32xf32> loc(#loc)
    %75 = arith.addf %73, %74 : tensor<32x32xf32> loc(#loc)
    %76 = tt.make_range {end = 32 : i32, start = 0 : i32} : tensor<32xi32> loc(#loc)
    %77 = tt.expand_dims %76 {axis = 1 : i32} : tensor<32xi32> -> tensor<32x1xi32> loc(#loc)
    %c32_i32 = arith.constant 32 : i32 loc(#loc)
    %c32_i32_32 = arith.constant 32 : i32 loc(#loc)
    %cst_33 = arith.constant dense<32> : tensor<32x1xi32> loc(#loc)
    %78 = arith.extsi %77 : tensor<32x1xi32> to tensor<32x1xi64> loc(#loc)
    %79 = arith.extsi %cst_33 : tensor<32x1xi32> to tensor<32x1xi64> loc(#loc)
    %80 = arith.muli %78, %79 : tensor<32x1xi64> loc(#loc)
    %c2147483647_i64_34 = arith.constant 2147483647 : i64 loc(#loc)
    %c-2147483648_i64_35 = arith.constant -2147483648 : i64 loc(#loc)
    %cst_36 = arith.constant dense<2147483647> : tensor<32x1xi64> loc(#loc)
    %81 = arith.cmpi sle, %80, %cst_36 : tensor<32x1xi64> loc(#loc)
    %cst_37 = arith.constant dense<-2147483648> : tensor<32x1xi64> loc(#loc)
    %82 = arith.cmpi sge, %80, %cst_37 : tensor<32x1xi64> loc(#loc)
    %83 = arith.andi %81, %82 : tensor<32x1xi1> loc(#loc)
    %84 = arith.muli %77, %cst_33 : tensor<32x1xi32> loc(#loc)
    %85 = tt.splat %out : !tt.ptr<bf16> -> tensor<32x1x!tt.ptr<bf16>> loc(#loc)
    %86 = tt.addptr %85, %84 : tensor<32x1x!tt.ptr<bf16>>, tensor<32x1xi32> loc(#loc)
    %87 = tt.make_range {end = 32 : i32, start = 0 : i32} : tensor<32xi32> loc(#loc)
    %88 = tt.expand_dims %87 {axis = 0 : i32} : tensor<32xi32> -> tensor<1x32xi32> loc(#loc)
    %89 = tt.broadcast %86 : tensor<32x1x!tt.ptr<bf16>> -> tensor<32x32x!tt.ptr<bf16>> loc(#loc)
    %90 = tt.broadcast %88 : tensor<1x32xi32> -> tensor<32x32xi32> loc(#loc)
    %91 = tt.addptr %89, %90 : tensor<32x32x!tt.ptr<bf16>>, tensor<32x32xi32> loc(#loc)
    %92 = arith.truncf %75 : tensor<32x32xf32> to tensor<32x32xbf16> loc(#loc)
    tt.store %91, %92 : tensor<32x32x!tt.ptr<bf16>> loc(#loc)
    tt.return loc(#loc)
  } loc(#loc)
} loc(#loc)
#loc = loc(unknown)


// -----// IR Dump Before Canonicalizer (canonicalize) ('tt.func' operation: @dot_scale_kernel) //----- //
#loc1 = loc("a_base")
#loc2 = loc("stride_a0")
#loc3 = loc("b_base")
#loc4 = loc("stride_b1")
#loc5 = loc("b_scale")
#loc6 = loc("out")
module {
  tt.func public @dot_scale_kernel(%a_base: !tt.ptr<bf16> {tt.divisibility = 16 : i32, tt.pointer_range = 32 : i32} loc("a_base"), %stride_a0: i32 {tt.divisibility = 16 : i32} loc("stride_a0"), %b_base: !tt.ptr<i8> {tt.divisibility = 16 : i32, tt.pointer_range = 32 : i32} loc("b_base"), %stride_b1: i32 {tt.divisibility = 16 : i32} loc("stride_b1"), %b_scale: !tt.ptr<i8> {tt.divisibility = 16 : i32, tt.pointer_range = 32 : i32} loc("b_scale"), %out: !tt.ptr<bf16> {tt.divisibility = 16 : i32, tt.pointer_range = 32 : i32} loc("out")) attributes {noinline = false} {
    %0 = tt.make_range {end = 32 : i32, start = 0 : i32} : tensor<32xi32> loc(#loc)
    %1 = tt.expand_dims %0 {axis = 1 : i32} : tensor<32xi32> -> tensor<32x1xi32> loc(#loc)
    %2 = tt.splat %stride_a0 : i32 -> tensor<32x1xi32> loc(#loc)
    %3 = arith.extsi %1 : tensor<32x1xi32> to tensor<32x1xi64> loc(#loc)
    %4 = arith.extsi %2 : tensor<32x1xi32> to tensor<32x1xi64> loc(#loc)
    %5 = arith.muli %3, %4 : tensor<32x1xi64> loc(#loc)
    %c2147483647_i64 = arith.constant 2147483647 : i64 loc(#loc)
    %c-2147483648_i64 = arith.constant -2147483648 : i64 loc(#loc)
    %cst = arith.constant dense<2147483647> : tensor<32x1xi64> loc(#loc)
    %6 = arith.cmpi sle, %5, %cst : tensor<32x1xi64> loc(#loc)
    %cst_0 = arith.constant dense<-2147483648> : tensor<32x1xi64> loc(#loc)
    %7 = arith.cmpi sge, %5, %cst_0 : tensor<32x1xi64> loc(#loc)
    %8 = arith.andi %6, %7 : tensor<32x1xi1> loc(#loc)
    %9 = arith.muli %1, %2 : tensor<32x1xi32> loc(#loc)
    %10 = tt.splat %a_base : !tt.ptr<bf16> -> tensor<32x1x!tt.ptr<bf16>> loc(#loc)
    %11 = tt.addptr %10, %9 : tensor<32x1x!tt.ptr<bf16>>, tensor<32x1xi32> loc(#loc)
    %12 = tt.make_range {end = 256 : i32, start = 0 : i32} : tensor<256xi32> loc(#loc)
    %13 = tt.expand_dims %12 {axis = 0 : i32} : tensor<256xi32> -> tensor<1x256xi32> loc(#loc)
    %c1_i32 = arith.constant 1 : i32 loc(#loc)
    %c1_i32_1 = arith.constant 1 : i32 loc(#loc)
    %cst_2 = arith.constant dense<1> : tensor<1x256xi32> loc(#loc)
    %14 = arith.extsi %13 : tensor<1x256xi32> to tensor<1x256xi64> loc(#loc)
    %15 = arith.extsi %cst_2 : tensor<1x256xi32> to tensor<1x256xi64> loc(#loc)
    %16 = arith.muli %14, %15 : tensor<1x256xi64> loc(#loc)
    %c2147483647_i64_3 = arith.constant 2147483647 : i64 loc(#loc)
    %c-2147483648_i64_4 = arith.constant -2147483648 : i64 loc(#loc)
    %cst_5 = arith.constant dense<2147483647> : tensor<1x256xi64> loc(#loc)
    %17 = arith.cmpi sle, %16, %cst_5 : tensor<1x256xi64> loc(#loc)
    %cst_6 = arith.constant dense<-2147483648> : tensor<1x256xi64> loc(#loc)
    %18 = arith.cmpi sge, %16, %cst_6 : tensor<1x256xi64> loc(#loc)
    %19 = arith.andi %17, %18 : tensor<1x256xi1> loc(#loc)
    %20 = arith.muli %13, %cst_2 : tensor<1x256xi32> loc(#loc)
    %21 = tt.broadcast %11 : tensor<32x1x!tt.ptr<bf16>> -> tensor<32x256x!tt.ptr<bf16>> loc(#loc)
    %22 = tt.broadcast %20 : tensor<1x256xi32> -> tensor<32x256xi32> loc(#loc)
    %23 = tt.addptr %21, %22 : tensor<32x256x!tt.ptr<bf16>>, tensor<32x256xi32> loc(#loc)
    %24 = tt.make_range {end = 128 : i32, start = 0 : i32} : tensor<128xi32> loc(#loc)
    %25 = tt.expand_dims %24 {axis = 1 : i32} : tensor<128xi32> -> tensor<128x1xi32> loc(#loc)
    %c1_i32_7 = arith.constant 1 : i32 loc(#loc)
    %c1_i32_8 = arith.constant 1 : i32 loc(#loc)
    %cst_9 = arith.constant dense<1> : tensor<128x1xi32> loc(#loc)
    %26 = arith.extsi %25 : tensor<128x1xi32> to tensor<128x1xi64> loc(#loc)
    %27 = arith.extsi %cst_9 : tensor<128x1xi32> to tensor<128x1xi64> loc(#loc)
    %28 = arith.muli %26, %27 : tensor<128x1xi64> loc(#loc)
    %c2147483647_i64_10 = arith.constant 2147483647 : i64 loc(#loc)
    %c-2147483648_i64_11 = arith.constant -2147483648 : i64 loc(#loc)
    %cst_12 = arith.constant dense<2147483647> : tensor<128x1xi64> loc(#loc)
    %29 = arith.cmpi sle, %28, %cst_12 : tensor<128x1xi64> loc(#loc)
    %cst_13 = arith.constant dense<-2147483648> : tensor<128x1xi64> loc(#loc)
    %30 = arith.cmpi sge, %28, %cst_13 : tensor<128x1xi64> loc(#loc)
    %31 = arith.andi %29, %30 : tensor<128x1xi1> loc(#loc)
    %32 = arith.muli %25, %cst_9 : tensor<128x1xi32> loc(#loc)
    %33 = tt.splat %b_base : !tt.ptr<i8> -> tensor<128x1x!tt.ptr<i8>> loc(#loc)
    %34 = tt.addptr %33, %32 : tensor<128x1x!tt.ptr<i8>>, tensor<128x1xi32> loc(#loc)
    %35 = tt.make_range {end = 32 : i32, start = 0 : i32} : tensor<32xi32> loc(#loc)
    %36 = tt.expand_dims %35 {axis = 0 : i32} : tensor<32xi32> -> tensor<1x32xi32> loc(#loc)
    %37 = tt.splat %stride_b1 : i32 -> tensor<1x32xi32> loc(#loc)
    %38 = arith.extsi %36 : tensor<1x32xi32> to tensor<1x32xi64> loc(#loc)
    %39 = arith.extsi %37 : tensor<1x32xi32> to tensor<1x32xi64> loc(#loc)
    %40 = arith.muli %38, %39 : tensor<1x32xi64> loc(#loc)
    %c2147483647_i64_14 = arith.constant 2147483647 : i64 loc(#loc)
    %c-2147483648_i64_15 = arith.constant -2147483648 : i64 loc(#loc)
    %cst_16 = arith.constant dense<2147483647> : tensor<1x32xi64> loc(#loc)
    %41 = arith.cmpi sle, %40, %cst_16 : tensor<1x32xi64> loc(#loc)
    %cst_17 = arith.constant dense<-2147483648> : tensor<1x32xi64> loc(#loc)
    %42 = arith.cmpi sge, %40, %cst_17 : tensor<1x32xi64> loc(#loc)
    %43 = arith.andi %41, %42 : tensor<1x32xi1> loc(#loc)
    %44 = arith.muli %36, %37 : tensor<1x32xi32> loc(#loc)
    %45 = tt.broadcast %34 : tensor<128x1x!tt.ptr<i8>> -> tensor<128x32x!tt.ptr<i8>> loc(#loc)
    %46 = tt.broadcast %44 : tensor<1x32xi32> -> tensor<128x32xi32> loc(#loc)
    %47 = tt.addptr %45, %46 : tensor<128x32x!tt.ptr<i8>>, tensor<128x32xi32> loc(#loc)
    %48 = tt.load %23 : tensor<32x256x!tt.ptr<bf16>> loc(#loc)
    %49 = tt.reshape %48 : tensor<32x256xbf16> -> tensor<32x2x128xbf16> loc(#loc)
    %50 = tt.trans %49 {order = array<i32: 0, 2, 1>} : tensor<32x2x128xbf16> -> tensor<32x128x2xbf16> loc(#loc)
    %outLHS, %outRHS = tt.split %50 : tensor<32x128x2xbf16> -> tensor<32x128xbf16> loc(#loc)
    %51 = tt.load %47 : tensor<128x32x!tt.ptr<i8>> loc(#loc)
    %52 = tt.reshape %51 : tensor<128x32xi8> -> tensor<2x64x32xi8> loc(#loc)
    %53 = tt.trans %52 {order = array<i32: 1, 2, 0>} : tensor<2x64x32xi8> -> tensor<64x32x2xi8> loc(#loc)
    %outLHS_18, %outRHS_19 = tt.split %53 : tensor<64x32x2xi8> -> tensor<64x32xi8> loc(#loc)
    %54 = tt.make_range {end = 32 : i32, start = 0 : i32} : tensor<32xi32> loc(#loc)
    %55 = tt.expand_dims %54 {axis = 1 : i32} : tensor<32xi32> -> tensor<32x1xi32> loc(#loc)
    %c8_i32 = arith.constant 8 : i32 loc(#loc)
    %c8_i32_20 = arith.constant 8 : i32 loc(#loc)
    %cst_21 = arith.constant dense<8> : tensor<32x1xi32> loc(#loc)
    %56 = arith.extsi %55 : tensor<32x1xi32> to tensor<32x1xi64> loc(#loc)
    %57 = arith.extsi %cst_21 : tensor<32x1xi32> to tensor<32x1xi64> loc(#loc)
    %58 = arith.muli %56, %57 : tensor<32x1xi64> loc(#loc)
    %c2147483647_i64_22 = arith.constant 2147483647 : i64 loc(#loc)
    %c-2147483648_i64_23 = arith.constant -2147483648 : i64 loc(#loc)
    %cst_24 = arith.constant dense<2147483647> : tensor<32x1xi64> loc(#loc)
    %59 = arith.cmpi sle, %58, %cst_24 : tensor<32x1xi64> loc(#loc)
    %cst_25 = arith.constant dense<-2147483648> : tensor<32x1xi64> loc(#loc)
    %60 = arith.cmpi sge, %58, %cst_25 : tensor<32x1xi64> loc(#loc)
    %61 = arith.andi %59, %60 : tensor<32x1xi1> loc(#loc)
    %62 = arith.muli %55, %cst_21 : tensor<32x1xi32> loc(#loc)
    %63 = tt.splat %b_scale : !tt.ptr<i8> -> tensor<32x1x!tt.ptr<i8>> loc(#loc)
    %64 = tt.addptr %63, %62 : tensor<32x1x!tt.ptr<i8>>, tensor<32x1xi32> loc(#loc)
    %65 = tt.make_range {end = 8 : i32, start = 0 : i32} : tensor<8xi32> loc(#loc)
    %66 = tt.expand_dims %65 {axis = 0 : i32} : tensor<8xi32> -> tensor<1x8xi32> loc(#loc)
    %67 = tt.broadcast %64 : tensor<32x1x!tt.ptr<i8>> -> tensor<32x8x!tt.ptr<i8>> loc(#loc)
    %68 = tt.broadcast %66 : tensor<1x8xi32> -> tensor<32x8xi32> loc(#loc)
    %69 = tt.addptr %67, %68 : tensor<32x8x!tt.ptr<i8>>, tensor<32x8xi32> loc(#loc)
    %70 = tt.load %69 : tensor<32x8x!tt.ptr<i8>> loc(#loc)
    %71 = tt.reshape %70 : tensor<32x8xi8> -> tensor<32x2x4xi8> loc(#loc)
    %72 = tt.trans %71 {order = array<i32: 0, 2, 1>} : tensor<32x2x4xi8> -> tensor<32x4x2xi8> loc(#loc)
    %outLHS_26, %outRHS_27 = tt.split %72 : tensor<32x4x2xi8> -> tensor<32x4xi8> loc(#loc)
    %cst_28 = arith.constant 0.000000e+00 : f32 loc(#loc)
    %cst_29 = arith.constant dense<0.000000e+00> : tensor<32x32xf32> loc(#loc)
    %73 = tt.dot_scaled %outLHS, %outLHS_18 scale %outLHS_26, %cst_29 lhs = bf16 rhs = e2m1 {fastMath = false} : tensor<32x128xbf16> * tensor<64x32xi8>, tensor<32x4xi8> -> tensor<32x32xf32> loc(#loc)
    %cst_30 = arith.constant 0.000000e+00 : f32 loc(#loc)
    %cst_31 = arith.constant dense<0.000000e+00> : tensor<32x32xf32> loc(#loc)
    %74 = tt.dot_scaled %outRHS, %outRHS_19 scale %outRHS_27, %cst_31 lhs = bf16 rhs = e2m1 {fastMath = false} : tensor<32x128xbf16> * tensor<64x32xi8>, tensor<32x4xi8> -> tensor<32x32xf32> loc(#loc)
    %75 = arith.addf %73, %74 : tensor<32x32xf32> loc(#loc)
    %76 = tt.make_range {end = 32 : i32, start = 0 : i32} : tensor<32xi32> loc(#loc)
    %77 = tt.expand_dims %76 {axis = 1 : i32} : tensor<32xi32> -> tensor<32x1xi32> loc(#loc)
    %c32_i32 = arith.constant 32 : i32 loc(#loc)
    %c32_i32_32 = arith.constant 32 : i32 loc(#loc)
    %cst_33 = arith.constant dense<32> : tensor<32x1xi32> loc(#loc)
    %78 = arith.extsi %77 : tensor<32x1xi32> to tensor<32x1xi64> loc(#loc)
    %79 = arith.extsi %cst_33 : tensor<32x1xi32> to tensor<32x1xi64> loc(#loc)
    %80 = arith.muli %78, %79 : tensor<32x1xi64> loc(#loc)
    %c2147483647_i64_34 = arith.constant 2147483647 : i64 loc(#loc)
    %c-2147483648_i64_35 = arith.constant -2147483648 : i64 loc(#loc)
    %cst_36 = arith.constant dense<2147483647> : tensor<32x1xi64> loc(#loc)
    %81 = arith.cmpi sle, %80, %cst_36 : tensor<32x1xi64> loc(#loc)
    %cst_37 = arith.constant dense<-2147483648> : tensor<32x1xi64> loc(#loc)
    %82 = arith.cmpi sge, %80, %cst_37 : tensor<32x1xi64> loc(#loc)
    %83 = arith.andi %81, %82 : tensor<32x1xi1> loc(#loc)
    %84 = arith.muli %77, %cst_33 : tensor<32x1xi32> loc(#loc)
    %85 = tt.splat %out : !tt.ptr<bf16> -> tensor<32x1x!tt.ptr<bf16>> loc(#loc)
    %86 = tt.addptr %85, %84 : tensor<32x1x!tt.ptr<bf16>>, tensor<32x1xi32> loc(#loc)
    %87 = tt.make_range {end = 32 : i32, start = 0 : i32} : tensor<32xi32> loc(#loc)
    %88 = tt.expand_dims %87 {axis = 0 : i32} : tensor<32xi32> -> tensor<1x32xi32> loc(#loc)
    %89 = tt.broadcast %86 : tensor<32x1x!tt.ptr<bf16>> -> tensor<32x32x!tt.ptr<bf16>> loc(#loc)
    %90 = tt.broadcast %88 : tensor<1x32xi32> -> tensor<32x32xi32> loc(#loc)
    %91 = tt.addptr %89, %90 : tensor<32x32x!tt.ptr<bf16>>, tensor<32x32xi32> loc(#loc)
    %92 = arith.truncf %75 : tensor<32x32xf32> to tensor<32x32xbf16> loc(#loc)
    tt.store %91, %92 : tensor<32x32x!tt.ptr<bf16>> loc(#loc)
    tt.return loc(#loc)
  } loc(#loc)
} loc(#loc)
#loc = loc(unknown)


// -----// IR Dump Before TritonRewriteTensorPointer (triton-rewrite-tensor-pointer) ('builtin.module' operation) //----- //
#loc1 = loc("a_base")
#loc2 = loc("stride_a0")
#loc3 = loc("b_base")
#loc4 = loc("stride_b1")
#loc5 = loc("b_scale")
#loc6 = loc("out")
module {
  tt.func public @dot_scale_kernel(%a_base: !tt.ptr<bf16> {tt.divisibility = 16 : i32, tt.pointer_range = 32 : i32} loc("a_base"), %stride_a0: i32 {tt.divisibility = 16 : i32} loc("stride_a0"), %b_base: !tt.ptr<i8> {tt.divisibility = 16 : i32, tt.pointer_range = 32 : i32} loc("b_base"), %stride_b1: i32 {tt.divisibility = 16 : i32} loc("stride_b1"), %b_scale: !tt.ptr<i8> {tt.divisibility = 16 : i32, tt.pointer_range = 32 : i32} loc("b_scale"), %out: !tt.ptr<bf16> {tt.divisibility = 16 : i32, tt.pointer_range = 32 : i32} loc("out")) attributes {noinline = false} {
    %cst = arith.constant dense<32> : tensor<32x1xi32> loc(#loc)
    %cst_0 = arith.constant dense<0.000000e+00> : tensor<32x32xf32> loc(#loc)
    %cst_1 = arith.constant dense<8> : tensor<32x1xi32> loc(#loc)
    %0 = tt.make_range {end = 32 : i32, start = 0 : i32} : tensor<32xi32> loc(#loc)
    %1 = tt.expand_dims %0 {axis = 1 : i32} : tensor<32xi32> -> tensor<32x1xi32> loc(#loc)
    %2 = tt.splat %stride_a0 : i32 -> tensor<32x1xi32> loc(#loc)
    %3 = arith.muli %1, %2 : tensor<32x1xi32> loc(#loc)
    %4 = tt.splat %a_base : !tt.ptr<bf16> -> tensor<32x1x!tt.ptr<bf16>> loc(#loc)
    %5 = tt.addptr %4, %3 : tensor<32x1x!tt.ptr<bf16>>, tensor<32x1xi32> loc(#loc)
    %6 = tt.make_range {end = 256 : i32, start = 0 : i32} : tensor<256xi32> loc(#loc)
    %7 = tt.expand_dims %6 {axis = 0 : i32} : tensor<256xi32> -> tensor<1x256xi32> loc(#loc)
    %8 = tt.broadcast %5 : tensor<32x1x!tt.ptr<bf16>> -> tensor<32x256x!tt.ptr<bf16>> loc(#loc)
    %9 = tt.broadcast %7 : tensor<1x256xi32> -> tensor<32x256xi32> loc(#loc)
    %10 = tt.addptr %8, %9 : tensor<32x256x!tt.ptr<bf16>>, tensor<32x256xi32> loc(#loc)
    %11 = tt.make_range {end = 128 : i32, start = 0 : i32} : tensor<128xi32> loc(#loc)
    %12 = tt.expand_dims %11 {axis = 1 : i32} : tensor<128xi32> -> tensor<128x1xi32> loc(#loc)
    %13 = tt.splat %b_base : !tt.ptr<i8> -> tensor<128x1x!tt.ptr<i8>> loc(#loc)
    %14 = tt.addptr %13, %12 : tensor<128x1x!tt.ptr<i8>>, tensor<128x1xi32> loc(#loc)
    %15 = tt.make_range {end = 32 : i32, start = 0 : i32} : tensor<32xi32> loc(#loc)
    %16 = tt.expand_dims %15 {axis = 0 : i32} : tensor<32xi32> -> tensor<1x32xi32> loc(#loc)
    %17 = tt.splat %stride_b1 : i32 -> tensor<1x32xi32> loc(#loc)
    %18 = arith.muli %16, %17 : tensor<1x32xi32> loc(#loc)
    %19 = tt.broadcast %14 : tensor<128x1x!tt.ptr<i8>> -> tensor<128x32x!tt.ptr<i8>> loc(#loc)
    %20 = tt.broadcast %18 : tensor<1x32xi32> -> tensor<128x32xi32> loc(#loc)
    %21 = tt.addptr %19, %20 : tensor<128x32x!tt.ptr<i8>>, tensor<128x32xi32> loc(#loc)
    %22 = tt.load %10 : tensor<32x256x!tt.ptr<bf16>> loc(#loc)
    %23 = tt.reshape %22 : tensor<32x256xbf16> -> tensor<32x2x128xbf16> loc(#loc)
    %24 = tt.trans %23 {order = array<i32: 0, 2, 1>} : tensor<32x2x128xbf16> -> tensor<32x128x2xbf16> loc(#loc)
    %outLHS, %outRHS = tt.split %24 : tensor<32x128x2xbf16> -> tensor<32x128xbf16> loc(#loc)
    %25 = tt.load %21 : tensor<128x32x!tt.ptr<i8>> loc(#loc)
    %26 = tt.reshape %25 : tensor<128x32xi8> -> tensor<2x64x32xi8> loc(#loc)
    %27 = tt.trans %26 {order = array<i32: 1, 2, 0>} : tensor<2x64x32xi8> -> tensor<64x32x2xi8> loc(#loc)
    %outLHS_2, %outRHS_3 = tt.split %27 : tensor<64x32x2xi8> -> tensor<64x32xi8> loc(#loc)
    %28 = tt.make_range {end = 32 : i32, start = 0 : i32} : tensor<32xi32> loc(#loc)
    %29 = tt.expand_dims %28 {axis = 1 : i32} : tensor<32xi32> -> tensor<32x1xi32> loc(#loc)
    %30 = arith.muli %29, %cst_1 : tensor<32x1xi32> loc(#loc)
    %31 = tt.splat %b_scale : !tt.ptr<i8> -> tensor<32x1x!tt.ptr<i8>> loc(#loc)
    %32 = tt.addptr %31, %30 : tensor<32x1x!tt.ptr<i8>>, tensor<32x1xi32> loc(#loc)
    %33 = tt.make_range {end = 8 : i32, start = 0 : i32} : tensor<8xi32> loc(#loc)
    %34 = tt.expand_dims %33 {axis = 0 : i32} : tensor<8xi32> -> tensor<1x8xi32> loc(#loc)
    %35 = tt.broadcast %32 : tensor<32x1x!tt.ptr<i8>> -> tensor<32x8x!tt.ptr<i8>> loc(#loc)
    %36 = tt.broadcast %34 : tensor<1x8xi32> -> tensor<32x8xi32> loc(#loc)
    %37 = tt.addptr %35, %36 : tensor<32x8x!tt.ptr<i8>>, tensor<32x8xi32> loc(#loc)
    %38 = tt.load %37 : tensor<32x8x!tt.ptr<i8>> loc(#loc)
    %39 = tt.reshape %38 : tensor<32x8xi8> -> tensor<32x2x4xi8> loc(#loc)
    %40 = tt.trans %39 {order = array<i32: 0, 2, 1>} : tensor<32x2x4xi8> -> tensor<32x4x2xi8> loc(#loc)
    %outLHS_4, %outRHS_5 = tt.split %40 : tensor<32x4x2xi8> -> tensor<32x4xi8> loc(#loc)
    %41 = tt.dot_scaled %outLHS, %outLHS_2 scale %outLHS_4, %cst_0 lhs = bf16 rhs = e2m1 {fastMath = false} : tensor<32x128xbf16> * tensor<64x32xi8>, tensor<32x4xi8> -> tensor<32x32xf32> loc(#loc)
    %42 = tt.dot_scaled %outRHS, %outRHS_3 scale %outRHS_5, %cst_0 lhs = bf16 rhs = e2m1 {fastMath = false} : tensor<32x128xbf16> * tensor<64x32xi8>, tensor<32x4xi8> -> tensor<32x32xf32> loc(#loc)
    %43 = arith.addf %41, %42 : tensor<32x32xf32> loc(#loc)
    %44 = tt.make_range {end = 32 : i32, start = 0 : i32} : tensor<32xi32> loc(#loc)
    %45 = tt.expand_dims %44 {axis = 1 : i32} : tensor<32xi32> -> tensor<32x1xi32> loc(#loc)
    %46 = arith.muli %45, %cst : tensor<32x1xi32> loc(#loc)
    %47 = tt.splat %out : !tt.ptr<bf16> -> tensor<32x1x!tt.ptr<bf16>> loc(#loc)
    %48 = tt.addptr %47, %46 : tensor<32x1x!tt.ptr<bf16>>, tensor<32x1xi32> loc(#loc)
    %49 = tt.make_range {end = 32 : i32, start = 0 : i32} : tensor<32xi32> loc(#loc)
    %50 = tt.expand_dims %49 {axis = 0 : i32} : tensor<32xi32> -> tensor<1x32xi32> loc(#loc)
    %51 = tt.broadcast %48 : tensor<32x1x!tt.ptr<bf16>> -> tensor<32x32x!tt.ptr<bf16>> loc(#loc)
    %52 = tt.broadcast %50 : tensor<1x32xi32> -> tensor<32x32xi32> loc(#loc)
    %53 = tt.addptr %51, %52 : tensor<32x32x!tt.ptr<bf16>>, tensor<32x32xi32> loc(#loc)
    %54 = arith.truncf %43 : tensor<32x32xf32> to tensor<32x32xbf16> loc(#loc)
    tt.store %53, %54 : tensor<32x32x!tt.ptr<bf16>> loc(#loc)
    tt.return loc(#loc)
  } loc(#loc)
} loc(#loc)
#loc = loc(unknown)


// -----// IR Dump Before TritonRewriteTensorDescriptorToPointer (triton-rewrite-tensor-descriptor-to-pointer) ('builtin.module' operation) //----- //
#loc1 = loc("a_base")
#loc2 = loc("stride_a0")
#loc3 = loc("b_base")
#loc4 = loc("stride_b1")
#loc5 = loc("b_scale")
#loc6 = loc("out")
module {
  tt.func public @dot_scale_kernel(%a_base: !tt.ptr<bf16> {tt.divisibility = 16 : i32, tt.pointer_range = 32 : i32} loc("a_base"), %stride_a0: i32 {tt.divisibility = 16 : i32} loc("stride_a0"), %b_base: !tt.ptr<i8> {tt.divisibility = 16 : i32, tt.pointer_range = 32 : i32} loc("b_base"), %stride_b1: i32 {tt.divisibility = 16 : i32} loc("stride_b1"), %b_scale: !tt.ptr<i8> {tt.divisibility = 16 : i32, tt.pointer_range = 32 : i32} loc("b_scale"), %out: !tt.ptr<bf16> {tt.divisibility = 16 : i32, tt.pointer_range = 32 : i32} loc("out")) attributes {noinline = false} {
    %cst = arith.constant dense<32> : tensor<32x1xi32> loc(#loc)
    %cst_0 = arith.constant dense<0.000000e+00> : tensor<32x32xf32> loc(#loc)
    %cst_1 = arith.constant dense<8> : tensor<32x1xi32> loc(#loc)
    %0 = tt.make_range {end = 32 : i32, start = 0 : i32} : tensor<32xi32> loc(#loc)
    %1 = tt.expand_dims %0 {axis = 1 : i32} : tensor<32xi32> -> tensor<32x1xi32> loc(#loc)
    %2 = tt.splat %stride_a0 : i32 -> tensor<32x1xi32> loc(#loc)
    %3 = arith.muli %1, %2 : tensor<32x1xi32> loc(#loc)
    %4 = tt.splat %a_base : !tt.ptr<bf16> -> tensor<32x1x!tt.ptr<bf16>> loc(#loc)
    %5 = tt.addptr %4, %3 : tensor<32x1x!tt.ptr<bf16>>, tensor<32x1xi32> loc(#loc)
    %6 = tt.make_range {end = 256 : i32, start = 0 : i32} : tensor<256xi32> loc(#loc)
    %7 = tt.expand_dims %6 {axis = 0 : i32} : tensor<256xi32> -> tensor<1x256xi32> loc(#loc)
    %8 = tt.broadcast %5 : tensor<32x1x!tt.ptr<bf16>> -> tensor<32x256x!tt.ptr<bf16>> loc(#loc)
    %9 = tt.broadcast %7 : tensor<1x256xi32> -> tensor<32x256xi32> loc(#loc)
    %10 = tt.addptr %8, %9 : tensor<32x256x!tt.ptr<bf16>>, tensor<32x256xi32> loc(#loc)
    %11 = tt.make_range {end = 128 : i32, start = 0 : i32} : tensor<128xi32> loc(#loc)
    %12 = tt.expand_dims %11 {axis = 1 : i32} : tensor<128xi32> -> tensor<128x1xi32> loc(#loc)
    %13 = tt.splat %b_base : !tt.ptr<i8> -> tensor<128x1x!tt.ptr<i8>> loc(#loc)
    %14 = tt.addptr %13, %12 : tensor<128x1x!tt.ptr<i8>>, tensor<128x1xi32> loc(#loc)
    %15 = tt.make_range {end = 32 : i32, start = 0 : i32} : tensor<32xi32> loc(#loc)
    %16 = tt.expand_dims %15 {axis = 0 : i32} : tensor<32xi32> -> tensor<1x32xi32> loc(#loc)
    %17 = tt.splat %stride_b1 : i32 -> tensor<1x32xi32> loc(#loc)
    %18 = arith.muli %16, %17 : tensor<1x32xi32> loc(#loc)
    %19 = tt.broadcast %14 : tensor<128x1x!tt.ptr<i8>> -> tensor<128x32x!tt.ptr<i8>> loc(#loc)
    %20 = tt.broadcast %18 : tensor<1x32xi32> -> tensor<128x32xi32> loc(#loc)
    %21 = tt.addptr %19, %20 : tensor<128x32x!tt.ptr<i8>>, tensor<128x32xi32> loc(#loc)
    %22 = tt.load %10 : tensor<32x256x!tt.ptr<bf16>> loc(#loc)
    %23 = tt.reshape %22 : tensor<32x256xbf16> -> tensor<32x2x128xbf16> loc(#loc)
    %24 = tt.trans %23 {order = array<i32: 0, 2, 1>} : tensor<32x2x128xbf16> -> tensor<32x128x2xbf16> loc(#loc)
    %outLHS, %outRHS = tt.split %24 : tensor<32x128x2xbf16> -> tensor<32x128xbf16> loc(#loc)
    %25 = tt.load %21 : tensor<128x32x!tt.ptr<i8>> loc(#loc)
    %26 = tt.reshape %25 : tensor<128x32xi8> -> tensor<2x64x32xi8> loc(#loc)
    %27 = tt.trans %26 {order = array<i32: 1, 2, 0>} : tensor<2x64x32xi8> -> tensor<64x32x2xi8> loc(#loc)
    %outLHS_2, %outRHS_3 = tt.split %27 : tensor<64x32x2xi8> -> tensor<64x32xi8> loc(#loc)
    %28 = tt.make_range {end = 32 : i32, start = 0 : i32} : tensor<32xi32> loc(#loc)
    %29 = tt.expand_dims %28 {axis = 1 : i32} : tensor<32xi32> -> tensor<32x1xi32> loc(#loc)
    %30 = arith.muli %29, %cst_1 : tensor<32x1xi32> loc(#loc)
    %31 = tt.splat %b_scale : !tt.ptr<i8> -> tensor<32x1x!tt.ptr<i8>> loc(#loc)
    %32 = tt.addptr %31, %30 : tensor<32x1x!tt.ptr<i8>>, tensor<32x1xi32> loc(#loc)
    %33 = tt.make_range {end = 8 : i32, start = 0 : i32} : tensor<8xi32> loc(#loc)
    %34 = tt.expand_dims %33 {axis = 0 : i32} : tensor<8xi32> -> tensor<1x8xi32> loc(#loc)
    %35 = tt.broadcast %32 : tensor<32x1x!tt.ptr<i8>> -> tensor<32x8x!tt.ptr<i8>> loc(#loc)
    %36 = tt.broadcast %34 : tensor<1x8xi32> -> tensor<32x8xi32> loc(#loc)
    %37 = tt.addptr %35, %36 : tensor<32x8x!tt.ptr<i8>>, tensor<32x8xi32> loc(#loc)
    %38 = tt.load %37 : tensor<32x8x!tt.ptr<i8>> loc(#loc)
    %39 = tt.reshape %38 : tensor<32x8xi8> -> tensor<32x2x4xi8> loc(#loc)
    %40 = tt.trans %39 {order = array<i32: 0, 2, 1>} : tensor<32x2x4xi8> -> tensor<32x4x2xi8> loc(#loc)
    %outLHS_4, %outRHS_5 = tt.split %40 : tensor<32x4x2xi8> -> tensor<32x4xi8> loc(#loc)
    %41 = tt.dot_scaled %outLHS, %outLHS_2 scale %outLHS_4, %cst_0 lhs = bf16 rhs = e2m1 {fastMath = false} : tensor<32x128xbf16> * tensor<64x32xi8>, tensor<32x4xi8> -> tensor<32x32xf32> loc(#loc)
    %42 = tt.dot_scaled %outRHS, %outRHS_3 scale %outRHS_5, %cst_0 lhs = bf16 rhs = e2m1 {fastMath = false} : tensor<32x128xbf16> * tensor<64x32xi8>, tensor<32x4xi8> -> tensor<32x32xf32> loc(#loc)
    %43 = arith.addf %41, %42 : tensor<32x32xf32> loc(#loc)
    %44 = tt.make_range {end = 32 : i32, start = 0 : i32} : tensor<32xi32> loc(#loc)
    %45 = tt.expand_dims %44 {axis = 1 : i32} : tensor<32xi32> -> tensor<32x1xi32> loc(#loc)
    %46 = arith.muli %45, %cst : tensor<32x1xi32> loc(#loc)
    %47 = tt.splat %out : !tt.ptr<bf16> -> tensor<32x1x!tt.ptr<bf16>> loc(#loc)
    %48 = tt.addptr %47, %46 : tensor<32x1x!tt.ptr<bf16>>, tensor<32x1xi32> loc(#loc)
    %49 = tt.make_range {end = 32 : i32, start = 0 : i32} : tensor<32xi32> loc(#loc)
    %50 = tt.expand_dims %49 {axis = 0 : i32} : tensor<32xi32> -> tensor<1x32xi32> loc(#loc)
    %51 = tt.broadcast %48 : tensor<32x1x!tt.ptr<bf16>> -> tensor<32x32x!tt.ptr<bf16>> loc(#loc)
    %52 = tt.broadcast %50 : tensor<1x32xi32> -> tensor<32x32xi32> loc(#loc)
    %53 = tt.addptr %51, %52 : tensor<32x32x!tt.ptr<bf16>>, tensor<32x32xi32> loc(#loc)
    %54 = arith.truncf %43 : tensor<32x32xf32> to tensor<32x32xbf16> loc(#loc)
    tt.store %53, %54 : tensor<32x32x!tt.ptr<bf16>> loc(#loc)
    tt.return loc(#loc)
  } loc(#loc)
} loc(#loc)
#loc = loc(unknown)


// -----// IR Dump Before Canonicalizer (canonicalize) ('builtin.module' operation) //----- //
#loc1 = loc("a_base")
#loc2 = loc("stride_a0")
#loc3 = loc("b_base")
#loc4 = loc("stride_b1")
#loc5 = loc("b_scale")
#loc6 = loc("out")
module {
  tt.func public @dot_scale_kernel(%a_base: !tt.ptr<bf16> {tt.divisibility = 16 : i32, tt.pointer_range = 32 : i32} loc("a_base"), %stride_a0: i32 {tt.divisibility = 16 : i32} loc("stride_a0"), %b_base: !tt.ptr<i8> {tt.divisibility = 16 : i32, tt.pointer_range = 32 : i32} loc("b_base"), %stride_b1: i32 {tt.divisibility = 16 : i32} loc("stride_b1"), %b_scale: !tt.ptr<i8> {tt.divisibility = 16 : i32, tt.pointer_range = 32 : i32} loc("b_scale"), %out: !tt.ptr<bf16> {tt.divisibility = 16 : i32, tt.pointer_range = 32 : i32} loc("out")) attributes {noinline = false} {
    %cst = arith.constant dense<32> : tensor<32x1xi32> loc(#loc)
    %cst_0 = arith.constant dense<0.000000e+00> : tensor<32x32xf32> loc(#loc)
    %cst_1 = arith.constant dense<8> : tensor<32x1xi32> loc(#loc)
    %0 = tt.make_range {end = 32 : i32, start = 0 : i32} : tensor<32xi32> loc(#loc)
    %1 = tt.expand_dims %0 {axis = 1 : i32} : tensor<32xi32> -> tensor<32x1xi32> loc(#loc)
    %2 = tt.splat %stride_a0 : i32 -> tensor<32x1xi32> loc(#loc)
    %3 = arith.muli %1, %2 : tensor<32x1xi32> loc(#loc)
    %4 = tt.splat %a_base : !tt.ptr<bf16> -> tensor<32x1x!tt.ptr<bf16>> loc(#loc)
    %5 = tt.addptr %4, %3 : tensor<32x1x!tt.ptr<bf16>>, tensor<32x1xi32> loc(#loc)
    %6 = tt.make_range {end = 256 : i32, start = 0 : i32} : tensor<256xi32> loc(#loc)
    %7 = tt.expand_dims %6 {axis = 0 : i32} : tensor<256xi32> -> tensor<1x256xi32> loc(#loc)
    %8 = tt.broadcast %5 : tensor<32x1x!tt.ptr<bf16>> -> tensor<32x256x!tt.ptr<bf16>> loc(#loc)
    %9 = tt.broadcast %7 : tensor<1x256xi32> -> tensor<32x256xi32> loc(#loc)
    %10 = tt.addptr %8, %9 : tensor<32x256x!tt.ptr<bf16>>, tensor<32x256xi32> loc(#loc)
    %11 = tt.make_range {end = 128 : i32, start = 0 : i32} : tensor<128xi32> loc(#loc)
    %12 = tt.expand_dims %11 {axis = 1 : i32} : tensor<128xi32> -> tensor<128x1xi32> loc(#loc)
    %13 = tt.splat %b_base : !tt.ptr<i8> -> tensor<128x1x!tt.ptr<i8>> loc(#loc)
    %14 = tt.addptr %13, %12 : tensor<128x1x!tt.ptr<i8>>, tensor<128x1xi32> loc(#loc)
    %15 = tt.make_range {end = 32 : i32, start = 0 : i32} : tensor<32xi32> loc(#loc)
    %16 = tt.expand_dims %15 {axis = 0 : i32} : tensor<32xi32> -> tensor<1x32xi32> loc(#loc)
    %17 = tt.splat %stride_b1 : i32 -> tensor<1x32xi32> loc(#loc)
    %18 = arith.muli %16, %17 : tensor<1x32xi32> loc(#loc)
    %19 = tt.broadcast %14 : tensor<128x1x!tt.ptr<i8>> -> tensor<128x32x!tt.ptr<i8>> loc(#loc)
    %20 = tt.broadcast %18 : tensor<1x32xi32> -> tensor<128x32xi32> loc(#loc)
    %21 = tt.addptr %19, %20 : tensor<128x32x!tt.ptr<i8>>, tensor<128x32xi32> loc(#loc)
    %22 = tt.load %10 : tensor<32x256x!tt.ptr<bf16>> loc(#loc)
    %23 = tt.reshape %22 : tensor<32x256xbf16> -> tensor<32x2x128xbf16> loc(#loc)
    %24 = tt.trans %23 {order = array<i32: 0, 2, 1>} : tensor<32x2x128xbf16> -> tensor<32x128x2xbf16> loc(#loc)
    %outLHS, %outRHS = tt.split %24 : tensor<32x128x2xbf16> -> tensor<32x128xbf16> loc(#loc)
    %25 = tt.load %21 : tensor<128x32x!tt.ptr<i8>> loc(#loc)
    %26 = tt.reshape %25 : tensor<128x32xi8> -> tensor<2x64x32xi8> loc(#loc)
    %27 = tt.trans %26 {order = array<i32: 1, 2, 0>} : tensor<2x64x32xi8> -> tensor<64x32x2xi8> loc(#loc)
    %outLHS_2, %outRHS_3 = tt.split %27 : tensor<64x32x2xi8> -> tensor<64x32xi8> loc(#loc)
    %28 = tt.make_range {end = 32 : i32, start = 0 : i32} : tensor<32xi32> loc(#loc)
    %29 = tt.expand_dims %28 {axis = 1 : i32} : tensor<32xi32> -> tensor<32x1xi32> loc(#loc)
    %30 = arith.muli %29, %cst_1 : tensor<32x1xi32> loc(#loc)
    %31 = tt.splat %b_scale : !tt.ptr<i8> -> tensor<32x1x!tt.ptr<i8>> loc(#loc)
    %32 = tt.addptr %31, %30 : tensor<32x1x!tt.ptr<i8>>, tensor<32x1xi32> loc(#loc)
    %33 = tt.make_range {end = 8 : i32, start = 0 : i32} : tensor<8xi32> loc(#loc)
    %34 = tt.expand_dims %33 {axis = 0 : i32} : tensor<8xi32> -> tensor<1x8xi32> loc(#loc)
    %35 = tt.broadcast %32 : tensor<32x1x!tt.ptr<i8>> -> tensor<32x8x!tt.ptr<i8>> loc(#loc)
    %36 = tt.broadcast %34 : tensor<1x8xi32> -> tensor<32x8xi32> loc(#loc)
    %37 = tt.addptr %35, %36 : tensor<32x8x!tt.ptr<i8>>, tensor<32x8xi32> loc(#loc)
    %38 = tt.load %37 : tensor<32x8x!tt.ptr<i8>> loc(#loc)
    %39 = tt.reshape %38 : tensor<32x8xi8> -> tensor<32x2x4xi8> loc(#loc)
    %40 = tt.trans %39 {order = array<i32: 0, 2, 1>} : tensor<32x2x4xi8> -> tensor<32x4x2xi8> loc(#loc)
    %outLHS_4, %outRHS_5 = tt.split %40 : tensor<32x4x2xi8> -> tensor<32x4xi8> loc(#loc)
    %41 = tt.dot_scaled %outLHS, %outLHS_2 scale %outLHS_4, %cst_0 lhs = bf16 rhs = e2m1 {fastMath = false} : tensor<32x128xbf16> * tensor<64x32xi8>, tensor<32x4xi8> -> tensor<32x32xf32> loc(#loc)
    %42 = tt.dot_scaled %outRHS, %outRHS_3 scale %outRHS_5, %cst_0 lhs = bf16 rhs = e2m1 {fastMath = false} : tensor<32x128xbf16> * tensor<64x32xi8>, tensor<32x4xi8> -> tensor<32x32xf32> loc(#loc)
    %43 = arith.addf %41, %42 : tensor<32x32xf32> loc(#loc)
    %44 = tt.make_range {end = 32 : i32, start = 0 : i32} : tensor<32xi32> loc(#loc)
    %45 = tt.expand_dims %44 {axis = 1 : i32} : tensor<32xi32> -> tensor<32x1xi32> loc(#loc)
    %46 = arith.muli %45, %cst : tensor<32x1xi32> loc(#loc)
    %47 = tt.splat %out : !tt.ptr<bf16> -> tensor<32x1x!tt.ptr<bf16>> loc(#loc)
    %48 = tt.addptr %47, %46 : tensor<32x1x!tt.ptr<bf16>>, tensor<32x1xi32> loc(#loc)
    %49 = tt.make_range {end = 32 : i32, start = 0 : i32} : tensor<32xi32> loc(#loc)
    %50 = tt.expand_dims %49 {axis = 0 : i32} : tensor<32xi32> -> tensor<1x32xi32> loc(#loc)
    %51 = tt.broadcast %48 : tensor<32x1x!tt.ptr<bf16>> -> tensor<32x32x!tt.ptr<bf16>> loc(#loc)
    %52 = tt.broadcast %50 : tensor<1x32xi32> -> tensor<32x32xi32> loc(#loc)
    %53 = tt.addptr %51, %52 : tensor<32x32x!tt.ptr<bf16>>, tensor<32x32xi32> loc(#loc)
    %54 = arith.truncf %43 : tensor<32x32xf32> to tensor<32x32xbf16> loc(#loc)
    tt.store %53, %54 : tensor<32x32x!tt.ptr<bf16>> loc(#loc)
    tt.return loc(#loc)
  } loc(#loc)
} loc(#loc)
#loc = loc(unknown)


// -----// IR Dump Before TritonCombineOps (triton-combine) ('builtin.module' operation) //----- //
#loc1 = loc("a_base")
#loc2 = loc("stride_a0")
#loc3 = loc("b_base")
#loc4 = loc("stride_b1")
#loc5 = loc("b_scale")
#loc6 = loc("out")
module {
  tt.func public @dot_scale_kernel(%a_base: !tt.ptr<bf16> {tt.divisibility = 16 : i32, tt.pointer_range = 32 : i32} loc("a_base"), %stride_a0: i32 {tt.divisibility = 16 : i32} loc("stride_a0"), %b_base: !tt.ptr<i8> {tt.divisibility = 16 : i32, tt.pointer_range = 32 : i32} loc("b_base"), %stride_b1: i32 {tt.divisibility = 16 : i32} loc("stride_b1"), %b_scale: !tt.ptr<i8> {tt.divisibility = 16 : i32, tt.pointer_range = 32 : i32} loc("b_scale"), %out: !tt.ptr<bf16> {tt.divisibility = 16 : i32, tt.pointer_range = 32 : i32} loc("out")) attributes {noinline = false} {
    %cst = arith.constant dense<32> : tensor<32x1xi32> loc(#loc)
    %cst_0 = arith.constant dense<0.000000e+00> : tensor<32x32xf32> loc(#loc)
    %cst_1 = arith.constant dense<8> : tensor<32x1xi32> loc(#loc)
    %0 = tt.make_range {end = 32 : i32, start = 0 : i32} : tensor<32xi32> loc(#loc)
    %1 = tt.expand_dims %0 {axis = 1 : i32} : tensor<32xi32> -> tensor<32x1xi32> loc(#loc)
    %2 = tt.splat %stride_a0 : i32 -> tensor<32x1xi32> loc(#loc)
    %3 = arith.muli %1, %2 : tensor<32x1xi32> loc(#loc)
    %4 = tt.splat %a_base : !tt.ptr<bf16> -> tensor<32x1x!tt.ptr<bf16>> loc(#loc)
    %5 = tt.addptr %4, %3 : tensor<32x1x!tt.ptr<bf16>>, tensor<32x1xi32> loc(#loc)
    %6 = tt.make_range {end = 256 : i32, start = 0 : i32} : tensor<256xi32> loc(#loc)
    %7 = tt.expand_dims %6 {axis = 0 : i32} : tensor<256xi32> -> tensor<1x256xi32> loc(#loc)
    %8 = tt.broadcast %5 : tensor<32x1x!tt.ptr<bf16>> -> tensor<32x256x!tt.ptr<bf16>> loc(#loc)
    %9 = tt.broadcast %7 : tensor<1x256xi32> -> tensor<32x256xi32> loc(#loc)
    %10 = tt.addptr %8, %9 : tensor<32x256x!tt.ptr<bf16>>, tensor<32x256xi32> loc(#loc)
    %11 = tt.make_range {end = 128 : i32, start = 0 : i32} : tensor<128xi32> loc(#loc)
    %12 = tt.expand_dims %11 {axis = 1 : i32} : tensor<128xi32> -> tensor<128x1xi32> loc(#loc)
    %13 = tt.splat %b_base : !tt.ptr<i8> -> tensor<128x1x!tt.ptr<i8>> loc(#loc)
    %14 = tt.addptr %13, %12 : tensor<128x1x!tt.ptr<i8>>, tensor<128x1xi32> loc(#loc)
    %15 = tt.make_range {end = 32 : i32, start = 0 : i32} : tensor<32xi32> loc(#loc)
    %16 = tt.expand_dims %15 {axis = 0 : i32} : tensor<32xi32> -> tensor<1x32xi32> loc(#loc)
    %17 = tt.splat %stride_b1 : i32 -> tensor<1x32xi32> loc(#loc)
    %18 = arith.muli %16, %17 : tensor<1x32xi32> loc(#loc)
    %19 = tt.broadcast %14 : tensor<128x1x!tt.ptr<i8>> -> tensor<128x32x!tt.ptr<i8>> loc(#loc)
    %20 = tt.broadcast %18 : tensor<1x32xi32> -> tensor<128x32xi32> loc(#loc)
    %21 = tt.addptr %19, %20 : tensor<128x32x!tt.ptr<i8>>, tensor<128x32xi32> loc(#loc)
    %22 = tt.load %10 : tensor<32x256x!tt.ptr<bf16>> loc(#loc)
    %23 = tt.reshape %22 : tensor<32x256xbf16> -> tensor<32x2x128xbf16> loc(#loc)
    %24 = tt.trans %23 {order = array<i32: 0, 2, 1>} : tensor<32x2x128xbf16> -> tensor<32x128x2xbf16> loc(#loc)
    %outLHS, %outRHS = tt.split %24 : tensor<32x128x2xbf16> -> tensor<32x128xbf16> loc(#loc)
    %25 = tt.load %21 : tensor<128x32x!tt.ptr<i8>> loc(#loc)
    %26 = tt.reshape %25 : tensor<128x32xi8> -> tensor<2x64x32xi8> loc(#loc)
    %27 = tt.trans %26 {order = array<i32: 1, 2, 0>} : tensor<2x64x32xi8> -> tensor<64x32x2xi8> loc(#loc)
    %outLHS_2, %outRHS_3 = tt.split %27 : tensor<64x32x2xi8> -> tensor<64x32xi8> loc(#loc)
    %28 = tt.make_range {end = 32 : i32, start = 0 : i32} : tensor<32xi32> loc(#loc)
    %29 = tt.expand_dims %28 {axis = 1 : i32} : tensor<32xi32> -> tensor<32x1xi32> loc(#loc)
    %30 = arith.muli %29, %cst_1 : tensor<32x1xi32> loc(#loc)
    %31 = tt.splat %b_scale : !tt.ptr<i8> -> tensor<32x1x!tt.ptr<i8>> loc(#loc)
    %32 = tt.addptr %31, %30 : tensor<32x1x!tt.ptr<i8>>, tensor<32x1xi32> loc(#loc)
    %33 = tt.make_range {end = 8 : i32, start = 0 : i32} : tensor<8xi32> loc(#loc)
    %34 = tt.expand_dims %33 {axis = 0 : i32} : tensor<8xi32> -> tensor<1x8xi32> loc(#loc)
    %35 = tt.broadcast %32 : tensor<32x1x!tt.ptr<i8>> -> tensor<32x8x!tt.ptr<i8>> loc(#loc)
    %36 = tt.broadcast %34 : tensor<1x8xi32> -> tensor<32x8xi32> loc(#loc)
    %37 = tt.addptr %35, %36 : tensor<32x8x!tt.ptr<i8>>, tensor<32x8xi32> loc(#loc)
    %38 = tt.load %37 : tensor<32x8x!tt.ptr<i8>> loc(#loc)
    %39 = tt.reshape %38 : tensor<32x8xi8> -> tensor<32x2x4xi8> loc(#loc)
    %40 = tt.trans %39 {order = array<i32: 0, 2, 1>} : tensor<32x2x4xi8> -> tensor<32x4x2xi8> loc(#loc)
    %outLHS_4, %outRHS_5 = tt.split %40 : tensor<32x4x2xi8> -> tensor<32x4xi8> loc(#loc)
    %41 = tt.dot_scaled %outLHS, %outLHS_2 scale %outLHS_4, %cst_0 lhs = bf16 rhs = e2m1 {fastMath = false} : tensor<32x128xbf16> * tensor<64x32xi8>, tensor<32x4xi8> -> tensor<32x32xf32> loc(#loc)
    %42 = tt.dot_scaled %outRHS, %outRHS_3 scale %outRHS_5, %cst_0 lhs = bf16 rhs = e2m1 {fastMath = false} : tensor<32x128xbf16> * tensor<64x32xi8>, tensor<32x4xi8> -> tensor<32x32xf32> loc(#loc)
    %43 = arith.addf %41, %42 : tensor<32x32xf32> loc(#loc)
    %44 = tt.make_range {end = 32 : i32, start = 0 : i32} : tensor<32xi32> loc(#loc)
    %45 = tt.expand_dims %44 {axis = 1 : i32} : tensor<32xi32> -> tensor<32x1xi32> loc(#loc)
    %46 = arith.muli %45, %cst : tensor<32x1xi32> loc(#loc)
    %47 = tt.splat %out : !tt.ptr<bf16> -> tensor<32x1x!tt.ptr<bf16>> loc(#loc)
    %48 = tt.addptr %47, %46 : tensor<32x1x!tt.ptr<bf16>>, tensor<32x1xi32> loc(#loc)
    %49 = tt.make_range {end = 32 : i32, start = 0 : i32} : tensor<32xi32> loc(#loc)
    %50 = tt.expand_dims %49 {axis = 0 : i32} : tensor<32xi32> -> tensor<1x32xi32> loc(#loc)
    %51 = tt.broadcast %48 : tensor<32x1x!tt.ptr<bf16>> -> tensor<32x32x!tt.ptr<bf16>> loc(#loc)
    %52 = tt.broadcast %50 : tensor<1x32xi32> -> tensor<32x32xi32> loc(#loc)
    %53 = tt.addptr %51, %52 : tensor<32x32x!tt.ptr<bf16>>, tensor<32x32xi32> loc(#loc)
    %54 = arith.truncf %43 : tensor<32x32xf32> to tensor<32x32xbf16> loc(#loc)
    tt.store %53, %54 : tensor<32x32x!tt.ptr<bf16>> loc(#loc)
    tt.return loc(#loc)
  } loc(#loc)
} loc(#loc)
#loc = loc(unknown)


// -----// IR Dump Before TritonReorderBroadcast (triton-reorder-broadcast) ('builtin.module' operation) //----- //
#loc1 = loc("a_base")
#loc2 = loc("stride_a0")
#loc3 = loc("b_base")
#loc4 = loc("stride_b1")
#loc5 = loc("b_scale")
#loc6 = loc("out")
module {
  tt.func public @dot_scale_kernel(%a_base: !tt.ptr<bf16> {tt.divisibility = 16 : i32, tt.pointer_range = 32 : i32} loc("a_base"), %stride_a0: i32 {tt.divisibility = 16 : i32} loc("stride_a0"), %b_base: !tt.ptr<i8> {tt.divisibility = 16 : i32, tt.pointer_range = 32 : i32} loc("b_base"), %stride_b1: i32 {tt.divisibility = 16 : i32} loc("stride_b1"), %b_scale: !tt.ptr<i8> {tt.divisibility = 16 : i32, tt.pointer_range = 32 : i32} loc("b_scale"), %out: !tt.ptr<bf16> {tt.divisibility = 16 : i32, tt.pointer_range = 32 : i32} loc("out")) attributes {noinline = false} {
    %cst = arith.constant dense<32> : tensor<32x1xi32> loc(#loc)
    %cst_0 = arith.constant dense<0.000000e+00> : tensor<32x32xf32> loc(#loc)
    %cst_1 = arith.constant dense<8> : tensor<32x1xi32> loc(#loc)
    %0 = tt.make_range {end = 32 : i32, start = 0 : i32} : tensor<32xi32> loc(#loc)
    %1 = tt.expand_dims %0 {axis = 1 : i32} : tensor<32xi32> -> tensor<32x1xi32> loc(#loc)
    %2 = tt.splat %stride_a0 : i32 -> tensor<32x1xi32> loc(#loc)
    %3 = arith.muli %1, %2 : tensor<32x1xi32> loc(#loc)
    %4 = tt.splat %a_base : !tt.ptr<bf16> -> tensor<32x1x!tt.ptr<bf16>> loc(#loc)
    %5 = tt.addptr %4, %3 : tensor<32x1x!tt.ptr<bf16>>, tensor<32x1xi32> loc(#loc)
    %6 = tt.make_range {end = 256 : i32, start = 0 : i32} : tensor<256xi32> loc(#loc)
    %7 = tt.expand_dims %6 {axis = 0 : i32} : tensor<256xi32> -> tensor<1x256xi32> loc(#loc)
    %8 = tt.broadcast %5 : tensor<32x1x!tt.ptr<bf16>> -> tensor<32x256x!tt.ptr<bf16>> loc(#loc)
    %9 = tt.broadcast %7 : tensor<1x256xi32> -> tensor<32x256xi32> loc(#loc)
    %10 = tt.addptr %8, %9 : tensor<32x256x!tt.ptr<bf16>>, tensor<32x256xi32> loc(#loc)
    %11 = tt.make_range {end = 128 : i32, start = 0 : i32} : tensor<128xi32> loc(#loc)
    %12 = tt.expand_dims %11 {axis = 1 : i32} : tensor<128xi32> -> tensor<128x1xi32> loc(#loc)
    %13 = tt.splat %b_base : !tt.ptr<i8> -> tensor<128x1x!tt.ptr<i8>> loc(#loc)
    %14 = tt.addptr %13, %12 : tensor<128x1x!tt.ptr<i8>>, tensor<128x1xi32> loc(#loc)
    %15 = tt.make_range {end = 32 : i32, start = 0 : i32} : tensor<32xi32> loc(#loc)
    %16 = tt.expand_dims %15 {axis = 0 : i32} : tensor<32xi32> -> tensor<1x32xi32> loc(#loc)
    %17 = tt.splat %stride_b1 : i32 -> tensor<1x32xi32> loc(#loc)
    %18 = arith.muli %16, %17 : tensor<1x32xi32> loc(#loc)
    %19 = tt.broadcast %14 : tensor<128x1x!tt.ptr<i8>> -> tensor<128x32x!tt.ptr<i8>> loc(#loc)
    %20 = tt.broadcast %18 : tensor<1x32xi32> -> tensor<128x32xi32> loc(#loc)
    %21 = tt.addptr %19, %20 : tensor<128x32x!tt.ptr<i8>>, tensor<128x32xi32> loc(#loc)
    %22 = tt.load %10 : tensor<32x256x!tt.ptr<bf16>> loc(#loc)
    %23 = tt.reshape %22 : tensor<32x256xbf16> -> tensor<32x2x128xbf16> loc(#loc)
    %24 = tt.trans %23 {order = array<i32: 0, 2, 1>} : tensor<32x2x128xbf16> -> tensor<32x128x2xbf16> loc(#loc)
    %outLHS, %outRHS = tt.split %24 : tensor<32x128x2xbf16> -> tensor<32x128xbf16> loc(#loc)
    %25 = tt.load %21 : tensor<128x32x!tt.ptr<i8>> loc(#loc)
    %26 = tt.reshape %25 : tensor<128x32xi8> -> tensor<2x64x32xi8> loc(#loc)
    %27 = tt.trans %26 {order = array<i32: 1, 2, 0>} : tensor<2x64x32xi8> -> tensor<64x32x2xi8> loc(#loc)
    %outLHS_2, %outRHS_3 = tt.split %27 : tensor<64x32x2xi8> -> tensor<64x32xi8> loc(#loc)
    %28 = tt.make_range {end = 32 : i32, start = 0 : i32} : tensor<32xi32> loc(#loc)
    %29 = tt.expand_dims %28 {axis = 1 : i32} : tensor<32xi32> -> tensor<32x1xi32> loc(#loc)
    %30 = arith.muli %29, %cst_1 : tensor<32x1xi32> loc(#loc)
    %31 = tt.splat %b_scale : !tt.ptr<i8> -> tensor<32x1x!tt.ptr<i8>> loc(#loc)
    %32 = tt.addptr %31, %30 : tensor<32x1x!tt.ptr<i8>>, tensor<32x1xi32> loc(#loc)
    %33 = tt.make_range {end = 8 : i32, start = 0 : i32} : tensor<8xi32> loc(#loc)
    %34 = tt.expand_dims %33 {axis = 0 : i32} : tensor<8xi32> -> tensor<1x8xi32> loc(#loc)
    %35 = tt.broadcast %32 : tensor<32x1x!tt.ptr<i8>> -> tensor<32x8x!tt.ptr<i8>> loc(#loc)
    %36 = tt.broadcast %34 : tensor<1x8xi32> -> tensor<32x8xi32> loc(#loc)
    %37 = tt.addptr %35, %36 : tensor<32x8x!tt.ptr<i8>>, tensor<32x8xi32> loc(#loc)
    %38 = tt.load %37 : tensor<32x8x!tt.ptr<i8>> loc(#loc)
    %39 = tt.reshape %38 : tensor<32x8xi8> -> tensor<32x2x4xi8> loc(#loc)
    %40 = tt.trans %39 {order = array<i32: 0, 2, 1>} : tensor<32x2x4xi8> -> tensor<32x4x2xi8> loc(#loc)
    %outLHS_4, %outRHS_5 = tt.split %40 : tensor<32x4x2xi8> -> tensor<32x4xi8> loc(#loc)
    %41 = tt.dot_scaled %outLHS, %outLHS_2 scale %outLHS_4, %cst_0 lhs = bf16 rhs = e2m1 {fastMath = false} : tensor<32x128xbf16> * tensor<64x32xi8>, tensor<32x4xi8> -> tensor<32x32xf32> loc(#loc)
    %42 = tt.dot_scaled %outRHS, %outRHS_3 scale %outRHS_5, %cst_0 lhs = bf16 rhs = e2m1 {fastMath = false} : tensor<32x128xbf16> * tensor<64x32xi8>, tensor<32x4xi8> -> tensor<32x32xf32> loc(#loc)
    %43 = arith.addf %41, %42 : tensor<32x32xf32> loc(#loc)
    %44 = tt.make_range {end = 32 : i32, start = 0 : i32} : tensor<32xi32> loc(#loc)
    %45 = tt.expand_dims %44 {axis = 1 : i32} : tensor<32xi32> -> tensor<32x1xi32> loc(#loc)
    %46 = arith.muli %45, %cst : tensor<32x1xi32> loc(#loc)
    %47 = tt.splat %out : !tt.ptr<bf16> -> tensor<32x1x!tt.ptr<bf16>> loc(#loc)
    %48 = tt.addptr %47, %46 : tensor<32x1x!tt.ptr<bf16>>, tensor<32x1xi32> loc(#loc)
    %49 = tt.make_range {end = 32 : i32, start = 0 : i32} : tensor<32xi32> loc(#loc)
    %50 = tt.expand_dims %49 {axis = 0 : i32} : tensor<32xi32> -> tensor<1x32xi32> loc(#loc)
    %51 = tt.broadcast %48 : tensor<32x1x!tt.ptr<bf16>> -> tensor<32x32x!tt.ptr<bf16>> loc(#loc)
    %52 = tt.broadcast %50 : tensor<1x32xi32> -> tensor<32x32xi32> loc(#loc)
    %53 = tt.addptr %51, %52 : tensor<32x32x!tt.ptr<bf16>>, tensor<32x32xi32> loc(#loc)
    %54 = arith.truncf %43 : tensor<32x32xf32> to tensor<32x32xbf16> loc(#loc)
    tt.store %53, %54 : tensor<32x32x!tt.ptr<bf16>> loc(#loc)
    tt.return loc(#loc)
  } loc(#loc)
} loc(#loc)
#loc = loc(unknown)


// -----// IR Dump Before CSE (cse) ('builtin.module' operation) //----- //
#loc1 = loc("a_base")
#loc2 = loc("stride_a0")
#loc3 = loc("b_base")
#loc4 = loc("stride_b1")
#loc5 = loc("b_scale")
#loc6 = loc("out")
module {
  tt.func public @dot_scale_kernel(%a_base: !tt.ptr<bf16> {tt.divisibility = 16 : i32, tt.pointer_range = 32 : i32} loc("a_base"), %stride_a0: i32 {tt.divisibility = 16 : i32} loc("stride_a0"), %b_base: !tt.ptr<i8> {tt.divisibility = 16 : i32, tt.pointer_range = 32 : i32} loc("b_base"), %stride_b1: i32 {tt.divisibility = 16 : i32} loc("stride_b1"), %b_scale: !tt.ptr<i8> {tt.divisibility = 16 : i32, tt.pointer_range = 32 : i32} loc("b_scale"), %out: !tt.ptr<bf16> {tt.divisibility = 16 : i32, tt.pointer_range = 32 : i32} loc("out")) attributes {noinline = false} {
    %cst = arith.constant dense<32> : tensor<32x1xi32> loc(#loc)
    %cst_0 = arith.constant dense<0.000000e+00> : tensor<32x32xf32> loc(#loc)
    %cst_1 = arith.constant dense<8> : tensor<32x1xi32> loc(#loc)
    %0 = tt.make_range {end = 32 : i32, start = 0 : i32} : tensor<32xi32> loc(#loc)
    %1 = tt.expand_dims %0 {axis = 1 : i32} : tensor<32xi32> -> tensor<32x1xi32> loc(#loc)
    %2 = tt.splat %stride_a0 : i32 -> tensor<32x1xi32> loc(#loc)
    %3 = arith.muli %1, %2 : tensor<32x1xi32> loc(#loc)
    %4 = tt.splat %a_base : !tt.ptr<bf16> -> tensor<32x1x!tt.ptr<bf16>> loc(#loc)
    %5 = tt.addptr %4, %3 : tensor<32x1x!tt.ptr<bf16>>, tensor<32x1xi32> loc(#loc)
    %6 = tt.make_range {end = 256 : i32, start = 0 : i32} : tensor<256xi32> loc(#loc)
    %7 = tt.expand_dims %6 {axis = 0 : i32} : tensor<256xi32> -> tensor<1x256xi32> loc(#loc)
    %8 = tt.broadcast %5 : tensor<32x1x!tt.ptr<bf16>> -> tensor<32x256x!tt.ptr<bf16>> loc(#loc)
    %9 = tt.broadcast %7 : tensor<1x256xi32> -> tensor<32x256xi32> loc(#loc)
    %10 = tt.addptr %8, %9 : tensor<32x256x!tt.ptr<bf16>>, tensor<32x256xi32> loc(#loc)
    %11 = tt.make_range {end = 128 : i32, start = 0 : i32} : tensor<128xi32> loc(#loc)
    %12 = tt.expand_dims %11 {axis = 1 : i32} : tensor<128xi32> -> tensor<128x1xi32> loc(#loc)
    %13 = tt.splat %b_base : !tt.ptr<i8> -> tensor<128x1x!tt.ptr<i8>> loc(#loc)
    %14 = tt.addptr %13, %12 : tensor<128x1x!tt.ptr<i8>>, tensor<128x1xi32> loc(#loc)
    %15 = tt.make_range {end = 32 : i32, start = 0 : i32} : tensor<32xi32> loc(#loc)
    %16 = tt.expand_dims %15 {axis = 0 : i32} : tensor<32xi32> -> tensor<1x32xi32> loc(#loc)
    %17 = tt.splat %stride_b1 : i32 -> tensor<1x32xi32> loc(#loc)
    %18 = arith.muli %16, %17 : tensor<1x32xi32> loc(#loc)
    %19 = tt.broadcast %14 : tensor<128x1x!tt.ptr<i8>> -> tensor<128x32x!tt.ptr<i8>> loc(#loc)
    %20 = tt.broadcast %18 : tensor<1x32xi32> -> tensor<128x32xi32> loc(#loc)
    %21 = tt.addptr %19, %20 : tensor<128x32x!tt.ptr<i8>>, tensor<128x32xi32> loc(#loc)
    %22 = tt.load %10 : tensor<32x256x!tt.ptr<bf16>> loc(#loc)
    %23 = tt.reshape %22 : tensor<32x256xbf16> -> tensor<32x2x128xbf16> loc(#loc)
    %24 = tt.trans %23 {order = array<i32: 0, 2, 1>} : tensor<32x2x128xbf16> -> tensor<32x128x2xbf16> loc(#loc)
    %outLHS, %outRHS = tt.split %24 : tensor<32x128x2xbf16> -> tensor<32x128xbf16> loc(#loc)
    %25 = tt.load %21 : tensor<128x32x!tt.ptr<i8>> loc(#loc)
    %26 = tt.reshape %25 : tensor<128x32xi8> -> tensor<2x64x32xi8> loc(#loc)
    %27 = tt.trans %26 {order = array<i32: 1, 2, 0>} : tensor<2x64x32xi8> -> tensor<64x32x2xi8> loc(#loc)
    %outLHS_2, %outRHS_3 = tt.split %27 : tensor<64x32x2xi8> -> tensor<64x32xi8> loc(#loc)
    %28 = tt.make_range {end = 32 : i32, start = 0 : i32} : tensor<32xi32> loc(#loc)
    %29 = tt.expand_dims %28 {axis = 1 : i32} : tensor<32xi32> -> tensor<32x1xi32> loc(#loc)
    %30 = arith.muli %29, %cst_1 : tensor<32x1xi32> loc(#loc)
    %31 = tt.splat %b_scale : !tt.ptr<i8> -> tensor<32x1x!tt.ptr<i8>> loc(#loc)
    %32 = tt.addptr %31, %30 : tensor<32x1x!tt.ptr<i8>>, tensor<32x1xi32> loc(#loc)
    %33 = tt.make_range {end = 8 : i32, start = 0 : i32} : tensor<8xi32> loc(#loc)
    %34 = tt.expand_dims %33 {axis = 0 : i32} : tensor<8xi32> -> tensor<1x8xi32> loc(#loc)
    %35 = tt.broadcast %32 : tensor<32x1x!tt.ptr<i8>> -> tensor<32x8x!tt.ptr<i8>> loc(#loc)
    %36 = tt.broadcast %34 : tensor<1x8xi32> -> tensor<32x8xi32> loc(#loc)
    %37 = tt.addptr %35, %36 : tensor<32x8x!tt.ptr<i8>>, tensor<32x8xi32> loc(#loc)
    %38 = tt.load %37 : tensor<32x8x!tt.ptr<i8>> loc(#loc)
    %39 = tt.reshape %38 : tensor<32x8xi8> -> tensor<32x2x4xi8> loc(#loc)
    %40 = tt.trans %39 {order = array<i32: 0, 2, 1>} : tensor<32x2x4xi8> -> tensor<32x4x2xi8> loc(#loc)
    %outLHS_4, %outRHS_5 = tt.split %40 : tensor<32x4x2xi8> -> tensor<32x4xi8> loc(#loc)
    %41 = tt.dot_scaled %outLHS, %outLHS_2 scale %outLHS_4, %cst_0 lhs = bf16 rhs = e2m1 {fastMath = false} : tensor<32x128xbf16> * tensor<64x32xi8>, tensor<32x4xi8> -> tensor<32x32xf32> loc(#loc)
    %42 = tt.dot_scaled %outRHS, %outRHS_3 scale %outRHS_5, %cst_0 lhs = bf16 rhs = e2m1 {fastMath = false} : tensor<32x128xbf16> * tensor<64x32xi8>, tensor<32x4xi8> -> tensor<32x32xf32> loc(#loc)
    %43 = arith.addf %41, %42 : tensor<32x32xf32> loc(#loc)
    %44 = tt.make_range {end = 32 : i32, start = 0 : i32} : tensor<32xi32> loc(#loc)
    %45 = tt.expand_dims %44 {axis = 1 : i32} : tensor<32xi32> -> tensor<32x1xi32> loc(#loc)
    %46 = arith.muli %45, %cst : tensor<32x1xi32> loc(#loc)
    %47 = tt.splat %out : !tt.ptr<bf16> -> tensor<32x1x!tt.ptr<bf16>> loc(#loc)
    %48 = tt.addptr %47, %46 : tensor<32x1x!tt.ptr<bf16>>, tensor<32x1xi32> loc(#loc)
    %49 = tt.make_range {end = 32 : i32, start = 0 : i32} : tensor<32xi32> loc(#loc)
    %50 = tt.expand_dims %49 {axis = 0 : i32} : tensor<32xi32> -> tensor<1x32xi32> loc(#loc)
    %51 = tt.broadcast %48 : tensor<32x1x!tt.ptr<bf16>> -> tensor<32x32x!tt.ptr<bf16>> loc(#loc)
    %52 = tt.broadcast %50 : tensor<1x32xi32> -> tensor<32x32xi32> loc(#loc)
    %53 = tt.addptr %51, %52 : tensor<32x32x!tt.ptr<bf16>>, tensor<32x32xi32> loc(#loc)
    %54 = arith.truncf %43 : tensor<32x32xf32> to tensor<32x32xbf16> loc(#loc)
    tt.store %53, %54 : tensor<32x32x!tt.ptr<bf16>> loc(#loc)
    tt.return loc(#loc)
  } loc(#loc)
} loc(#loc)
#loc = loc(unknown)


// -----// IR Dump Before TritonLoopInvariantCodeMotion (triton-licm) ('builtin.module' operation) //----- //
#loc1 = loc("a_base")
#loc2 = loc("stride_a0")
#loc3 = loc("b_base")
#loc4 = loc("stride_b1")
#loc5 = loc("b_scale")
#loc6 = loc("out")
module {
  tt.func public @dot_scale_kernel(%a_base: !tt.ptr<bf16> {tt.divisibility = 16 : i32, tt.pointer_range = 32 : i32} loc("a_base"), %stride_a0: i32 {tt.divisibility = 16 : i32} loc("stride_a0"), %b_base: !tt.ptr<i8> {tt.divisibility = 16 : i32, tt.pointer_range = 32 : i32} loc("b_base"), %stride_b1: i32 {tt.divisibility = 16 : i32} loc("stride_b1"), %b_scale: !tt.ptr<i8> {tt.divisibility = 16 : i32, tt.pointer_range = 32 : i32} loc("b_scale"), %out: !tt.ptr<bf16> {tt.divisibility = 16 : i32, tt.pointer_range = 32 : i32} loc("out")) attributes {noinline = false} {
    %cst = arith.constant dense<32> : tensor<32x1xi32> loc(#loc)
    %cst_0 = arith.constant dense<0.000000e+00> : tensor<32x32xf32> loc(#loc)
    %cst_1 = arith.constant dense<8> : tensor<32x1xi32> loc(#loc)
    %0 = tt.make_range {end = 32 : i32, start = 0 : i32} : tensor<32xi32> loc(#loc)
    %1 = tt.expand_dims %0 {axis = 1 : i32} : tensor<32xi32> -> tensor<32x1xi32> loc(#loc)
    %2 = tt.splat %stride_a0 : i32 -> tensor<32x1xi32> loc(#loc)
    %3 = arith.muli %1, %2 : tensor<32x1xi32> loc(#loc)
    %4 = tt.splat %a_base : !tt.ptr<bf16> -> tensor<32x1x!tt.ptr<bf16>> loc(#loc)
    %5 = tt.addptr %4, %3 : tensor<32x1x!tt.ptr<bf16>>, tensor<32x1xi32> loc(#loc)
    %6 = tt.make_range {end = 256 : i32, start = 0 : i32} : tensor<256xi32> loc(#loc)
    %7 = tt.expand_dims %6 {axis = 0 : i32} : tensor<256xi32> -> tensor<1x256xi32> loc(#loc)
    %8 = tt.broadcast %5 : tensor<32x1x!tt.ptr<bf16>> -> tensor<32x256x!tt.ptr<bf16>> loc(#loc)
    %9 = tt.broadcast %7 : tensor<1x256xi32> -> tensor<32x256xi32> loc(#loc)
    %10 = tt.addptr %8, %9 : tensor<32x256x!tt.ptr<bf16>>, tensor<32x256xi32> loc(#loc)
    %11 = tt.make_range {end = 128 : i32, start = 0 : i32} : tensor<128xi32> loc(#loc)
    %12 = tt.expand_dims %11 {axis = 1 : i32} : tensor<128xi32> -> tensor<128x1xi32> loc(#loc)
    %13 = tt.splat %b_base : !tt.ptr<i8> -> tensor<128x1x!tt.ptr<i8>> loc(#loc)
    %14 = tt.addptr %13, %12 : tensor<128x1x!tt.ptr<i8>>, tensor<128x1xi32> loc(#loc)
    %15 = tt.expand_dims %0 {axis = 0 : i32} : tensor<32xi32> -> tensor<1x32xi32> loc(#loc)
    %16 = tt.splat %stride_b1 : i32 -> tensor<1x32xi32> loc(#loc)
    %17 = arith.muli %15, %16 : tensor<1x32xi32> loc(#loc)
    %18 = tt.broadcast %14 : tensor<128x1x!tt.ptr<i8>> -> tensor<128x32x!tt.ptr<i8>> loc(#loc)
    %19 = tt.broadcast %17 : tensor<1x32xi32> -> tensor<128x32xi32> loc(#loc)
    %20 = tt.addptr %18, %19 : tensor<128x32x!tt.ptr<i8>>, tensor<128x32xi32> loc(#loc)
    %21 = tt.load %10 : tensor<32x256x!tt.ptr<bf16>> loc(#loc)
    %22 = tt.reshape %21 : tensor<32x256xbf16> -> tensor<32x2x128xbf16> loc(#loc)
    %23 = tt.trans %22 {order = array<i32: 0, 2, 1>} : tensor<32x2x128xbf16> -> tensor<32x128x2xbf16> loc(#loc)
    %outLHS, %outRHS = tt.split %23 : tensor<32x128x2xbf16> -> tensor<32x128xbf16> loc(#loc)
    %24 = tt.load %20 : tensor<128x32x!tt.ptr<i8>> loc(#loc)
    %25 = tt.reshape %24 : tensor<128x32xi8> -> tensor<2x64x32xi8> loc(#loc)
    %26 = tt.trans %25 {order = array<i32: 1, 2, 0>} : tensor<2x64x32xi8> -> tensor<64x32x2xi8> loc(#loc)
    %outLHS_2, %outRHS_3 = tt.split %26 : tensor<64x32x2xi8> -> tensor<64x32xi8> loc(#loc)
    %27 = arith.muli %1, %cst_1 : tensor<32x1xi32> loc(#loc)
    %28 = tt.splat %b_scale : !tt.ptr<i8> -> tensor<32x1x!tt.ptr<i8>> loc(#loc)
    %29 = tt.addptr %28, %27 : tensor<32x1x!tt.ptr<i8>>, tensor<32x1xi32> loc(#loc)
    %30 = tt.make_range {end = 8 : i32, start = 0 : i32} : tensor<8xi32> loc(#loc)
    %31 = tt.expand_dims %30 {axis = 0 : i32} : tensor<8xi32> -> tensor<1x8xi32> loc(#loc)
    %32 = tt.broadcast %29 : tensor<32x1x!tt.ptr<i8>> -> tensor<32x8x!tt.ptr<i8>> loc(#loc)
    %33 = tt.broadcast %31 : tensor<1x8xi32> -> tensor<32x8xi32> loc(#loc)
    %34 = tt.addptr %32, %33 : tensor<32x8x!tt.ptr<i8>>, tensor<32x8xi32> loc(#loc)
    %35 = tt.load %34 : tensor<32x8x!tt.ptr<i8>> loc(#loc)
    %36 = tt.reshape %35 : tensor<32x8xi8> -> tensor<32x2x4xi8> loc(#loc)
    %37 = tt.trans %36 {order = array<i32: 0, 2, 1>} : tensor<32x2x4xi8> -> tensor<32x4x2xi8> loc(#loc)
    %outLHS_4, %outRHS_5 = tt.split %37 : tensor<32x4x2xi8> -> tensor<32x4xi8> loc(#loc)
    %38 = tt.dot_scaled %outLHS, %outLHS_2 scale %outLHS_4, %cst_0 lhs = bf16 rhs = e2m1 {fastMath = false} : tensor<32x128xbf16> * tensor<64x32xi8>, tensor<32x4xi8> -> tensor<32x32xf32> loc(#loc)
    %39 = tt.dot_scaled %outRHS, %outRHS_3 scale %outRHS_5, %cst_0 lhs = bf16 rhs = e2m1 {fastMath = false} : tensor<32x128xbf16> * tensor<64x32xi8>, tensor<32x4xi8> -> tensor<32x32xf32> loc(#loc)
    %40 = arith.addf %38, %39 : tensor<32x32xf32> loc(#loc)
    %41 = arith.muli %1, %cst : tensor<32x1xi32> loc(#loc)
    %42 = tt.splat %out : !tt.ptr<bf16> -> tensor<32x1x!tt.ptr<bf16>> loc(#loc)
    %43 = tt.addptr %42, %41 : tensor<32x1x!tt.ptr<bf16>>, tensor<32x1xi32> loc(#loc)
    %44 = tt.broadcast %43 : tensor<32x1x!tt.ptr<bf16>> -> tensor<32x32x!tt.ptr<bf16>> loc(#loc)
    %45 = tt.broadcast %15 : tensor<1x32xi32> -> tensor<32x32xi32> loc(#loc)
    %46 = tt.addptr %44, %45 : tensor<32x32x!tt.ptr<bf16>>, tensor<32x32xi32> loc(#loc)
    %47 = arith.truncf %40 : tensor<32x32xf32> to tensor<32x32xbf16> loc(#loc)
    tt.store %46, %47 : tensor<32x32x!tt.ptr<bf16>> loc(#loc)
    tt.return loc(#loc)
  } loc(#loc)
} loc(#loc)
#loc = loc(unknown)


// -----// IR Dump Before SymbolDCE (symbol-dce) ('builtin.module' operation) //----- //
#loc1 = loc("a_base")
#loc2 = loc("stride_a0")
#loc3 = loc("b_base")
#loc4 = loc("stride_b1")
#loc5 = loc("b_scale")
#loc6 = loc("out")
module {
  tt.func public @dot_scale_kernel(%a_base: !tt.ptr<bf16> {tt.divisibility = 16 : i32, tt.pointer_range = 32 : i32} loc("a_base"), %stride_a0: i32 {tt.divisibility = 16 : i32} loc("stride_a0"), %b_base: !tt.ptr<i8> {tt.divisibility = 16 : i32, tt.pointer_range = 32 : i32} loc("b_base"), %stride_b1: i32 {tt.divisibility = 16 : i32} loc("stride_b1"), %b_scale: !tt.ptr<i8> {tt.divisibility = 16 : i32, tt.pointer_range = 32 : i32} loc("b_scale"), %out: !tt.ptr<bf16> {tt.divisibility = 16 : i32, tt.pointer_range = 32 : i32} loc("out")) attributes {noinline = false} {
    %cst = arith.constant dense<32> : tensor<32x1xi32> loc(#loc)
    %cst_0 = arith.constant dense<0.000000e+00> : tensor<32x32xf32> loc(#loc)
    %cst_1 = arith.constant dense<8> : tensor<32x1xi32> loc(#loc)
    %0 = tt.make_range {end = 32 : i32, start = 0 : i32} : tensor<32xi32> loc(#loc)
    %1 = tt.expand_dims %0 {axis = 1 : i32} : tensor<32xi32> -> tensor<32x1xi32> loc(#loc)
    %2 = tt.splat %stride_a0 : i32 -> tensor<32x1xi32> loc(#loc)
    %3 = arith.muli %1, %2 : tensor<32x1xi32> loc(#loc)
    %4 = tt.splat %a_base : !tt.ptr<bf16> -> tensor<32x1x!tt.ptr<bf16>> loc(#loc)
    %5 = tt.addptr %4, %3 : tensor<32x1x!tt.ptr<bf16>>, tensor<32x1xi32> loc(#loc)
    %6 = tt.make_range {end = 256 : i32, start = 0 : i32} : tensor<256xi32> loc(#loc)
    %7 = tt.expand_dims %6 {axis = 0 : i32} : tensor<256xi32> -> tensor<1x256xi32> loc(#loc)
    %8 = tt.broadcast %5 : tensor<32x1x!tt.ptr<bf16>> -> tensor<32x256x!tt.ptr<bf16>> loc(#loc)
    %9 = tt.broadcast %7 : tensor<1x256xi32> -> tensor<32x256xi32> loc(#loc)
    %10 = tt.addptr %8, %9 : tensor<32x256x!tt.ptr<bf16>>, tensor<32x256xi32> loc(#loc)
    %11 = tt.make_range {end = 128 : i32, start = 0 : i32} : tensor<128xi32> loc(#loc)
    %12 = tt.expand_dims %11 {axis = 1 : i32} : tensor<128xi32> -> tensor<128x1xi32> loc(#loc)
    %13 = tt.splat %b_base : !tt.ptr<i8> -> tensor<128x1x!tt.ptr<i8>> loc(#loc)
    %14 = tt.addptr %13, %12 : tensor<128x1x!tt.ptr<i8>>, tensor<128x1xi32> loc(#loc)
    %15 = tt.expand_dims %0 {axis = 0 : i32} : tensor<32xi32> -> tensor<1x32xi32> loc(#loc)
    %16 = tt.splat %stride_b1 : i32 -> tensor<1x32xi32> loc(#loc)
    %17 = arith.muli %15, %16 : tensor<1x32xi32> loc(#loc)
    %18 = tt.broadcast %14 : tensor<128x1x!tt.ptr<i8>> -> tensor<128x32x!tt.ptr<i8>> loc(#loc)
    %19 = tt.broadcast %17 : tensor<1x32xi32> -> tensor<128x32xi32> loc(#loc)
    %20 = tt.addptr %18, %19 : tensor<128x32x!tt.ptr<i8>>, tensor<128x32xi32> loc(#loc)
    %21 = tt.load %10 : tensor<32x256x!tt.ptr<bf16>> loc(#loc)
    %22 = tt.reshape %21 : tensor<32x256xbf16> -> tensor<32x2x128xbf16> loc(#loc)
    %23 = tt.trans %22 {order = array<i32: 0, 2, 1>} : tensor<32x2x128xbf16> -> tensor<32x128x2xbf16> loc(#loc)
    %outLHS, %outRHS = tt.split %23 : tensor<32x128x2xbf16> -> tensor<32x128xbf16> loc(#loc)
    %24 = tt.load %20 : tensor<128x32x!tt.ptr<i8>> loc(#loc)
    %25 = tt.reshape %24 : tensor<128x32xi8> -> tensor<2x64x32xi8> loc(#loc)
    %26 = tt.trans %25 {order = array<i32: 1, 2, 0>} : tensor<2x64x32xi8> -> tensor<64x32x2xi8> loc(#loc)
    %outLHS_2, %outRHS_3 = tt.split %26 : tensor<64x32x2xi8> -> tensor<64x32xi8> loc(#loc)
    %27 = arith.muli %1, %cst_1 : tensor<32x1xi32> loc(#loc)
    %28 = tt.splat %b_scale : !tt.ptr<i8> -> tensor<32x1x!tt.ptr<i8>> loc(#loc)
    %29 = tt.addptr %28, %27 : tensor<32x1x!tt.ptr<i8>>, tensor<32x1xi32> loc(#loc)
    %30 = tt.make_range {end = 8 : i32, start = 0 : i32} : tensor<8xi32> loc(#loc)
    %31 = tt.expand_dims %30 {axis = 0 : i32} : tensor<8xi32> -> tensor<1x8xi32> loc(#loc)
    %32 = tt.broadcast %29 : tensor<32x1x!tt.ptr<i8>> -> tensor<32x8x!tt.ptr<i8>> loc(#loc)
    %33 = tt.broadcast %31 : tensor<1x8xi32> -> tensor<32x8xi32> loc(#loc)
    %34 = tt.addptr %32, %33 : tensor<32x8x!tt.ptr<i8>>, tensor<32x8xi32> loc(#loc)
    %35 = tt.load %34 : tensor<32x8x!tt.ptr<i8>> loc(#loc)
    %36 = tt.reshape %35 : tensor<32x8xi8> -> tensor<32x2x4xi8> loc(#loc)
    %37 = tt.trans %36 {order = array<i32: 0, 2, 1>} : tensor<32x2x4xi8> -> tensor<32x4x2xi8> loc(#loc)
    %outLHS_4, %outRHS_5 = tt.split %37 : tensor<32x4x2xi8> -> tensor<32x4xi8> loc(#loc)
    %38 = tt.dot_scaled %outLHS, %outLHS_2 scale %outLHS_4, %cst_0 lhs = bf16 rhs = e2m1 {fastMath = false} : tensor<32x128xbf16> * tensor<64x32xi8>, tensor<32x4xi8> -> tensor<32x32xf32> loc(#loc)
    %39 = tt.dot_scaled %outRHS, %outRHS_3 scale %outRHS_5, %cst_0 lhs = bf16 rhs = e2m1 {fastMath = false} : tensor<32x128xbf16> * tensor<64x32xi8>, tensor<32x4xi8> -> tensor<32x32xf32> loc(#loc)
    %40 = arith.addf %38, %39 : tensor<32x32xf32> loc(#loc)
    %41 = arith.muli %1, %cst : tensor<32x1xi32> loc(#loc)
    %42 = tt.splat %out : !tt.ptr<bf16> -> tensor<32x1x!tt.ptr<bf16>> loc(#loc)
    %43 = tt.addptr %42, %41 : tensor<32x1x!tt.ptr<bf16>>, tensor<32x1xi32> loc(#loc)
    %44 = tt.broadcast %43 : tensor<32x1x!tt.ptr<bf16>> -> tensor<32x32x!tt.ptr<bf16>> loc(#loc)
    %45 = tt.broadcast %15 : tensor<1x32xi32> -> tensor<32x32xi32> loc(#loc)
    %46 = tt.addptr %44, %45 : tensor<32x32x!tt.ptr<bf16>>, tensor<32x32xi32> loc(#loc)
    %47 = arith.truncf %40 : tensor<32x32xf32> to tensor<32x32xbf16> loc(#loc)
    tt.store %46, %47 : tensor<32x32x!tt.ptr<bf16>> loc(#loc)
    tt.return loc(#loc)
  } loc(#loc)
} loc(#loc)
#loc = loc(unknown)


// -----// IR Dump Before TritonLoopUnroll (triton-loop-unroll) ('builtin.module' operation) //----- //
#loc1 = loc("a_base")
#loc2 = loc("stride_a0")
#loc3 = loc("b_base")
#loc4 = loc("stride_b1")
#loc5 = loc("b_scale")
#loc6 = loc("out")
module {
  tt.func public @dot_scale_kernel(%a_base: !tt.ptr<bf16> {tt.divisibility = 16 : i32, tt.pointer_range = 32 : i32} loc("a_base"), %stride_a0: i32 {tt.divisibility = 16 : i32} loc("stride_a0"), %b_base: !tt.ptr<i8> {tt.divisibility = 16 : i32, tt.pointer_range = 32 : i32} loc("b_base"), %stride_b1: i32 {tt.divisibility = 16 : i32} loc("stride_b1"), %b_scale: !tt.ptr<i8> {tt.divisibility = 16 : i32, tt.pointer_range = 32 : i32} loc("b_scale"), %out: !tt.ptr<bf16> {tt.divisibility = 16 : i32, tt.pointer_range = 32 : i32} loc("out")) attributes {noinline = false} {
    %cst = arith.constant dense<32> : tensor<32x1xi32> loc(#loc)
    %cst_0 = arith.constant dense<0.000000e+00> : tensor<32x32xf32> loc(#loc)
    %cst_1 = arith.constant dense<8> : tensor<32x1xi32> loc(#loc)
    %0 = tt.make_range {end = 32 : i32, start = 0 : i32} : tensor<32xi32> loc(#loc)
    %1 = tt.expand_dims %0 {axis = 1 : i32} : tensor<32xi32> -> tensor<32x1xi32> loc(#loc)
    %2 = tt.splat %stride_a0 : i32 -> tensor<32x1xi32> loc(#loc)
    %3 = arith.muli %1, %2 : tensor<32x1xi32> loc(#loc)
    %4 = tt.splat %a_base : !tt.ptr<bf16> -> tensor<32x1x!tt.ptr<bf16>> loc(#loc)
    %5 = tt.addptr %4, %3 : tensor<32x1x!tt.ptr<bf16>>, tensor<32x1xi32> loc(#loc)
    %6 = tt.make_range {end = 256 : i32, start = 0 : i32} : tensor<256xi32> loc(#loc)
    %7 = tt.expand_dims %6 {axis = 0 : i32} : tensor<256xi32> -> tensor<1x256xi32> loc(#loc)
    %8 = tt.broadcast %5 : tensor<32x1x!tt.ptr<bf16>> -> tensor<32x256x!tt.ptr<bf16>> loc(#loc)
    %9 = tt.broadcast %7 : tensor<1x256xi32> -> tensor<32x256xi32> loc(#loc)
    %10 = tt.addptr %8, %9 : tensor<32x256x!tt.ptr<bf16>>, tensor<32x256xi32> loc(#loc)
    %11 = tt.make_range {end = 128 : i32, start = 0 : i32} : tensor<128xi32> loc(#loc)
    %12 = tt.expand_dims %11 {axis = 1 : i32} : tensor<128xi32> -> tensor<128x1xi32> loc(#loc)
    %13 = tt.splat %b_base : !tt.ptr<i8> -> tensor<128x1x!tt.ptr<i8>> loc(#loc)
    %14 = tt.addptr %13, %12 : tensor<128x1x!tt.ptr<i8>>, tensor<128x1xi32> loc(#loc)
    %15 = tt.expand_dims %0 {axis = 0 : i32} : tensor<32xi32> -> tensor<1x32xi32> loc(#loc)
    %16 = tt.splat %stride_b1 : i32 -> tensor<1x32xi32> loc(#loc)
    %17 = arith.muli %15, %16 : tensor<1x32xi32> loc(#loc)
    %18 = tt.broadcast %14 : tensor<128x1x!tt.ptr<i8>> -> tensor<128x32x!tt.ptr<i8>> loc(#loc)
    %19 = tt.broadcast %17 : tensor<1x32xi32> -> tensor<128x32xi32> loc(#loc)
    %20 = tt.addptr %18, %19 : tensor<128x32x!tt.ptr<i8>>, tensor<128x32xi32> loc(#loc)
    %21 = tt.load %10 : tensor<32x256x!tt.ptr<bf16>> loc(#loc)
    %22 = tt.reshape %21 : tensor<32x256xbf16> -> tensor<32x2x128xbf16> loc(#loc)
    %23 = tt.trans %22 {order = array<i32: 0, 2, 1>} : tensor<32x2x128xbf16> -> tensor<32x128x2xbf16> loc(#loc)
    %outLHS, %outRHS = tt.split %23 : tensor<32x128x2xbf16> -> tensor<32x128xbf16> loc(#loc)
    %24 = tt.load %20 : tensor<128x32x!tt.ptr<i8>> loc(#loc)
    %25 = tt.reshape %24 : tensor<128x32xi8> -> tensor<2x64x32xi8> loc(#loc)
    %26 = tt.trans %25 {order = array<i32: 1, 2, 0>} : tensor<2x64x32xi8> -> tensor<64x32x2xi8> loc(#loc)
    %outLHS_2, %outRHS_3 = tt.split %26 : tensor<64x32x2xi8> -> tensor<64x32xi8> loc(#loc)
    %27 = arith.muli %1, %cst_1 : tensor<32x1xi32> loc(#loc)
    %28 = tt.splat %b_scale : !tt.ptr<i8> -> tensor<32x1x!tt.ptr<i8>> loc(#loc)
    %29 = tt.addptr %28, %27 : tensor<32x1x!tt.ptr<i8>>, tensor<32x1xi32> loc(#loc)
    %30 = tt.make_range {end = 8 : i32, start = 0 : i32} : tensor<8xi32> loc(#loc)
    %31 = tt.expand_dims %30 {axis = 0 : i32} : tensor<8xi32> -> tensor<1x8xi32> loc(#loc)
    %32 = tt.broadcast %29 : tensor<32x1x!tt.ptr<i8>> -> tensor<32x8x!tt.ptr<i8>> loc(#loc)
    %33 = tt.broadcast %31 : tensor<1x8xi32> -> tensor<32x8xi32> loc(#loc)
    %34 = tt.addptr %32, %33 : tensor<32x8x!tt.ptr<i8>>, tensor<32x8xi32> loc(#loc)
    %35 = tt.load %34 : tensor<32x8x!tt.ptr<i8>> loc(#loc)
    %36 = tt.reshape %35 : tensor<32x8xi8> -> tensor<32x2x4xi8> loc(#loc)
    %37 = tt.trans %36 {order = array<i32: 0, 2, 1>} : tensor<32x2x4xi8> -> tensor<32x4x2xi8> loc(#loc)
    %outLHS_4, %outRHS_5 = tt.split %37 : tensor<32x4x2xi8> -> tensor<32x4xi8> loc(#loc)
    %38 = tt.dot_scaled %outLHS, %outLHS_2 scale %outLHS_4, %cst_0 lhs = bf16 rhs = e2m1 {fastMath = false} : tensor<32x128xbf16> * tensor<64x32xi8>, tensor<32x4xi8> -> tensor<32x32xf32> loc(#loc)
    %39 = tt.dot_scaled %outRHS, %outRHS_3 scale %outRHS_5, %cst_0 lhs = bf16 rhs = e2m1 {fastMath = false} : tensor<32x128xbf16> * tensor<64x32xi8>, tensor<32x4xi8> -> tensor<32x32xf32> loc(#loc)
    %40 = arith.addf %38, %39 : tensor<32x32xf32> loc(#loc)
    %41 = arith.muli %1, %cst : tensor<32x1xi32> loc(#loc)
    %42 = tt.splat %out : !tt.ptr<bf16> -> tensor<32x1x!tt.ptr<bf16>> loc(#loc)
    %43 = tt.addptr %42, %41 : tensor<32x1x!tt.ptr<bf16>>, tensor<32x1xi32> loc(#loc)
    %44 = tt.broadcast %43 : tensor<32x1x!tt.ptr<bf16>> -> tensor<32x32x!tt.ptr<bf16>> loc(#loc)
    %45 = tt.broadcast %15 : tensor<1x32xi32> -> tensor<32x32xi32> loc(#loc)
    %46 = tt.addptr %44, %45 : tensor<32x32x!tt.ptr<bf16>>, tensor<32x32xi32> loc(#loc)
    %47 = arith.truncf %40 : tensor<32x32xf32> to tensor<32x32xbf16> loc(#loc)
    tt.store %46, %47 : tensor<32x32x!tt.ptr<bf16>> loc(#loc)
    tt.return loc(#loc)
  } loc(#loc)
} loc(#loc)
#loc = loc(unknown)


// -----// IR Dump Before ConvertTritonToTritonGPU (convert-triton-to-tritongpu) ('builtin.module' operation) //----- //
#loc1 = loc("a_base")
#loc2 = loc("stride_a0")
#loc3 = loc("b_base")
#loc4 = loc("stride_b1")
#loc5 = loc("b_scale")
#loc6 = loc("out")
module {
  tt.func public @dot_scale_kernel(%a_base: !tt.ptr<bf16> {tt.divisibility = 16 : i32, tt.pointer_range = 32 : i32} loc("a_base"), %stride_a0: i32 {tt.divisibility = 16 : i32} loc("stride_a0"), %b_base: !tt.ptr<i8> {tt.divisibility = 16 : i32, tt.pointer_range = 32 : i32} loc("b_base"), %stride_b1: i32 {tt.divisibility = 16 : i32} loc("stride_b1"), %b_scale: !tt.ptr<i8> {tt.divisibility = 16 : i32, tt.pointer_range = 32 : i32} loc("b_scale"), %out: !tt.ptr<bf16> {tt.divisibility = 16 : i32, tt.pointer_range = 32 : i32} loc("out")) attributes {noinline = false} {
    %cst = arith.constant dense<32> : tensor<32x1xi32> loc(#loc)
    %cst_0 = arith.constant dense<0.000000e+00> : tensor<32x32xf32> loc(#loc)
    %cst_1 = arith.constant dense<8> : tensor<32x1xi32> loc(#loc)
    %0 = tt.make_range {end = 32 : i32, start = 0 : i32} : tensor<32xi32> loc(#loc)
    %1 = tt.expand_dims %0 {axis = 1 : i32} : tensor<32xi32> -> tensor<32x1xi32> loc(#loc)
    %2 = tt.splat %stride_a0 : i32 -> tensor<32x1xi32> loc(#loc)
    %3 = arith.muli %1, %2 : tensor<32x1xi32> loc(#loc)
    %4 = tt.splat %a_base : !tt.ptr<bf16> -> tensor<32x1x!tt.ptr<bf16>> loc(#loc)
    %5 = tt.addptr %4, %3 : tensor<32x1x!tt.ptr<bf16>>, tensor<32x1xi32> loc(#loc)
    %6 = tt.make_range {end = 256 : i32, start = 0 : i32} : tensor<256xi32> loc(#loc)
    %7 = tt.expand_dims %6 {axis = 0 : i32} : tensor<256xi32> -> tensor<1x256xi32> loc(#loc)
    %8 = tt.broadcast %5 : tensor<32x1x!tt.ptr<bf16>> -> tensor<32x256x!tt.ptr<bf16>> loc(#loc)
    %9 = tt.broadcast %7 : tensor<1x256xi32> -> tensor<32x256xi32> loc(#loc)
    %10 = tt.addptr %8, %9 : tensor<32x256x!tt.ptr<bf16>>, tensor<32x256xi32> loc(#loc)
    %11 = tt.make_range {end = 128 : i32, start = 0 : i32} : tensor<128xi32> loc(#loc)
    %12 = tt.expand_dims %11 {axis = 1 : i32} : tensor<128xi32> -> tensor<128x1xi32> loc(#loc)
    %13 = tt.splat %b_base : !tt.ptr<i8> -> tensor<128x1x!tt.ptr<i8>> loc(#loc)
    %14 = tt.addptr %13, %12 : tensor<128x1x!tt.ptr<i8>>, tensor<128x1xi32> loc(#loc)
    %15 = tt.expand_dims %0 {axis = 0 : i32} : tensor<32xi32> -> tensor<1x32xi32> loc(#loc)
    %16 = tt.splat %stride_b1 : i32 -> tensor<1x32xi32> loc(#loc)
    %17 = arith.muli %15, %16 : tensor<1x32xi32> loc(#loc)
    %18 = tt.broadcast %14 : tensor<128x1x!tt.ptr<i8>> -> tensor<128x32x!tt.ptr<i8>> loc(#loc)
    %19 = tt.broadcast %17 : tensor<1x32xi32> -> tensor<128x32xi32> loc(#loc)
    %20 = tt.addptr %18, %19 : tensor<128x32x!tt.ptr<i8>>, tensor<128x32xi32> loc(#loc)
    %21 = tt.load %10 : tensor<32x256x!tt.ptr<bf16>> loc(#loc)
    %22 = tt.reshape %21 : tensor<32x256xbf16> -> tensor<32x2x128xbf16> loc(#loc)
    %23 = tt.trans %22 {order = array<i32: 0, 2, 1>} : tensor<32x2x128xbf16> -> tensor<32x128x2xbf16> loc(#loc)
    %outLHS, %outRHS = tt.split %23 : tensor<32x128x2xbf16> -> tensor<32x128xbf16> loc(#loc)
    %24 = tt.load %20 : tensor<128x32x!tt.ptr<i8>> loc(#loc)
    %25 = tt.reshape %24 : tensor<128x32xi8> -> tensor<2x64x32xi8> loc(#loc)
    %26 = tt.trans %25 {order = array<i32: 1, 2, 0>} : tensor<2x64x32xi8> -> tensor<64x32x2xi8> loc(#loc)
    %outLHS_2, %outRHS_3 = tt.split %26 : tensor<64x32x2xi8> -> tensor<64x32xi8> loc(#loc)
    %27 = arith.muli %1, %cst_1 : tensor<32x1xi32> loc(#loc)
    %28 = tt.splat %b_scale : !tt.ptr<i8> -> tensor<32x1x!tt.ptr<i8>> loc(#loc)
    %29 = tt.addptr %28, %27 : tensor<32x1x!tt.ptr<i8>>, tensor<32x1xi32> loc(#loc)
    %30 = tt.make_range {end = 8 : i32, start = 0 : i32} : tensor<8xi32> loc(#loc)
    %31 = tt.expand_dims %30 {axis = 0 : i32} : tensor<8xi32> -> tensor<1x8xi32> loc(#loc)
    %32 = tt.broadcast %29 : tensor<32x1x!tt.ptr<i8>> -> tensor<32x8x!tt.ptr<i8>> loc(#loc)
    %33 = tt.broadcast %31 : tensor<1x8xi32> -> tensor<32x8xi32> loc(#loc)
    %34 = tt.addptr %32, %33 : tensor<32x8x!tt.ptr<i8>>, tensor<32x8xi32> loc(#loc)
    %35 = tt.load %34 : tensor<32x8x!tt.ptr<i8>> loc(#loc)
    %36 = tt.reshape %35 : tensor<32x8xi8> -> tensor<32x2x4xi8> loc(#loc)
    %37 = tt.trans %36 {order = array<i32: 0, 2, 1>} : tensor<32x2x4xi8> -> tensor<32x4x2xi8> loc(#loc)
    %outLHS_4, %outRHS_5 = tt.split %37 : tensor<32x4x2xi8> -> tensor<32x4xi8> loc(#loc)
    %38 = tt.dot_scaled %outLHS, %outLHS_2 scale %outLHS_4, %cst_0 lhs = bf16 rhs = e2m1 {fastMath = false} : tensor<32x128xbf16> * tensor<64x32xi8>, tensor<32x4xi8> -> tensor<32x32xf32> loc(#loc)
    %39 = tt.dot_scaled %outRHS, %outRHS_3 scale %outRHS_5, %cst_0 lhs = bf16 rhs = e2m1 {fastMath = false} : tensor<32x128xbf16> * tensor<64x32xi8>, tensor<32x4xi8> -> tensor<32x32xf32> loc(#loc)
    %40 = arith.addf %38, %39 : tensor<32x32xf32> loc(#loc)
    %41 = arith.muli %1, %cst : tensor<32x1xi32> loc(#loc)
    %42 = tt.splat %out : !tt.ptr<bf16> -> tensor<32x1x!tt.ptr<bf16>> loc(#loc)
    %43 = tt.addptr %42, %41 : tensor<32x1x!tt.ptr<bf16>>, tensor<32x1xi32> loc(#loc)
    %44 = tt.broadcast %43 : tensor<32x1x!tt.ptr<bf16>> -> tensor<32x32x!tt.ptr<bf16>> loc(#loc)
    %45 = tt.broadcast %15 : tensor<1x32xi32> -> tensor<32x32xi32> loc(#loc)
    %46 = tt.addptr %44, %45 : tensor<32x32x!tt.ptr<bf16>>, tensor<32x32xi32> loc(#loc)
    %47 = arith.truncf %40 : tensor<32x32xf32> to tensor<32x32xbf16> loc(#loc)
    tt.store %46, %47 : tensor<32x32x!tt.ptr<bf16>> loc(#loc)
    tt.return loc(#loc)
  } loc(#loc)
} loc(#loc)
#loc = loc(unknown)


// -----// IR Dump Before TritonGPUCoalesce (tritongpu-coalesce) ('builtin.module' operation) //----- //
#blocked = #ttg.blocked<{sizePerThread = [1, 1], threadsPerWarp = [64, 1], warpsPerCTA = [4, 1], order = [1, 0]}>
#blocked1 = #ttg.blocked<{sizePerThread = [1, 1], threadsPerWarp = [2, 32], warpsPerCTA = [4, 1], order = [1, 0]}>
#blocked2 = #ttg.blocked<{sizePerThread = [1], threadsPerWarp = [64], warpsPerCTA = [4], order = [0]}>
#blocked3 = #ttg.blocked<{sizePerThread = [1, 1], threadsPerWarp = [64, 1], warpsPerCTA = [4, 1], order = [0, 1]}>
#blocked4 = #ttg.blocked<{sizePerThread = [1, 1], threadsPerWarp = [1, 64], warpsPerCTA = [1, 4], order = [0, 1]}>
#blocked5 = #ttg.blocked<{sizePerThread = [1, 1], threadsPerWarp = [1, 64], warpsPerCTA = [1, 4], order = [1, 0]}>
#blocked6 = #ttg.blocked<{sizePerThread = [1, 1, 1], threadsPerWarp = [1, 1, 64], warpsPerCTA = [1, 2, 2], order = [2, 1, 0]}>
#blocked7 = #ttg.blocked<{sizePerThread = [1, 1, 1], threadsPerWarp = [1, 64, 1], warpsPerCTA = [1, 2, 2], order = [1, 2, 0]}>
#blocked8 = #ttg.blocked<{sizePerThread = [1, 1, 1], threadsPerWarp = [1, 32, 2], warpsPerCTA = [1, 4, 1], order = [2, 1, 0]}>
#blocked9 = #ttg.blocked<{sizePerThread = [1, 1, 2], threadsPerWarp = [1, 64, 1], warpsPerCTA = [2, 2, 1], order = [2, 1, 0]}>
#blocked10 = #ttg.blocked<{sizePerThread = [1, 1], threadsPerWarp = [1, 64], warpsPerCTA = [2, 2], order = [1, 0]}>
#blocked11 = #ttg.blocked<{sizePerThread = [1, 1, 1], threadsPerWarp = [1, 2, 32], warpsPerCTA = [1, 4, 1], order = [2, 1, 0]}>
#blocked12 = #ttg.blocked<{sizePerThread = [1, 1, 1], threadsPerWarp = [2, 32, 1], warpsPerCTA = [4, 1, 1], order = [1, 0, 2]}>
#blocked13 = #ttg.blocked<{sizePerThread = [1, 1, 1], threadsPerWarp = [1, 32, 2], warpsPerCTA = [4, 1, 1], order = [2, 1, 0]}>
#blocked14 = #ttg.blocked<{sizePerThread = [1, 1, 2], threadsPerWarp = [2, 32, 1], warpsPerCTA = [4, 1, 1], order = [2, 1, 0]}>
#blocked15 = #ttg.blocked<{sizePerThread = [1, 1], threadsPerWarp = [8, 8], warpsPerCTA = [4, 1], order = [1, 0]}>
#blocked16 = #ttg.blocked<{sizePerThread = [1, 1, 1], threadsPerWarp = [8, 2, 4], warpsPerCTA = [4, 1, 1], order = [2, 1, 0]}>
#blocked17 = #ttg.blocked<{sizePerThread = [1, 1, 1], threadsPerWarp = [8, 4, 2], warpsPerCTA = [4, 1, 1], order = [1, 2, 0]}>
#blocked18 = #ttg.blocked<{sizePerThread = [1, 1, 1], threadsPerWarp = [8, 4, 2], warpsPerCTA = [4, 1, 1], order = [2, 1, 0]}>
#blocked19 = #ttg.blocked<{sizePerThread = [1, 1, 2], threadsPerWarp = [16, 4, 1], warpsPerCTA = [4, 1, 1], order = [2, 1, 0]}>
#blocked20 = #ttg.blocked<{sizePerThread = [1, 1], threadsPerWarp = [16, 4], warpsPerCTA = [4, 1], order = [1, 0]}>
#loc1 = loc("a_base")
#loc2 = loc("stride_a0")
#loc3 = loc("b_base")
#loc4 = loc("stride_b1")
#loc5 = loc("b_scale")
#loc6 = loc("out")
module attributes {"ttg.num-ctas" = 1 : i32, "ttg.num-warps" = 4 : i32, ttg.target = "hip:gfx950", "ttg.threads-per-warp" = 64 : i32} {
  tt.func public @dot_scale_kernel(%a_base: !tt.ptr<bf16> {tt.divisibility = 16 : i32, tt.pointer_range = 32 : i32} loc("a_base"), %stride_a0: i32 {tt.divisibility = 16 : i32} loc("stride_a0"), %b_base: !tt.ptr<i8> {tt.divisibility = 16 : i32, tt.pointer_range = 32 : i32} loc("b_base"), %stride_b1: i32 {tt.divisibility = 16 : i32} loc("stride_b1"), %b_scale: !tt.ptr<i8> {tt.divisibility = 16 : i32, tt.pointer_range = 32 : i32} loc("b_scale"), %out: !tt.ptr<bf16> {tt.divisibility = 16 : i32, tt.pointer_range = 32 : i32} loc("out")) attributes {noinline = false} {
    %cst = arith.constant dense<32> : tensor<32x1xi32, #blocked> loc(#loc)
    %cst_0 = arith.constant dense<0.000000e+00> : tensor<32x32xf32, #blocked1> loc(#loc)
    %cst_1 = arith.constant dense<8> : tensor<32x1xi32, #blocked> loc(#loc)
    %0 = tt.make_range {end = 32 : i32, start = 0 : i32} : tensor<32xi32, #blocked2> loc(#loc)
    %1 = ttg.convert_layout %0 : tensor<32xi32, #blocked2> -> tensor<32xi32, #ttg.slice<{dim = 1, parent = #blocked3}>> loc(#loc)
    %2 = tt.expand_dims %1 {axis = 1 : i32} : tensor<32xi32, #ttg.slice<{dim = 1, parent = #blocked3}>> -> tensor<32x1xi32, #blocked3> loc(#loc)
    %3 = ttg.convert_layout %2 : tensor<32x1xi32, #blocked3> -> tensor<32x1xi32, #blocked> loc(#loc)
    %4 = tt.splat %stride_a0 : i32 -> tensor<32x1xi32, #blocked> loc(#loc)
    %5 = arith.muli %3, %4 : tensor<32x1xi32, #blocked> loc(#loc)
    %6 = tt.splat %a_base : !tt.ptr<bf16> -> tensor<32x1x!tt.ptr<bf16>, #blocked> loc(#loc)
    %7 = tt.addptr %6, %5 : tensor<32x1x!tt.ptr<bf16>, #blocked>, tensor<32x1xi32, #blocked> loc(#loc)
    %8 = tt.make_range {end = 256 : i32, start = 0 : i32} : tensor<256xi32, #blocked2> loc(#loc)
    %9 = ttg.convert_layout %8 : tensor<256xi32, #blocked2> -> tensor<256xi32, #ttg.slice<{dim = 0, parent = #blocked4}>> loc(#loc)
    %10 = tt.expand_dims %9 {axis = 0 : i32} : tensor<256xi32, #ttg.slice<{dim = 0, parent = #blocked4}>> -> tensor<1x256xi32, #blocked4> loc(#loc)
    %11 = ttg.convert_layout %10 : tensor<1x256xi32, #blocked4> -> tensor<1x256xi32, #blocked5> loc(#loc)
    %12 = tt.broadcast %7 : tensor<32x1x!tt.ptr<bf16>, #blocked> -> tensor<32x256x!tt.ptr<bf16>, #blocked> loc(#loc)
    %13 = ttg.convert_layout %12 : tensor<32x256x!tt.ptr<bf16>, #blocked> -> tensor<32x256x!tt.ptr<bf16>, #blocked5> loc(#loc)
    %14 = tt.broadcast %11 : tensor<1x256xi32, #blocked5> -> tensor<32x256xi32, #blocked5> loc(#loc)
    %15 = tt.addptr %13, %14 : tensor<32x256x!tt.ptr<bf16>, #blocked5>, tensor<32x256xi32, #blocked5> loc(#loc)
    %16 = tt.make_range {end = 128 : i32, start = 0 : i32} : tensor<128xi32, #blocked2> loc(#loc)
    %17 = ttg.convert_layout %16 : tensor<128xi32, #blocked2> -> tensor<128xi32, #ttg.slice<{dim = 1, parent = #blocked3}>> loc(#loc)
    %18 = tt.expand_dims %17 {axis = 1 : i32} : tensor<128xi32, #ttg.slice<{dim = 1, parent = #blocked3}>> -> tensor<128x1xi32, #blocked3> loc(#loc)
    %19 = ttg.convert_layout %18 : tensor<128x1xi32, #blocked3> -> tensor<128x1xi32, #blocked> loc(#loc)
    %20 = tt.splat %b_base : !tt.ptr<i8> -> tensor<128x1x!tt.ptr<i8>, #blocked> loc(#loc)
    %21 = tt.addptr %20, %19 : tensor<128x1x!tt.ptr<i8>, #blocked>, tensor<128x1xi32, #blocked> loc(#loc)
    %22 = ttg.convert_layout %0 : tensor<32xi32, #blocked2> -> tensor<32xi32, #ttg.slice<{dim = 0, parent = #blocked4}>> loc(#loc)
    %23 = tt.expand_dims %22 {axis = 0 : i32} : tensor<32xi32, #ttg.slice<{dim = 0, parent = #blocked4}>> -> tensor<1x32xi32, #blocked4> loc(#loc)
    %24 = ttg.convert_layout %23 : tensor<1x32xi32, #blocked4> -> tensor<1x32xi32, #blocked1> loc(#loc)
    %25 = tt.splat %stride_b1 : i32 -> tensor<1x32xi32, #blocked1> loc(#loc)
    %26 = arith.muli %24, %25 : tensor<1x32xi32, #blocked1> loc(#loc)
    %27 = tt.broadcast %21 : tensor<128x1x!tt.ptr<i8>, #blocked> -> tensor<128x32x!tt.ptr<i8>, #blocked> loc(#loc)
    %28 = ttg.convert_layout %27 : tensor<128x32x!tt.ptr<i8>, #blocked> -> tensor<128x32x!tt.ptr<i8>, #blocked1> loc(#loc)
    %29 = tt.broadcast %26 : tensor<1x32xi32, #blocked1> -> tensor<128x32xi32, #blocked1> loc(#loc)
    %30 = tt.addptr %28, %29 : tensor<128x32x!tt.ptr<i8>, #blocked1>, tensor<128x32xi32, #blocked1> loc(#loc)
    %31 = tt.load %15 : tensor<32x256x!tt.ptr<bf16>, #blocked5> loc(#loc)
    %32 = tt.reshape %31 : tensor<32x256xbf16, #blocked5> -> tensor<32x2x128xbf16, #blocked6> loc(#loc)
    %33 = tt.trans %32 {order = array<i32: 0, 2, 1>} : tensor<32x2x128xbf16, #blocked6> -> tensor<32x128x2xbf16, #blocked7> loc(#loc)
    %34 = ttg.convert_layout %33 : tensor<32x128x2xbf16, #blocked7> -> tensor<32x128x2xbf16, #blocked8> loc(#loc)
    %35 = ttg.convert_layout %34 : tensor<32x128x2xbf16, #blocked8> -> tensor<32x128x2xbf16, #blocked9> loc(#loc)
    %outLHS, %outRHS = tt.split %35 : tensor<32x128x2xbf16, #blocked9> -> tensor<32x128xbf16, #blocked10> loc(#loc)
    %36 = tt.load %30 : tensor<128x32x!tt.ptr<i8>, #blocked1> loc(#loc)
    %37 = tt.reshape %36 : tensor<128x32xi8, #blocked1> -> tensor<2x64x32xi8, #blocked11> loc(#loc)
    %38 = tt.trans %37 {order = array<i32: 1, 2, 0>} : tensor<2x64x32xi8, #blocked11> -> tensor<64x32x2xi8, #blocked12> loc(#loc)
    %39 = ttg.convert_layout %38 : tensor<64x32x2xi8, #blocked12> -> tensor<64x32x2xi8, #blocked13> loc(#loc)
    %40 = ttg.convert_layout %39 : tensor<64x32x2xi8, #blocked13> -> tensor<64x32x2xi8, #blocked14> loc(#loc)
    %outLHS_2, %outRHS_3 = tt.split %40 : tensor<64x32x2xi8, #blocked14> -> tensor<64x32xi8, #blocked1> loc(#loc)
    %41 = arith.muli %3, %cst_1 : tensor<32x1xi32, #blocked> loc(#loc)
    %42 = tt.splat %b_scale : !tt.ptr<i8> -> tensor<32x1x!tt.ptr<i8>, #blocked> loc(#loc)
    %43 = tt.addptr %42, %41 : tensor<32x1x!tt.ptr<i8>, #blocked>, tensor<32x1xi32, #blocked> loc(#loc)
    %44 = tt.make_range {end = 8 : i32, start = 0 : i32} : tensor<8xi32, #blocked2> loc(#loc)
    %45 = ttg.convert_layout %44 : tensor<8xi32, #blocked2> -> tensor<8xi32, #ttg.slice<{dim = 0, parent = #blocked4}>> loc(#loc)
    %46 = tt.expand_dims %45 {axis = 0 : i32} : tensor<8xi32, #ttg.slice<{dim = 0, parent = #blocked4}>> -> tensor<1x8xi32, #blocked4> loc(#loc)
    %47 = ttg.convert_layout %46 : tensor<1x8xi32, #blocked4> -> tensor<1x8xi32, #blocked15> loc(#loc)
    %48 = tt.broadcast %43 : tensor<32x1x!tt.ptr<i8>, #blocked> -> tensor<32x8x!tt.ptr<i8>, #blocked> loc(#loc)
    %49 = ttg.convert_layout %48 : tensor<32x8x!tt.ptr<i8>, #blocked> -> tensor<32x8x!tt.ptr<i8>, #blocked15> loc(#loc)
    %50 = tt.broadcast %47 : tensor<1x8xi32, #blocked15> -> tensor<32x8xi32, #blocked15> loc(#loc)
    %51 = tt.addptr %49, %50 : tensor<32x8x!tt.ptr<i8>, #blocked15>, tensor<32x8xi32, #blocked15> loc(#loc)
    %52 = tt.load %51 : tensor<32x8x!tt.ptr<i8>, #blocked15> loc(#loc)
    %53 = tt.reshape %52 : tensor<32x8xi8, #blocked15> -> tensor<32x2x4xi8, #blocked16> loc(#loc)
    %54 = tt.trans %53 {order = array<i32: 0, 2, 1>} : tensor<32x2x4xi8, #blocked16> -> tensor<32x4x2xi8, #blocked17> loc(#loc)
    %55 = ttg.convert_layout %54 : tensor<32x4x2xi8, #blocked17> -> tensor<32x4x2xi8, #blocked18> loc(#loc)
    %56 = ttg.convert_layout %55 : tensor<32x4x2xi8, #blocked18> -> tensor<32x4x2xi8, #blocked19> loc(#loc)
    %outLHS_4, %outRHS_5 = tt.split %56 : tensor<32x4x2xi8, #blocked19> -> tensor<32x4xi8, #blocked20> loc(#loc)
    %57 = tt.dot_scaled %outLHS, %outLHS_2 scale %outLHS_4, %cst_0 lhs = bf16 rhs = e2m1 {fastMath = false} : tensor<32x128xbf16, #blocked10> * tensor<64x32xi8, #blocked1>, tensor<32x4xi8, #blocked20> -> tensor<32x32xf32, #blocked1> loc(#loc)
    %58 = tt.dot_scaled %outRHS, %outRHS_3 scale %outRHS_5, %cst_0 lhs = bf16 rhs = e2m1 {fastMath = false} : tensor<32x128xbf16, #blocked10> * tensor<64x32xi8, #blocked1>, tensor<32x4xi8, #blocked20> -> tensor<32x32xf32, #blocked1> loc(#loc)
    %59 = arith.addf %57, %58 : tensor<32x32xf32, #blocked1> loc(#loc)
    %60 = arith.muli %3, %cst : tensor<32x1xi32, #blocked> loc(#loc)
    %61 = tt.splat %out : !tt.ptr<bf16> -> tensor<32x1x!tt.ptr<bf16>, #blocked> loc(#loc)
    %62 = tt.addptr %61, %60 : tensor<32x1x!tt.ptr<bf16>, #blocked>, tensor<32x1xi32, #blocked> loc(#loc)
    %63 = tt.broadcast %62 : tensor<32x1x!tt.ptr<bf16>, #blocked> -> tensor<32x32x!tt.ptr<bf16>, #blocked> loc(#loc)
    %64 = ttg.convert_layout %63 : tensor<32x32x!tt.ptr<bf16>, #blocked> -> tensor<32x32x!tt.ptr<bf16>, #blocked1> loc(#loc)
    %65 = tt.broadcast %24 : tensor<1x32xi32, #blocked1> -> tensor<32x32xi32, #blocked1> loc(#loc)
    %66 = tt.addptr %64, %65 : tensor<32x32x!tt.ptr<bf16>, #blocked1>, tensor<32x32xi32, #blocked1> loc(#loc)
    %67 = arith.truncf %59 : tensor<32x32xf32, #blocked1> to tensor<32x32xbf16, #blocked1> loc(#loc)
    tt.store %66, %67 : tensor<32x32x!tt.ptr<bf16>, #blocked1> loc(#loc)
    tt.return loc(#loc)
  } loc(#loc)
} loc(#loc)
#loc = loc(unknown)


// -----// IR Dump Before TritonGPURemoveLayoutConversions (tritongpu-remove-layout-conversions) ('builtin.module' operation) //----- //
#blocked = #ttg.blocked<{sizePerThread = [1, 1], threadsPerWarp = [64, 1], warpsPerCTA = [4, 1], order = [1, 0]}>
#blocked1 = #ttg.blocked<{sizePerThread = [1, 1], threadsPerWarp = [2, 32], warpsPerCTA = [4, 1], order = [1, 0]}>
#blocked2 = #ttg.blocked<{sizePerThread = [1], threadsPerWarp = [64], warpsPerCTA = [4], order = [0]}>
#blocked3 = #ttg.blocked<{sizePerThread = [1, 1], threadsPerWarp = [64, 1], warpsPerCTA = [4, 1], order = [0, 1]}>
#blocked4 = #ttg.blocked<{sizePerThread = [1, 1], threadsPerWarp = [1, 64], warpsPerCTA = [1, 4], order = [0, 1]}>
#blocked5 = #ttg.blocked<{sizePerThread = [1, 1], threadsPerWarp = [1, 64], warpsPerCTA = [1, 4], order = [1, 0]}>
#blocked6 = #ttg.blocked<{sizePerThread = [1, 8], threadsPerWarp = [2, 32], warpsPerCTA = [4, 1], order = [1, 0]}>
#blocked7 = #ttg.blocked<{sizePerThread = [1, 1, 1], threadsPerWarp = [1, 1, 64], warpsPerCTA = [1, 2, 2], order = [2, 1, 0]}>
#blocked8 = #ttg.blocked<{sizePerThread = [1, 1, 1], threadsPerWarp = [1, 64, 1], warpsPerCTA = [1, 2, 2], order = [1, 2, 0]}>
#blocked9 = #ttg.blocked<{sizePerThread = [1, 1, 1], threadsPerWarp = [1, 32, 2], warpsPerCTA = [1, 4, 1], order = [2, 1, 0]}>
#blocked10 = #ttg.blocked<{sizePerThread = [1, 1, 2], threadsPerWarp = [1, 64, 1], warpsPerCTA = [2, 2, 1], order = [2, 1, 0]}>
#blocked11 = #ttg.blocked<{sizePerThread = [1, 1], threadsPerWarp = [1, 64], warpsPerCTA = [2, 2], order = [1, 0]}>
#blocked12 = #ttg.blocked<{sizePerThread = [16, 1], threadsPerWarp = [8, 8], warpsPerCTA = [1, 4], order = [0, 1]}>
#blocked13 = #ttg.blocked<{sizePerThread = [1, 1, 1], threadsPerWarp = [1, 2, 32], warpsPerCTA = [1, 4, 1], order = [2, 1, 0]}>
#blocked14 = #ttg.blocked<{sizePerThread = [1, 1, 1], threadsPerWarp = [2, 32, 1], warpsPerCTA = [4, 1, 1], order = [1, 0, 2]}>
#blocked15 = #ttg.blocked<{sizePerThread = [1, 1, 1], threadsPerWarp = [1, 32, 2], warpsPerCTA = [4, 1, 1], order = [2, 1, 0]}>
#blocked16 = #ttg.blocked<{sizePerThread = [1, 1, 2], threadsPerWarp = [2, 32, 1], warpsPerCTA = [4, 1, 1], order = [2, 1, 0]}>
#blocked17 = #ttg.blocked<{sizePerThread = [1, 1], threadsPerWarp = [8, 8], warpsPerCTA = [4, 1], order = [1, 0]}>
#blocked18 = #ttg.blocked<{sizePerThread = [1, 1, 1], threadsPerWarp = [8, 2, 4], warpsPerCTA = [4, 1, 1], order = [2, 1, 0]}>
#blocked19 = #ttg.blocked<{sizePerThread = [1, 1, 1], threadsPerWarp = [8, 4, 2], warpsPerCTA = [4, 1, 1], order = [1, 2, 0]}>
#blocked20 = #ttg.blocked<{sizePerThread = [1, 1, 1], threadsPerWarp = [8, 4, 2], warpsPerCTA = [4, 1, 1], order = [2, 1, 0]}>
#blocked21 = #ttg.blocked<{sizePerThread = [1, 1, 2], threadsPerWarp = [16, 4, 1], warpsPerCTA = [4, 1, 1], order = [2, 1, 0]}>
#blocked22 = #ttg.blocked<{sizePerThread = [1, 1], threadsPerWarp = [16, 4], warpsPerCTA = [4, 1], order = [1, 0]}>
#blocked23 = #ttg.blocked<{sizePerThread = [1, 4], threadsPerWarp = [8, 8], warpsPerCTA = [4, 1], order = [1, 0]}>
#loc1 = loc("a_base")
#loc2 = loc("stride_a0")
#loc3 = loc("b_base")
#loc4 = loc("stride_b1")
#loc5 = loc("b_scale")
#loc6 = loc("out")
module attributes {"ttg.num-ctas" = 1 : i32, "ttg.num-warps" = 4 : i32, ttg.target = "hip:gfx950", "ttg.threads-per-warp" = 64 : i32} {
  tt.func public @dot_scale_kernel(%a_base: !tt.ptr<bf16> {tt.divisibility = 16 : i32, tt.pointer_range = 32 : i32} loc("a_base"), %stride_a0: i32 {tt.divisibility = 16 : i32} loc("stride_a0"), %b_base: !tt.ptr<i8> {tt.divisibility = 16 : i32, tt.pointer_range = 32 : i32} loc("b_base"), %stride_b1: i32 {tt.divisibility = 16 : i32} loc("stride_b1"), %b_scale: !tt.ptr<i8> {tt.divisibility = 16 : i32, tt.pointer_range = 32 : i32} loc("b_scale"), %out: !tt.ptr<bf16> {tt.divisibility = 16 : i32, tt.pointer_range = 32 : i32} loc("out")) attributes {noinline = false} {
    %cst = arith.constant dense<32> : tensor<32x1xi32, #blocked> loc(#loc)
    %cst_0 = arith.constant dense<0.000000e+00> : tensor<32x32xf32, #blocked1> loc(#loc)
    %cst_1 = arith.constant dense<8> : tensor<32x1xi32, #blocked> loc(#loc)
    %0 = tt.make_range {end = 32 : i32, start = 0 : i32} : tensor<32xi32, #blocked2> loc(#loc)
    %1 = ttg.convert_layout %0 : tensor<32xi32, #blocked2> -> tensor<32xi32, #ttg.slice<{dim = 1, parent = #blocked3}>> loc(#loc)
    %2 = tt.expand_dims %1 {axis = 1 : i32} : tensor<32xi32, #ttg.slice<{dim = 1, parent = #blocked3}>> -> tensor<32x1xi32, #blocked3> loc(#loc)
    %3 = ttg.convert_layout %2 : tensor<32x1xi32, #blocked3> -> tensor<32x1xi32, #blocked> loc(#loc)
    %4 = tt.splat %stride_a0 : i32 -> tensor<32x1xi32, #blocked> loc(#loc)
    %5 = arith.muli %3, %4 : tensor<32x1xi32, #blocked> loc(#loc)
    %6 = tt.splat %a_base : !tt.ptr<bf16> -> tensor<32x1x!tt.ptr<bf16>, #blocked> loc(#loc)
    %7 = tt.addptr %6, %5 : tensor<32x1x!tt.ptr<bf16>, #blocked>, tensor<32x1xi32, #blocked> loc(#loc)
    %8 = tt.make_range {end = 256 : i32, start = 0 : i32} : tensor<256xi32, #blocked2> loc(#loc)
    %9 = ttg.convert_layout %8 : tensor<256xi32, #blocked2> -> tensor<256xi32, #ttg.slice<{dim = 0, parent = #blocked4}>> loc(#loc)
    %10 = tt.expand_dims %9 {axis = 0 : i32} : tensor<256xi32, #ttg.slice<{dim = 0, parent = #blocked4}>> -> tensor<1x256xi32, #blocked4> loc(#loc)
    %11 = ttg.convert_layout %10 : tensor<1x256xi32, #blocked4> -> tensor<1x256xi32, #blocked5> loc(#loc)
    %12 = tt.broadcast %7 : tensor<32x1x!tt.ptr<bf16>, #blocked> -> tensor<32x256x!tt.ptr<bf16>, #blocked> loc(#loc)
    %13 = ttg.convert_layout %12 : tensor<32x256x!tt.ptr<bf16>, #blocked> -> tensor<32x256x!tt.ptr<bf16>, #blocked5> loc(#loc)
    %14 = tt.broadcast %11 : tensor<1x256xi32, #blocked5> -> tensor<32x256xi32, #blocked5> loc(#loc)
    %15 = tt.addptr %13, %14 : tensor<32x256x!tt.ptr<bf16>, #blocked5>, tensor<32x256xi32, #blocked5> loc(#loc)
    %16 = tt.make_range {end = 128 : i32, start = 0 : i32} : tensor<128xi32, #blocked2> loc(#loc)
    %17 = ttg.convert_layout %16 : tensor<128xi32, #blocked2> -> tensor<128xi32, #ttg.slice<{dim = 1, parent = #blocked3}>> loc(#loc)
    %18 = tt.expand_dims %17 {axis = 1 : i32} : tensor<128xi32, #ttg.slice<{dim = 1, parent = #blocked3}>> -> tensor<128x1xi32, #blocked3> loc(#loc)
    %19 = ttg.convert_layout %18 : tensor<128x1xi32, #blocked3> -> tensor<128x1xi32, #blocked> loc(#loc)
    %20 = tt.splat %b_base : !tt.ptr<i8> -> tensor<128x1x!tt.ptr<i8>, #blocked> loc(#loc)
    %21 = tt.addptr %20, %19 : tensor<128x1x!tt.ptr<i8>, #blocked>, tensor<128x1xi32, #blocked> loc(#loc)
    %22 = ttg.convert_layout %0 : tensor<32xi32, #blocked2> -> tensor<32xi32, #ttg.slice<{dim = 0, parent = #blocked4}>> loc(#loc)
    %23 = tt.expand_dims %22 {axis = 0 : i32} : tensor<32xi32, #ttg.slice<{dim = 0, parent = #blocked4}>> -> tensor<1x32xi32, #blocked4> loc(#loc)
    %24 = ttg.convert_layout %23 : tensor<1x32xi32, #blocked4> -> tensor<1x32xi32, #blocked1> loc(#loc)
    %25 = tt.splat %stride_b1 : i32 -> tensor<1x32xi32, #blocked1> loc(#loc)
    %26 = arith.muli %24, %25 : tensor<1x32xi32, #blocked1> loc(#loc)
    %27 = tt.broadcast %21 : tensor<128x1x!tt.ptr<i8>, #blocked> -> tensor<128x32x!tt.ptr<i8>, #blocked> loc(#loc)
    %28 = ttg.convert_layout %27 : tensor<128x32x!tt.ptr<i8>, #blocked> -> tensor<128x32x!tt.ptr<i8>, #blocked1> loc(#loc)
    %29 = tt.broadcast %26 : tensor<1x32xi32, #blocked1> -> tensor<128x32xi32, #blocked1> loc(#loc)
    %30 = tt.addptr %28, %29 : tensor<128x32x!tt.ptr<i8>, #blocked1>, tensor<128x32xi32, #blocked1> loc(#loc)
    %31 = ttg.convert_layout %15 : tensor<32x256x!tt.ptr<bf16>, #blocked5> -> tensor<32x256x!tt.ptr<bf16>, #blocked6> loc(#loc)
    %32 = tt.load %31 : tensor<32x256x!tt.ptr<bf16>, #blocked6> loc(#loc)
    %33 = ttg.convert_layout %32 : tensor<32x256xbf16, #blocked6> -> tensor<32x256xbf16, #blocked5> loc(#loc)
    %34 = tt.reshape %33 : tensor<32x256xbf16, #blocked5> -> tensor<32x2x128xbf16, #blocked7> loc(#loc)
    %35 = tt.trans %34 {order = array<i32: 0, 2, 1>} : tensor<32x2x128xbf16, #blocked7> -> tensor<32x128x2xbf16, #blocked8> loc(#loc)
    %36 = ttg.convert_layout %35 : tensor<32x128x2xbf16, #blocked8> -> tensor<32x128x2xbf16, #blocked9> loc(#loc)
    %37 = ttg.convert_layout %36 : tensor<32x128x2xbf16, #blocked9> -> tensor<32x128x2xbf16, #blocked10> loc(#loc)
    %outLHS, %outRHS = tt.split %37 : tensor<32x128x2xbf16, #blocked10> -> tensor<32x128xbf16, #blocked11> loc(#loc)
    %38 = ttg.convert_layout %30 : tensor<128x32x!tt.ptr<i8>, #blocked1> -> tensor<128x32x!tt.ptr<i8>, #blocked12> loc(#loc)
    %39 = tt.load %38 : tensor<128x32x!tt.ptr<i8>, #blocked12> loc(#loc)
    %40 = ttg.convert_layout %39 : tensor<128x32xi8, #blocked12> -> tensor<128x32xi8, #blocked1> loc(#loc)
    %41 = tt.reshape %40 : tensor<128x32xi8, #blocked1> -> tensor<2x64x32xi8, #blocked13> loc(#loc)
    %42 = tt.trans %41 {order = array<i32: 1, 2, 0>} : tensor<2x64x32xi8, #blocked13> -> tensor<64x32x2xi8, #blocked14> loc(#loc)
    %43 = ttg.convert_layout %42 : tensor<64x32x2xi8, #blocked14> -> tensor<64x32x2xi8, #blocked15> loc(#loc)
    %44 = ttg.convert_layout %43 : tensor<64x32x2xi8, #blocked15> -> tensor<64x32x2xi8, #blocked16> loc(#loc)
    %outLHS_2, %outRHS_3 = tt.split %44 : tensor<64x32x2xi8, #blocked16> -> tensor<64x32xi8, #blocked1> loc(#loc)
    %45 = arith.muli %3, %cst_1 : tensor<32x1xi32, #blocked> loc(#loc)
    %46 = tt.splat %b_scale : !tt.ptr<i8> -> tensor<32x1x!tt.ptr<i8>, #blocked> loc(#loc)
    %47 = tt.addptr %46, %45 : tensor<32x1x!tt.ptr<i8>, #blocked>, tensor<32x1xi32, #blocked> loc(#loc)
    %48 = tt.make_range {end = 8 : i32, start = 0 : i32} : tensor<8xi32, #blocked2> loc(#loc)
    %49 = ttg.convert_layout %48 : tensor<8xi32, #blocked2> -> tensor<8xi32, #ttg.slice<{dim = 0, parent = #blocked4}>> loc(#loc)
    %50 = tt.expand_dims %49 {axis = 0 : i32} : tensor<8xi32, #ttg.slice<{dim = 0, parent = #blocked4}>> -> tensor<1x8xi32, #blocked4> loc(#loc)
    %51 = ttg.convert_layout %50 : tensor<1x8xi32, #blocked4> -> tensor<1x8xi32, #blocked17> loc(#loc)
    %52 = tt.broadcast %47 : tensor<32x1x!tt.ptr<i8>, #blocked> -> tensor<32x8x!tt.ptr<i8>, #blocked> loc(#loc)
    %53 = ttg.convert_layout %52 : tensor<32x8x!tt.ptr<i8>, #blocked> -> tensor<32x8x!tt.ptr<i8>, #blocked17> loc(#loc)
    %54 = tt.broadcast %51 : tensor<1x8xi32, #blocked17> -> tensor<32x8xi32, #blocked17> loc(#loc)
    %55 = tt.addptr %53, %54 : tensor<32x8x!tt.ptr<i8>, #blocked17>, tensor<32x8xi32, #blocked17> loc(#loc)
    %56 = ttg.convert_layout %55 : tensor<32x8x!tt.ptr<i8>, #blocked17> -> tensor<32x8x!tt.ptr<i8>, #blocked17> loc(#loc)
    %57 = tt.load %56 : tensor<32x8x!tt.ptr<i8>, #blocked17> loc(#loc)
    %58 = tt.reshape %57 : tensor<32x8xi8, #blocked17> -> tensor<32x2x4xi8, #blocked18> loc(#loc)
    %59 = tt.trans %58 {order = array<i32: 0, 2, 1>} : tensor<32x2x4xi8, #blocked18> -> tensor<32x4x2xi8, #blocked19> loc(#loc)
    %60 = ttg.convert_layout %59 : tensor<32x4x2xi8, #blocked19> -> tensor<32x4x2xi8, #blocked20> loc(#loc)
    %61 = ttg.convert_layout %60 : tensor<32x4x2xi8, #blocked20> -> tensor<32x4x2xi8, #blocked21> loc(#loc)
    %outLHS_4, %outRHS_5 = tt.split %61 : tensor<32x4x2xi8, #blocked21> -> tensor<32x4xi8, #blocked22> loc(#loc)
    %62 = tt.dot_scaled %outLHS, %outLHS_2 scale %outLHS_4, %cst_0 lhs = bf16 rhs = e2m1 {fastMath = false} : tensor<32x128xbf16, #blocked11> * tensor<64x32xi8, #blocked1>, tensor<32x4xi8, #blocked22> -> tensor<32x32xf32, #blocked1> loc(#loc)
    %63 = tt.dot_scaled %outRHS, %outRHS_3 scale %outRHS_5, %cst_0 lhs = bf16 rhs = e2m1 {fastMath = false} : tensor<32x128xbf16, #blocked11> * tensor<64x32xi8, #blocked1>, tensor<32x4xi8, #blocked22> -> tensor<32x32xf32, #blocked1> loc(#loc)
    %64 = arith.addf %62, %63 : tensor<32x32xf32, #blocked1> loc(#loc)
    %65 = arith.muli %3, %cst : tensor<32x1xi32, #blocked> loc(#loc)
    %66 = tt.splat %out : !tt.ptr<bf16> -> tensor<32x1x!tt.ptr<bf16>, #blocked> loc(#loc)
    %67 = tt.addptr %66, %65 : tensor<32x1x!tt.ptr<bf16>, #blocked>, tensor<32x1xi32, #blocked> loc(#loc)
    %68 = tt.broadcast %67 : tensor<32x1x!tt.ptr<bf16>, #blocked> -> tensor<32x32x!tt.ptr<bf16>, #blocked> loc(#loc)
    %69 = ttg.convert_layout %68 : tensor<32x32x!tt.ptr<bf16>, #blocked> -> tensor<32x32x!tt.ptr<bf16>, #blocked1> loc(#loc)
    %70 = tt.broadcast %24 : tensor<1x32xi32, #blocked1> -> tensor<32x32xi32, #blocked1> loc(#loc)
    %71 = tt.addptr %69, %70 : tensor<32x32x!tt.ptr<bf16>, #blocked1>, tensor<32x32xi32, #blocked1> loc(#loc)
    %72 = arith.truncf %64 : tensor<32x32xf32, #blocked1> to tensor<32x32xbf16, #blocked1> loc(#loc)
    %73 = ttg.convert_layout %71 : tensor<32x32x!tt.ptr<bf16>, #blocked1> -> tensor<32x32x!tt.ptr<bf16>, #blocked23> loc(#loc)
    %74 = ttg.convert_layout %72 : tensor<32x32xbf16, #blocked1> -> tensor<32x32xbf16, #blocked23> loc(#loc)
    tt.store %73, %74 : tensor<32x32x!tt.ptr<bf16>, #blocked23> loc(#loc)
    tt.return loc(#loc)
  } loc(#loc)
} loc(#loc)
#loc = loc(unknown)


// -----// IR Dump Before TritonGPUOptimizeThreadLocality (tritongpu-optimize-thread-locality) ('builtin.module' operation) //----- //
#blocked = #ttg.blocked<{sizePerThread = [1, 1], threadsPerWarp = [2, 32], warpsPerCTA = [4, 1], order = [1, 0]}>
#blocked1 = #ttg.blocked<{sizePerThread = [1, 4], threadsPerWarp = [8, 8], warpsPerCTA = [4, 1], order = [1, 0]}>
#blocked2 = #ttg.blocked<{sizePerThread = [1, 1], threadsPerWarp = [8, 8], warpsPerCTA = [4, 1], order = [1, 0]}>
#blocked3 = #ttg.blocked<{sizePerThread = [1, 8], threadsPerWarp = [2, 32], warpsPerCTA = [4, 1], order = [1, 0]}>
#blocked4 = #ttg.blocked<{sizePerThread = [16, 1], threadsPerWarp = [8, 8], warpsPerCTA = [1, 4], order = [0, 1]}>
#blocked5 = #ttg.blocked<{sizePerThread = [1, 1, 8], threadsPerWarp = [2, 2, 16], warpsPerCTA = [4, 1, 1], order = [2, 1, 0]}>
#blocked6 = #ttg.blocked<{sizePerThread = [1, 8, 1], threadsPerWarp = [2, 16, 2], warpsPerCTA = [4, 1, 1], order = [1, 2, 0]}>
#blocked7 = #ttg.blocked<{sizePerThread = [1, 1, 2], threadsPerWarp = [1, 64, 1], warpsPerCTA = [2, 2, 1], order = [2, 1, 0]}>
#blocked8 = #ttg.blocked<{sizePerThread = [1, 1], threadsPerWarp = [1, 64], warpsPerCTA = [2, 2], order = [1, 0]}>
#blocked9 = #ttg.blocked<{sizePerThread = [1, 16, 1], threadsPerWarp = [2, 4, 8], warpsPerCTA = [1, 1, 4], order = [1, 0, 2]}>
#blocked10 = #ttg.blocked<{sizePerThread = [16, 1, 1], threadsPerWarp = [4, 8, 2], warpsPerCTA = [1, 4, 1], order = [0, 2, 1]}>
#blocked11 = #ttg.blocked<{sizePerThread = [1, 1, 2], threadsPerWarp = [2, 32, 1], warpsPerCTA = [4, 1, 1], order = [2, 1, 0]}>
#blocked12 = #ttg.blocked<{sizePerThread = [1, 1, 1], threadsPerWarp = [8, 2, 4], warpsPerCTA = [4, 1, 1], order = [2, 1, 0]}>
#blocked13 = #ttg.blocked<{sizePerThread = [1, 1, 1], threadsPerWarp = [8, 4, 2], warpsPerCTA = [4, 1, 1], order = [1, 2, 0]}>
#blocked14 = #ttg.blocked<{sizePerThread = [1, 1, 2], threadsPerWarp = [16, 4, 1], warpsPerCTA = [4, 1, 1], order = [2, 1, 0]}>
#blocked15 = #ttg.blocked<{sizePerThread = [1, 1], threadsPerWarp = [16, 4], warpsPerCTA = [4, 1], order = [1, 0]}>
#loc1 = loc("a_base")
#loc2 = loc("stride_a0")
#loc3 = loc("b_base")
#loc4 = loc("stride_b1")
#loc5 = loc("b_scale")
#loc6 = loc("out")
module attributes {"ttg.num-ctas" = 1 : i32, "ttg.num-warps" = 4 : i32, ttg.target = "hip:gfx950", "ttg.threads-per-warp" = 64 : i32} {
  tt.func public @dot_scale_kernel(%a_base: !tt.ptr<bf16> {tt.divisibility = 16 : i32, tt.pointer_range = 32 : i32} loc("a_base"), %stride_a0: i32 {tt.divisibility = 16 : i32} loc("stride_a0"), %b_base: !tt.ptr<i8> {tt.divisibility = 16 : i32, tt.pointer_range = 32 : i32} loc("b_base"), %stride_b1: i32 {tt.divisibility = 16 : i32} loc("stride_b1"), %b_scale: !tt.ptr<i8> {tt.divisibility = 16 : i32, tt.pointer_range = 32 : i32} loc("b_scale"), %out: !tt.ptr<bf16> {tt.divisibility = 16 : i32, tt.pointer_range = 32 : i32} loc("out")) attributes {noinline = false} {
    %cst = arith.constant dense<0.000000e+00> : tensor<32x32xf32, #blocked> loc(#loc)
    %cst_0 = arith.constant dense<32> : tensor<32x1xi32, #blocked1> loc(#loc)
    %cst_1 = arith.constant dense<8> : tensor<32x1xi32, #blocked2> loc(#loc)
    %0 = tt.make_range {end = 32 : i32, start = 0 : i32} : tensor<32xi32, #ttg.slice<{dim = 1, parent = #blocked3}>> loc(#loc)
    %1 = tt.make_range {end = 32 : i32, start = 0 : i32} : tensor<32xi32, #ttg.slice<{dim = 1, parent = #blocked2}>> loc(#loc)
    %2 = tt.make_range {end = 32 : i32, start = 0 : i32} : tensor<32xi32, #ttg.slice<{dim = 1, parent = #blocked1}>> loc(#loc)
    %3 = tt.expand_dims %0 {axis = 1 : i32} : tensor<32xi32, #ttg.slice<{dim = 1, parent = #blocked3}>> -> tensor<32x1xi32, #blocked3> loc(#loc)
    %4 = tt.expand_dims %1 {axis = 1 : i32} : tensor<32xi32, #ttg.slice<{dim = 1, parent = #blocked2}>> -> tensor<32x1xi32, #blocked2> loc(#loc)
    %5 = tt.expand_dims %2 {axis = 1 : i32} : tensor<32xi32, #ttg.slice<{dim = 1, parent = #blocked1}>> -> tensor<32x1xi32, #blocked1> loc(#loc)
    %6 = tt.splat %stride_a0 : i32 -> tensor<32x1xi32, #blocked3> loc(#loc)
    %7 = arith.muli %3, %6 : tensor<32x1xi32, #blocked3> loc(#loc)
    %8 = tt.splat %a_base : !tt.ptr<bf16> -> tensor<32x1x!tt.ptr<bf16>, #blocked3> loc(#loc)
    %9 = tt.addptr %8, %7 : tensor<32x1x!tt.ptr<bf16>, #blocked3>, tensor<32x1xi32, #blocked3> loc(#loc)
    %10 = tt.make_range {end = 256 : i32, start = 0 : i32} : tensor<256xi32, #ttg.slice<{dim = 0, parent = #blocked3}>> loc(#loc)
    %11 = tt.expand_dims %10 {axis = 0 : i32} : tensor<256xi32, #ttg.slice<{dim = 0, parent = #blocked3}>> -> tensor<1x256xi32, #blocked3> loc(#loc)
    %12 = tt.broadcast %9 : tensor<32x1x!tt.ptr<bf16>, #blocked3> -> tensor<32x256x!tt.ptr<bf16>, #blocked3> loc(#loc)
    %13 = tt.broadcast %11 : tensor<1x256xi32, #blocked3> -> tensor<32x256xi32, #blocked3> loc(#loc)
    %14 = tt.addptr %12, %13 : tensor<32x256x!tt.ptr<bf16>, #blocked3>, tensor<32x256xi32, #blocked3> loc(#loc)
    %15 = tt.make_range {end = 128 : i32, start = 0 : i32} : tensor<128xi32, #ttg.slice<{dim = 1, parent = #blocked4}>> loc(#loc)
    %16 = tt.expand_dims %15 {axis = 1 : i32} : tensor<128xi32, #ttg.slice<{dim = 1, parent = #blocked4}>> -> tensor<128x1xi32, #blocked4> loc(#loc)
    %17 = tt.splat %b_base : !tt.ptr<i8> -> tensor<128x1x!tt.ptr<i8>, #blocked4> loc(#loc)
    %18 = tt.addptr %17, %16 : tensor<128x1x!tt.ptr<i8>, #blocked4>, tensor<128x1xi32, #blocked4> loc(#loc)
    %19 = tt.make_range {end = 32 : i32, start = 0 : i32} : tensor<32xi32, #ttg.slice<{dim = 0, parent = #blocked4}>> loc(#loc)
    %20 = tt.make_range {end = 32 : i32, start = 0 : i32} : tensor<32xi32, #ttg.slice<{dim = 0, parent = #blocked1}>> loc(#loc)
    %21 = tt.expand_dims %19 {axis = 0 : i32} : tensor<32xi32, #ttg.slice<{dim = 0, parent = #blocked4}>> -> tensor<1x32xi32, #blocked4> loc(#loc)
    %22 = tt.expand_dims %20 {axis = 0 : i32} : tensor<32xi32, #ttg.slice<{dim = 0, parent = #blocked1}>> -> tensor<1x32xi32, #blocked1> loc(#loc)
    %23 = tt.splat %stride_b1 : i32 -> tensor<1x32xi32, #blocked4> loc(#loc)
    %24 = arith.muli %21, %23 : tensor<1x32xi32, #blocked4> loc(#loc)
    %25 = tt.broadcast %18 : tensor<128x1x!tt.ptr<i8>, #blocked4> -> tensor<128x32x!tt.ptr<i8>, #blocked4> loc(#loc)
    %26 = tt.broadcast %24 : tensor<1x32xi32, #blocked4> -> tensor<128x32xi32, #blocked4> loc(#loc)
    %27 = tt.addptr %25, %26 : tensor<128x32x!tt.ptr<i8>, #blocked4>, tensor<128x32xi32, #blocked4> loc(#loc)
    %28 = tt.load %14 : tensor<32x256x!tt.ptr<bf16>, #blocked3> loc(#loc)
    %29 = tt.reshape %28 : tensor<32x256xbf16, #blocked3> -> tensor<32x2x128xbf16, #blocked5> loc(#loc)
    %30 = tt.trans %29 {order = array<i32: 0, 2, 1>} : tensor<32x2x128xbf16, #blocked5> -> tensor<32x128x2xbf16, #blocked6> loc(#loc)
    %31 = ttg.convert_layout %30 : tensor<32x128x2xbf16, #blocked6> -> tensor<32x128x2xbf16, #blocked7> loc(#loc)
    %outLHS, %outRHS = tt.split %31 : tensor<32x128x2xbf16, #blocked7> -> tensor<32x128xbf16, #blocked8> loc(#loc)
    %32 = tt.load %27 : tensor<128x32x!tt.ptr<i8>, #blocked4> loc(#loc)
    %33 = tt.reshape %32 : tensor<128x32xi8, #blocked4> -> tensor<2x64x32xi8, #blocked9> loc(#loc)
    %34 = tt.trans %33 {order = array<i32: 1, 2, 0>} : tensor<2x64x32xi8, #blocked9> -> tensor<64x32x2xi8, #blocked10> loc(#loc)
    %35 = ttg.convert_layout %34 : tensor<64x32x2xi8, #blocked10> -> tensor<64x32x2xi8, #blocked11> loc(#loc)
    %outLHS_2, %outRHS_3 = tt.split %35 : tensor<64x32x2xi8, #blocked11> -> tensor<64x32xi8, #blocked> loc(#loc)
    %36 = arith.muli %4, %cst_1 : tensor<32x1xi32, #blocked2> loc(#loc)
    %37 = tt.splat %b_scale : !tt.ptr<i8> -> tensor<32x1x!tt.ptr<i8>, #blocked2> loc(#loc)
    %38 = tt.addptr %37, %36 : tensor<32x1x!tt.ptr<i8>, #blocked2>, tensor<32x1xi32, #blocked2> loc(#loc)
    %39 = tt.make_range {end = 8 : i32, start = 0 : i32} : tensor<8xi32, #ttg.slice<{dim = 0, parent = #blocked2}>> loc(#loc)
    %40 = tt.expand_dims %39 {axis = 0 : i32} : tensor<8xi32, #ttg.slice<{dim = 0, parent = #blocked2}>> -> tensor<1x8xi32, #blocked2> loc(#loc)
    %41 = tt.broadcast %38 : tensor<32x1x!tt.ptr<i8>, #blocked2> -> tensor<32x8x!tt.ptr<i8>, #blocked2> loc(#loc)
    %42 = tt.broadcast %40 : tensor<1x8xi32, #blocked2> -> tensor<32x8xi32, #blocked2> loc(#loc)
    %43 = tt.addptr %41, %42 : tensor<32x8x!tt.ptr<i8>, #blocked2>, tensor<32x8xi32, #blocked2> loc(#loc)
    %44 = tt.load %43 : tensor<32x8x!tt.ptr<i8>, #blocked2> loc(#loc)
    %45 = tt.reshape %44 : tensor<32x8xi8, #blocked2> -> tensor<32x2x4xi8, #blocked12> loc(#loc)
    %46 = tt.trans %45 {order = array<i32: 0, 2, 1>} : tensor<32x2x4xi8, #blocked12> -> tensor<32x4x2xi8, #blocked13> loc(#loc)
    %47 = ttg.convert_layout %46 : tensor<32x4x2xi8, #blocked13> -> tensor<32x4x2xi8, #blocked14> loc(#loc)
    %outLHS_4, %outRHS_5 = tt.split %47 : tensor<32x4x2xi8, #blocked14> -> tensor<32x4xi8, #blocked15> loc(#loc)
    %48 = tt.dot_scaled %outLHS, %outLHS_2 scale %outLHS_4, %cst lhs = bf16 rhs = e2m1 {fastMath = false} : tensor<32x128xbf16, #blocked8> * tensor<64x32xi8, #blocked>, tensor<32x4xi8, #blocked15> -> tensor<32x32xf32, #blocked> loc(#loc)
    %49 = tt.dot_scaled %outRHS, %outRHS_3 scale %outRHS_5, %cst lhs = bf16 rhs = e2m1 {fastMath = false} : tensor<32x128xbf16, #blocked8> * tensor<64x32xi8, #blocked>, tensor<32x4xi8, #blocked15> -> tensor<32x32xf32, #blocked> loc(#loc)
    %50 = arith.addf %48, %49 : tensor<32x32xf32, #blocked> loc(#loc)
    %51 = arith.muli %5, %cst_0 : tensor<32x1xi32, #blocked1> loc(#loc)
    %52 = tt.splat %out : !tt.ptr<bf16> -> tensor<32x1x!tt.ptr<bf16>, #blocked1> loc(#loc)
    %53 = tt.addptr %52, %51 : tensor<32x1x!tt.ptr<bf16>, #blocked1>, tensor<32x1xi32, #blocked1> loc(#loc)
    %54 = tt.broadcast %53 : tensor<32x1x!tt.ptr<bf16>, #blocked1> -> tensor<32x32x!tt.ptr<bf16>, #blocked1> loc(#loc)
    %55 = tt.broadcast %22 : tensor<1x32xi32, #blocked1> -> tensor<32x32xi32, #blocked1> loc(#loc)
    %56 = tt.addptr %54, %55 : tensor<32x32x!tt.ptr<bf16>, #blocked1>, tensor<32x32xi32, #blocked1> loc(#loc)
    %57 = arith.truncf %50 : tensor<32x32xf32, #blocked> to tensor<32x32xbf16, #blocked> loc(#loc)
    %58 = ttg.convert_layout %57 : tensor<32x32xbf16, #blocked> -> tensor<32x32xbf16, #blocked1> loc(#loc)
    tt.store %56, %58 : tensor<32x32x!tt.ptr<bf16>, #blocked1> loc(#loc)
    tt.return loc(#loc)
  } loc(#loc)
} loc(#loc)
#loc = loc(unknown)


// -----// IR Dump Before TritonAMDGPUAccelerateMatmul (tritonamdgpu-accelerate-matmul) ('builtin.module' operation) //----- //
#blocked = #ttg.blocked<{sizePerThread = [1, 1], threadsPerWarp = [2, 32], warpsPerCTA = [4, 1], order = [1, 0]}>
#blocked1 = #ttg.blocked<{sizePerThread = [1, 4], threadsPerWarp = [8, 8], warpsPerCTA = [4, 1], order = [1, 0]}>
#blocked2 = #ttg.blocked<{sizePerThread = [1, 1], threadsPerWarp = [8, 8], warpsPerCTA = [4, 1], order = [1, 0]}>
#blocked3 = #ttg.blocked<{sizePerThread = [1, 8], threadsPerWarp = [2, 32], warpsPerCTA = [4, 1], order = [1, 0]}>
#blocked4 = #ttg.blocked<{sizePerThread = [16, 1], threadsPerWarp = [8, 8], warpsPerCTA = [1, 4], order = [0, 1]}>
#blocked5 = #ttg.blocked<{sizePerThread = [1, 1, 8], threadsPerWarp = [2, 2, 16], warpsPerCTA = [4, 1, 1], order = [2, 1, 0]}>
#blocked6 = #ttg.blocked<{sizePerThread = [1, 8, 1], threadsPerWarp = [2, 16, 2], warpsPerCTA = [4, 1, 1], order = [1, 2, 0]}>
#blocked7 = #ttg.blocked<{sizePerThread = [1, 1, 2], threadsPerWarp = [1, 64, 1], warpsPerCTA = [2, 2, 1], order = [2, 1, 0]}>
#blocked8 = #ttg.blocked<{sizePerThread = [1, 1], threadsPerWarp = [1, 64], warpsPerCTA = [2, 2], order = [1, 0]}>
#blocked9 = #ttg.blocked<{sizePerThread = [1, 16, 1], threadsPerWarp = [2, 4, 8], warpsPerCTA = [1, 1, 4], order = [1, 0, 2]}>
#blocked10 = #ttg.blocked<{sizePerThread = [16, 1, 1], threadsPerWarp = [4, 8, 2], warpsPerCTA = [1, 4, 1], order = [0, 2, 1]}>
#blocked11 = #ttg.blocked<{sizePerThread = [1, 1, 2], threadsPerWarp = [2, 32, 1], warpsPerCTA = [4, 1, 1], order = [2, 1, 0]}>
#blocked12 = #ttg.blocked<{sizePerThread = [1, 1, 1], threadsPerWarp = [8, 2, 4], warpsPerCTA = [4, 1, 1], order = [2, 1, 0]}>
#blocked13 = #ttg.blocked<{sizePerThread = [1, 1, 1], threadsPerWarp = [8, 4, 2], warpsPerCTA = [4, 1, 1], order = [1, 2, 0]}>
#blocked14 = #ttg.blocked<{sizePerThread = [1, 1, 2], threadsPerWarp = [16, 4, 1], warpsPerCTA = [4, 1, 1], order = [2, 1, 0]}>
#blocked15 = #ttg.blocked<{sizePerThread = [1, 1], threadsPerWarp = [16, 4], warpsPerCTA = [4, 1], order = [1, 0]}>
#loc1 = loc("a_base")
#loc2 = loc("stride_a0")
#loc3 = loc("b_base")
#loc4 = loc("stride_b1")
#loc5 = loc("b_scale")
#loc6 = loc("out")
module attributes {"ttg.num-ctas" = 1 : i32, "ttg.num-warps" = 4 : i32, ttg.target = "hip:gfx950", "ttg.threads-per-warp" = 64 : i32} {
  tt.func public @dot_scale_kernel(%a_base: !tt.ptr<bf16> {tt.divisibility = 16 : i32, tt.pointer_range = 32 : i32} loc("a_base"), %stride_a0: i32 {tt.divisibility = 16 : i32} loc("stride_a0"), %b_base: !tt.ptr<i8> {tt.divisibility = 16 : i32, tt.pointer_range = 32 : i32} loc("b_base"), %stride_b1: i32 {tt.divisibility = 16 : i32} loc("stride_b1"), %b_scale: !tt.ptr<i8> {tt.divisibility = 16 : i32, tt.pointer_range = 32 : i32} loc("b_scale"), %out: !tt.ptr<bf16> {tt.divisibility = 16 : i32, tt.pointer_range = 32 : i32} loc("out")) attributes {noinline = false} {
    %cst = arith.constant dense<0.000000e+00> : tensor<32x32xf32, #blocked> loc(#loc)
    %cst_0 = arith.constant dense<32> : tensor<32x1xi32, #blocked1> loc(#loc)
    %cst_1 = arith.constant dense<8> : tensor<32x1xi32, #blocked2> loc(#loc)
    %0 = tt.make_range {end = 32 : i32, start = 0 : i32} : tensor<32xi32, #ttg.slice<{dim = 1, parent = #blocked3}>> loc(#loc)
    %1 = tt.make_range {end = 32 : i32, start = 0 : i32} : tensor<32xi32, #ttg.slice<{dim = 1, parent = #blocked2}>> loc(#loc)
    %2 = tt.make_range {end = 32 : i32, start = 0 : i32} : tensor<32xi32, #ttg.slice<{dim = 1, parent = #blocked1}>> loc(#loc)
    %3 = tt.expand_dims %0 {axis = 1 : i32} : tensor<32xi32, #ttg.slice<{dim = 1, parent = #blocked3}>> -> tensor<32x1xi32, #blocked3> loc(#loc)
    %4 = tt.expand_dims %1 {axis = 1 : i32} : tensor<32xi32, #ttg.slice<{dim = 1, parent = #blocked2}>> -> tensor<32x1xi32, #blocked2> loc(#loc)
    %5 = tt.expand_dims %2 {axis = 1 : i32} : tensor<32xi32, #ttg.slice<{dim = 1, parent = #blocked1}>> -> tensor<32x1xi32, #blocked1> loc(#loc)
    %6 = tt.splat %stride_a0 : i32 -> tensor<32x1xi32, #blocked3> loc(#loc)
    %7 = arith.muli %3, %6 : tensor<32x1xi32, #blocked3> loc(#loc)
    %8 = tt.splat %a_base : !tt.ptr<bf16> -> tensor<32x1x!tt.ptr<bf16>, #blocked3> loc(#loc)
    %9 = tt.addptr %8, %7 : tensor<32x1x!tt.ptr<bf16>, #blocked3>, tensor<32x1xi32, #blocked3> loc(#loc)
    %10 = tt.make_range {end = 256 : i32, start = 0 : i32} : tensor<256xi32, #ttg.slice<{dim = 0, parent = #blocked3}>> loc(#loc)
    %11 = tt.expand_dims %10 {axis = 0 : i32} : tensor<256xi32, #ttg.slice<{dim = 0, parent = #blocked3}>> -> tensor<1x256xi32, #blocked3> loc(#loc)
    %12 = tt.broadcast %9 : tensor<32x1x!tt.ptr<bf16>, #blocked3> -> tensor<32x256x!tt.ptr<bf16>, #blocked3> loc(#loc)
    %13 = tt.broadcast %11 : tensor<1x256xi32, #blocked3> -> tensor<32x256xi32, #blocked3> loc(#loc)
    %14 = tt.addptr %12, %13 : tensor<32x256x!tt.ptr<bf16>, #blocked3>, tensor<32x256xi32, #blocked3> loc(#loc)
    %15 = tt.make_range {end = 128 : i32, start = 0 : i32} : tensor<128xi32, #ttg.slice<{dim = 1, parent = #blocked4}>> loc(#loc)
    %16 = tt.expand_dims %15 {axis = 1 : i32} : tensor<128xi32, #ttg.slice<{dim = 1, parent = #blocked4}>> -> tensor<128x1xi32, #blocked4> loc(#loc)
    %17 = tt.splat %b_base : !tt.ptr<i8> -> tensor<128x1x!tt.ptr<i8>, #blocked4> loc(#loc)
    %18 = tt.addptr %17, %16 : tensor<128x1x!tt.ptr<i8>, #blocked4>, tensor<128x1xi32, #blocked4> loc(#loc)
    %19 = tt.make_range {end = 32 : i32, start = 0 : i32} : tensor<32xi32, #ttg.slice<{dim = 0, parent = #blocked4}>> loc(#loc)
    %20 = tt.make_range {end = 32 : i32, start = 0 : i32} : tensor<32xi32, #ttg.slice<{dim = 0, parent = #blocked1}>> loc(#loc)
    %21 = tt.expand_dims %19 {axis = 0 : i32} : tensor<32xi32, #ttg.slice<{dim = 0, parent = #blocked4}>> -> tensor<1x32xi32, #blocked4> loc(#loc)
    %22 = tt.expand_dims %20 {axis = 0 : i32} : tensor<32xi32, #ttg.slice<{dim = 0, parent = #blocked1}>> -> tensor<1x32xi32, #blocked1> loc(#loc)
    %23 = tt.splat %stride_b1 : i32 -> tensor<1x32xi32, #blocked4> loc(#loc)
    %24 = arith.muli %21, %23 : tensor<1x32xi32, #blocked4> loc(#loc)
    %25 = tt.broadcast %18 : tensor<128x1x!tt.ptr<i8>, #blocked4> -> tensor<128x32x!tt.ptr<i8>, #blocked4> loc(#loc)
    %26 = tt.broadcast %24 : tensor<1x32xi32, #blocked4> -> tensor<128x32xi32, #blocked4> loc(#loc)
    %27 = tt.addptr %25, %26 : tensor<128x32x!tt.ptr<i8>, #blocked4>, tensor<128x32xi32, #blocked4> loc(#loc)
    %28 = tt.load %14 : tensor<32x256x!tt.ptr<bf16>, #blocked3> loc(#loc)
    %29 = tt.reshape %28 : tensor<32x256xbf16, #blocked3> -> tensor<32x2x128xbf16, #blocked5> loc(#loc)
    %30 = tt.trans %29 {order = array<i32: 0, 2, 1>} : tensor<32x2x128xbf16, #blocked5> -> tensor<32x128x2xbf16, #blocked6> loc(#loc)
    %31 = ttg.convert_layout %30 : tensor<32x128x2xbf16, #blocked6> -> tensor<32x128x2xbf16, #blocked7> loc(#loc)
    %outLHS, %outRHS = tt.split %31 : tensor<32x128x2xbf16, #blocked7> -> tensor<32x128xbf16, #blocked8> loc(#loc)
    %32 = tt.load %27 : tensor<128x32x!tt.ptr<i8>, #blocked4> loc(#loc)
    %33 = tt.reshape %32 : tensor<128x32xi8, #blocked4> -> tensor<2x64x32xi8, #blocked9> loc(#loc)
    %34 = tt.trans %33 {order = array<i32: 1, 2, 0>} : tensor<2x64x32xi8, #blocked9> -> tensor<64x32x2xi8, #blocked10> loc(#loc)
    %35 = ttg.convert_layout %34 : tensor<64x32x2xi8, #blocked10> -> tensor<64x32x2xi8, #blocked11> loc(#loc)
    %outLHS_2, %outRHS_3 = tt.split %35 : tensor<64x32x2xi8, #blocked11> -> tensor<64x32xi8, #blocked> loc(#loc)
    %36 = arith.muli %4, %cst_1 : tensor<32x1xi32, #blocked2> loc(#loc)
    %37 = tt.splat %b_scale : !tt.ptr<i8> -> tensor<32x1x!tt.ptr<i8>, #blocked2> loc(#loc)
    %38 = tt.addptr %37, %36 : tensor<32x1x!tt.ptr<i8>, #blocked2>, tensor<32x1xi32, #blocked2> loc(#loc)
    %39 = tt.make_range {end = 8 : i32, start = 0 : i32} : tensor<8xi32, #ttg.slice<{dim = 0, parent = #blocked2}>> loc(#loc)
    %40 = tt.expand_dims %39 {axis = 0 : i32} : tensor<8xi32, #ttg.slice<{dim = 0, parent = #blocked2}>> -> tensor<1x8xi32, #blocked2> loc(#loc)
    %41 = tt.broadcast %38 : tensor<32x1x!tt.ptr<i8>, #blocked2> -> tensor<32x8x!tt.ptr<i8>, #blocked2> loc(#loc)
    %42 = tt.broadcast %40 : tensor<1x8xi32, #blocked2> -> tensor<32x8xi32, #blocked2> loc(#loc)
    %43 = tt.addptr %41, %42 : tensor<32x8x!tt.ptr<i8>, #blocked2>, tensor<32x8xi32, #blocked2> loc(#loc)
    %44 = tt.load %43 : tensor<32x8x!tt.ptr<i8>, #blocked2> loc(#loc)
    %45 = tt.reshape %44 : tensor<32x8xi8, #blocked2> -> tensor<32x2x4xi8, #blocked12> loc(#loc)
    %46 = tt.trans %45 {order = array<i32: 0, 2, 1>} : tensor<32x2x4xi8, #blocked12> -> tensor<32x4x2xi8, #blocked13> loc(#loc)
    %47 = ttg.convert_layout %46 : tensor<32x4x2xi8, #blocked13> -> tensor<32x4x2xi8, #blocked14> loc(#loc)
    %outLHS_4, %outRHS_5 = tt.split %47 : tensor<32x4x2xi8, #blocked14> -> tensor<32x4xi8, #blocked15> loc(#loc)
    %48 = tt.dot_scaled %outLHS, %outLHS_2 scale %outLHS_4, %cst lhs = bf16 rhs = e2m1 {fastMath = false} : tensor<32x128xbf16, #blocked8> * tensor<64x32xi8, #blocked>, tensor<32x4xi8, #blocked15> -> tensor<32x32xf32, #blocked> loc(#loc)
    %49 = tt.dot_scaled %outRHS, %outRHS_3 scale %outRHS_5, %cst lhs = bf16 rhs = e2m1 {fastMath = false} : tensor<32x128xbf16, #blocked8> * tensor<64x32xi8, #blocked>, tensor<32x4xi8, #blocked15> -> tensor<32x32xf32, #blocked> loc(#loc)
    %50 = arith.addf %48, %49 : tensor<32x32xf32, #blocked> loc(#loc)
    %51 = arith.muli %5, %cst_0 : tensor<32x1xi32, #blocked1> loc(#loc)
    %52 = tt.splat %out : !tt.ptr<bf16> -> tensor<32x1x!tt.ptr<bf16>, #blocked1> loc(#loc)
    %53 = tt.addptr %52, %51 : tensor<32x1x!tt.ptr<bf16>, #blocked1>, tensor<32x1xi32, #blocked1> loc(#loc)
    %54 = tt.broadcast %53 : tensor<32x1x!tt.ptr<bf16>, #blocked1> -> tensor<32x32x!tt.ptr<bf16>, #blocked1> loc(#loc)
    %55 = tt.broadcast %22 : tensor<1x32xi32, #blocked1> -> tensor<32x32xi32, #blocked1> loc(#loc)
    %56 = tt.addptr %54, %55 : tensor<32x32x!tt.ptr<bf16>, #blocked1>, tensor<32x32xi32, #blocked1> loc(#loc)
    %57 = arith.truncf %50 : tensor<32x32xf32, #blocked> to tensor<32x32xbf16, #blocked> loc(#loc)
    %58 = ttg.convert_layout %57 : tensor<32x32xbf16, #blocked> -> tensor<32x32xbf16, #blocked1> loc(#loc)
    tt.store %56, %58 : tensor<32x32x!tt.ptr<bf16>, #blocked1> loc(#loc)
    tt.return loc(#loc)
  } loc(#loc)
} loc(#loc)
#loc = loc(unknown)


// -----// IR Dump Before TritonGPURemoveLayoutConversions (tritongpu-remove-layout-conversions) ('builtin.module' operation) //----- //
#blocked = #ttg.blocked<{sizePerThread = [2, 1], threadsPerWarp = [2, 32], warpsPerCTA = [4, 1], order = [1, 0]}>
#blocked1 = #ttg.blocked<{sizePerThread = [1, 1], threadsPerWarp = [4, 16], warpsPerCTA = [1, 4], order = [0, 1]}>
#blocked2 = #ttg.blocked<{sizePerThread = [1, 1], threadsPerWarp = [2, 32], warpsPerCTA = [4, 1], order = [1, 0]}>
#blocked3 = #ttg.blocked<{sizePerThread = [1, 4], threadsPerWarp = [8, 8], warpsPerCTA = [4, 1], order = [1, 0]}>
#blocked4 = #ttg.blocked<{sizePerThread = [1, 1], threadsPerWarp = [8, 8], warpsPerCTA = [4, 1], order = [1, 0]}>
#blocked5 = #ttg.blocked<{sizePerThread = [1, 8], threadsPerWarp = [2, 32], warpsPerCTA = [4, 1], order = [1, 0]}>
#blocked6 = #ttg.blocked<{sizePerThread = [16, 1], threadsPerWarp = [8, 8], warpsPerCTA = [1, 4], order = [0, 1]}>
#blocked7 = #ttg.blocked<{sizePerThread = [1, 1, 8], threadsPerWarp = [2, 2, 16], warpsPerCTA = [4, 1, 1], order = [2, 1, 0]}>
#blocked8 = #ttg.blocked<{sizePerThread = [1, 8, 1], threadsPerWarp = [2, 16, 2], warpsPerCTA = [4, 1, 1], order = [1, 2, 0]}>
#blocked9 = #ttg.blocked<{sizePerThread = [1, 1, 2], threadsPerWarp = [1, 64, 1], warpsPerCTA = [2, 2, 1], order = [2, 1, 0]}>
#blocked10 = #ttg.blocked<{sizePerThread = [1, 1], threadsPerWarp = [1, 64], warpsPerCTA = [2, 2], order = [1, 0]}>
#blocked11 = #ttg.blocked<{sizePerThread = [1, 16, 1], threadsPerWarp = [2, 4, 8], warpsPerCTA = [1, 1, 4], order = [1, 0, 2]}>
#blocked12 = #ttg.blocked<{sizePerThread = [16, 1, 1], threadsPerWarp = [4, 8, 2], warpsPerCTA = [1, 4, 1], order = [0, 2, 1]}>
#blocked13 = #ttg.blocked<{sizePerThread = [1, 1, 2], threadsPerWarp = [2, 32, 1], warpsPerCTA = [4, 1, 1], order = [2, 1, 0]}>
#blocked14 = #ttg.blocked<{sizePerThread = [1, 1, 1], threadsPerWarp = [8, 2, 4], warpsPerCTA = [4, 1, 1], order = [2, 1, 0]}>
#blocked15 = #ttg.blocked<{sizePerThread = [1, 1, 1], threadsPerWarp = [8, 4, 2], warpsPerCTA = [4, 1, 1], order = [1, 2, 0]}>
#blocked16 = #ttg.blocked<{sizePerThread = [1, 1, 2], threadsPerWarp = [16, 4, 1], warpsPerCTA = [4, 1, 1], order = [2, 1, 0]}>
#blocked17 = #ttg.blocked<{sizePerThread = [1, 1], threadsPerWarp = [16, 4], warpsPerCTA = [4, 1], order = [1, 0]}>
#blocked18 = #ttg.blocked<{sizePerThread = [1, 1, 1], threadsPerWarp = [2, 32, 1], warpsPerCTA = [4, 1, 1], order = [2, 1, 0]}>
#blocked19 = #ttg.blocked<{sizePerThread = [1, 1, 1], threadsPerWarp = [2, 1, 32], warpsPerCTA = [4, 1, 1], order = [1, 2, 0]}>
#linear = #ttg.linear<{register = [[1, 0], [2, 0], [4, 0], [8, 0], [16, 0]], lane = [[0, 1], [0, 2], [0, 4], [0, 8], [0, 16], [32, 0]], warp = [[64, 0], [0, 0]], block = []}>
#loc1 = loc("a_base")
#loc2 = loc("stride_a0")
#loc3 = loc("b_base")
#loc4 = loc("stride_b1")
#loc5 = loc("b_scale")
#loc6 = loc("out")
#mma = #ttg.amd_mfma<{version = 4, warpsPerCTA = [2, 2], instrShape = [16, 16], isTransposed = true}>
module attributes {"ttg.num-ctas" = 1 : i32, "ttg.num-warps" = 4 : i32, ttg.target = "hip:gfx950", "ttg.threads-per-warp" = 64 : i32} {
  tt.func public @dot_scale_kernel(%a_base: !tt.ptr<bf16> {tt.divisibility = 16 : i32, tt.pointer_range = 32 : i32} loc("a_base"), %stride_a0: i32 {tt.divisibility = 16 : i32} loc("stride_a0"), %b_base: !tt.ptr<i8> {tt.divisibility = 16 : i32, tt.pointer_range = 32 : i32} loc("b_base"), %stride_b1: i32 {tt.divisibility = 16 : i32} loc("stride_b1"), %b_scale: !tt.ptr<i8> {tt.divisibility = 16 : i32, tt.pointer_range = 32 : i32} loc("b_scale"), %out: !tt.ptr<bf16> {tt.divisibility = 16 : i32, tt.pointer_range = 32 : i32} loc("out")) attributes {noinline = false} {
    %cst = arith.constant dense<0x7FC0> : tensor<128x32xbf16, #blocked> loc(#loc)
    %cst_0 = arith.constant dense<-1> : tensor<4x32xi8, #blocked1> loc(#loc)
    %cst_1 = arith.constant dense<7> : tensor<4x32xi16, #blocked1> loc(#loc)
    %cst_2 = arith.constant dense<0.000000e+00> : tensor<32x32xf32, #blocked2> loc(#loc)
    %cst_3 = arith.constant dense<32> : tensor<32x1xi32, #blocked3> loc(#loc)
    %cst_4 = arith.constant dense<8> : tensor<32x1xi32, #blocked4> loc(#loc)
    %0 = tt.make_range {end = 32 : i32, start = 0 : i32} : tensor<32xi32, #ttg.slice<{dim = 1, parent = #blocked5}>> loc(#loc)
    %1 = tt.make_range {end = 32 : i32, start = 0 : i32} : tensor<32xi32, #ttg.slice<{dim = 1, parent = #blocked4}>> loc(#loc)
    %2 = tt.make_range {end = 32 : i32, start = 0 : i32} : tensor<32xi32, #ttg.slice<{dim = 1, parent = #blocked3}>> loc(#loc)
    %3 = tt.expand_dims %0 {axis = 1 : i32} : tensor<32xi32, #ttg.slice<{dim = 1, parent = #blocked5}>> -> tensor<32x1xi32, #blocked5> loc(#loc)
    %4 = tt.expand_dims %1 {axis = 1 : i32} : tensor<32xi32, #ttg.slice<{dim = 1, parent = #blocked4}>> -> tensor<32x1xi32, #blocked4> loc(#loc)
    %5 = tt.expand_dims %2 {axis = 1 : i32} : tensor<32xi32, #ttg.slice<{dim = 1, parent = #blocked3}>> -> tensor<32x1xi32, #blocked3> loc(#loc)
    %6 = tt.splat %stride_a0 : i32 -> tensor<32x1xi32, #blocked5> loc(#loc)
    %7 = arith.muli %3, %6 : tensor<32x1xi32, #blocked5> loc(#loc)
    %8 = tt.splat %a_base : !tt.ptr<bf16> -> tensor<32x1x!tt.ptr<bf16>, #blocked5> loc(#loc)
    %9 = tt.addptr %8, %7 : tensor<32x1x!tt.ptr<bf16>, #blocked5>, tensor<32x1xi32, #blocked5> loc(#loc)
    %10 = tt.make_range {end = 256 : i32, start = 0 : i32} : tensor<256xi32, #ttg.slice<{dim = 0, parent = #blocked5}>> loc(#loc)
    %11 = tt.expand_dims %10 {axis = 0 : i32} : tensor<256xi32, #ttg.slice<{dim = 0, parent = #blocked5}>> -> tensor<1x256xi32, #blocked5> loc(#loc)
    %12 = tt.broadcast %9 : tensor<32x1x!tt.ptr<bf16>, #blocked5> -> tensor<32x256x!tt.ptr<bf16>, #blocked5> loc(#loc)
    %13 = tt.broadcast %11 : tensor<1x256xi32, #blocked5> -> tensor<32x256xi32, #blocked5> loc(#loc)
    %14 = tt.addptr %12, %13 : tensor<32x256x!tt.ptr<bf16>, #blocked5>, tensor<32x256xi32, #blocked5> loc(#loc)
    %15 = tt.make_range {end = 128 : i32, start = 0 : i32} : tensor<128xi32, #ttg.slice<{dim = 1, parent = #blocked6}>> loc(#loc)
    %16 = tt.expand_dims %15 {axis = 1 : i32} : tensor<128xi32, #ttg.slice<{dim = 1, parent = #blocked6}>> -> tensor<128x1xi32, #blocked6> loc(#loc)
    %17 = tt.splat %b_base : !tt.ptr<i8> -> tensor<128x1x!tt.ptr<i8>, #blocked6> loc(#loc)
    %18 = tt.addptr %17, %16 : tensor<128x1x!tt.ptr<i8>, #blocked6>, tensor<128x1xi32, #blocked6> loc(#loc)
    %19 = tt.make_range {end = 32 : i32, start = 0 : i32} : tensor<32xi32, #ttg.slice<{dim = 0, parent = #blocked6}>> loc(#loc)
    %20 = tt.make_range {end = 32 : i32, start = 0 : i32} : tensor<32xi32, #ttg.slice<{dim = 0, parent = #blocked3}>> loc(#loc)
    %21 = tt.expand_dims %19 {axis = 0 : i32} : tensor<32xi32, #ttg.slice<{dim = 0, parent = #blocked6}>> -> tensor<1x32xi32, #blocked6> loc(#loc)
    %22 = tt.expand_dims %20 {axis = 0 : i32} : tensor<32xi32, #ttg.slice<{dim = 0, parent = #blocked3}>> -> tensor<1x32xi32, #blocked3> loc(#loc)
    %23 = tt.splat %stride_b1 : i32 -> tensor<1x32xi32, #blocked6> loc(#loc)
    %24 = arith.muli %21, %23 : tensor<1x32xi32, #blocked6> loc(#loc)
    %25 = tt.broadcast %18 : tensor<128x1x!tt.ptr<i8>, #blocked6> -> tensor<128x32x!tt.ptr<i8>, #blocked6> loc(#loc)
    %26 = tt.broadcast %24 : tensor<1x32xi32, #blocked6> -> tensor<128x32xi32, #blocked6> loc(#loc)
    %27 = tt.addptr %25, %26 : tensor<128x32x!tt.ptr<i8>, #blocked6>, tensor<128x32xi32, #blocked6> loc(#loc)
    %28 = tt.load %14 : tensor<32x256x!tt.ptr<bf16>, #blocked5> loc(#loc)
    %29 = tt.reshape %28 : tensor<32x256xbf16, #blocked5> -> tensor<32x2x128xbf16, #blocked7> loc(#loc)
    %30 = tt.trans %29 {order = array<i32: 0, 2, 1>} : tensor<32x2x128xbf16, #blocked7> -> tensor<32x128x2xbf16, #blocked8> loc(#loc)
    %31 = ttg.convert_layout %30 : tensor<32x128x2xbf16, #blocked8> -> tensor<32x128x2xbf16, #blocked9> loc(#loc)
    %outLHS, %outRHS = tt.split %31 : tensor<32x128x2xbf16, #blocked9> -> tensor<32x128xbf16, #blocked10> loc(#loc)
    %32 = tt.load %27 : tensor<128x32x!tt.ptr<i8>, #blocked6> loc(#loc)
    %33 = tt.reshape %32 : tensor<128x32xi8, #blocked6> -> tensor<2x64x32xi8, #blocked11> loc(#loc)
    %34 = tt.trans %33 {order = array<i32: 1, 2, 0>} : tensor<2x64x32xi8, #blocked11> -> tensor<64x32x2xi8, #blocked12> loc(#loc)
    %35 = ttg.convert_layout %34 : tensor<64x32x2xi8, #blocked12> -> tensor<64x32x2xi8, #blocked13> loc(#loc)
    %outLHS_5, %outRHS_6 = tt.split %35 : tensor<64x32x2xi8, #blocked13> -> tensor<64x32xi8, #blocked2> loc(#loc)
    %36 = arith.muli %4, %cst_4 : tensor<32x1xi32, #blocked4> loc(#loc)
    %37 = tt.splat %b_scale : !tt.ptr<i8> -> tensor<32x1x!tt.ptr<i8>, #blocked4> loc(#loc)
    %38 = tt.addptr %37, %36 : tensor<32x1x!tt.ptr<i8>, #blocked4>, tensor<32x1xi32, #blocked4> loc(#loc)
    %39 = tt.make_range {end = 8 : i32, start = 0 : i32} : tensor<8xi32, #ttg.slice<{dim = 0, parent = #blocked4}>> loc(#loc)
    %40 = tt.expand_dims %39 {axis = 0 : i32} : tensor<8xi32, #ttg.slice<{dim = 0, parent = #blocked4}>> -> tensor<1x8xi32, #blocked4> loc(#loc)
    %41 = tt.broadcast %38 : tensor<32x1x!tt.ptr<i8>, #blocked4> -> tensor<32x8x!tt.ptr<i8>, #blocked4> loc(#loc)
    %42 = tt.broadcast %40 : tensor<1x8xi32, #blocked4> -> tensor<32x8xi32, #blocked4> loc(#loc)
    %43 = tt.addptr %41, %42 : tensor<32x8x!tt.ptr<i8>, #blocked4>, tensor<32x8xi32, #blocked4> loc(#loc)
    %44 = tt.load %43 : tensor<32x8x!tt.ptr<i8>, #blocked4> loc(#loc)
    %45 = tt.reshape %44 : tensor<32x8xi8, #blocked4> -> tensor<32x2x4xi8, #blocked14> loc(#loc)
    %46 = tt.trans %45 {order = array<i32: 0, 2, 1>} : tensor<32x2x4xi8, #blocked14> -> tensor<32x4x2xi8, #blocked15> loc(#loc)
    %47 = ttg.convert_layout %46 : tensor<32x4x2xi8, #blocked15> -> tensor<32x4x2xi8, #blocked16> loc(#loc)
    %outLHS_7, %outRHS_8 = tt.split %47 : tensor<32x4x2xi8, #blocked16> -> tensor<32x4xi8, #blocked17> loc(#loc)
    %48 = ttg.convert_layout %outLHS : tensor<32x128xbf16, #blocked10> -> tensor<32x128xbf16, #ttg.dot_op<{opIdx = 0, parent = #blocked2}>> loc(#loc)
    %49 = ttg.fp4_to_fp %outLHS_5 {axis = 0 : i32} : tensor<64x32xi8, #blocked2> -> tensor<128x32xbf16, #blocked> loc(#loc)
    %50 = tt.trans %outLHS_7 {order = array<i32: 1, 0>} : tensor<32x4xi8, #blocked17> -> tensor<4x32xi8, #blocked1> loc(#loc)
    %51 = arith.extui %50 : tensor<4x32xi8, #blocked1> to tensor<4x32xi16, #blocked1> loc(#loc)
    %52 = arith.shli %51, %cst_1 : tensor<4x32xi16, #blocked1> loc(#loc)
    %53 = tt.bitcast %52 : tensor<4x32xi16, #blocked1> -> tensor<4x32xbf16, #blocked1> loc(#loc)
    %54 = ttg.convert_layout %53 : tensor<4x32xbf16, #blocked1> -> tensor<4x32xbf16, #ttg.slice<{dim = 2, parent = #blocked18}>> loc(#loc)
    %55 = tt.expand_dims %54 {axis = 2 : i32} : tensor<4x32xbf16, #ttg.slice<{dim = 2, parent = #blocked18}>> -> tensor<4x32x1xbf16, #blocked18> loc(#loc)
    %56 = tt.broadcast %55 : tensor<4x32x1xbf16, #blocked18> -> tensor<4x32x32xbf16, #blocked18> loc(#loc)
    %57 = tt.trans %56 {order = array<i32: 0, 2, 1>} : tensor<4x32x32xbf16, #blocked18> -> tensor<4x32x32xbf16, #blocked19> loc(#loc)
    %58 = tt.reshape %57 : tensor<4x32x32xbf16, #blocked19> -> tensor<128x32xbf16, #linear> loc(#loc)
    %59 = ttg.convert_layout %58 : tensor<128x32xbf16, #linear> -> tensor<128x32xbf16, #blocked> loc(#loc)
    %60 = arith.mulf %49, %59 : tensor<128x32xbf16, #blocked> loc(#loc)
    %61 = arith.cmpi eq, %50, %cst_0 : tensor<4x32xi8, #blocked1> loc(#loc)
    %62 = ttg.convert_layout %61 : tensor<4x32xi1, #blocked1> -> tensor<4x32xi1, #ttg.slice<{dim = 2, parent = #blocked18}>> loc(#loc)
    %63 = tt.expand_dims %62 {axis = 2 : i32} : tensor<4x32xi1, #ttg.slice<{dim = 2, parent = #blocked18}>> -> tensor<4x32x1xi1, #blocked18> loc(#loc)
    %64 = tt.broadcast %63 : tensor<4x32x1xi1, #blocked18> -> tensor<4x32x32xi1, #blocked18> loc(#loc)
    %65 = tt.trans %64 {order = array<i32: 0, 2, 1>} : tensor<4x32x32xi1, #blocked18> -> tensor<4x32x32xi1, #blocked19> loc(#loc)
    %66 = tt.reshape %65 : tensor<4x32x32xi1, #blocked19> -> tensor<128x32xi1, #linear> loc(#loc)
    %67 = ttg.convert_layout %66 : tensor<128x32xi1, #linear> -> tensor<128x32xi1, #blocked> loc(#loc)
    %68 = arith.select %67, %cst, %60 : tensor<128x32xi1, #blocked>, tensor<128x32xbf16, #blocked> loc(#loc)
    %69 = ttg.convert_layout %68 : tensor<128x32xbf16, #blocked> -> tensor<128x32xbf16, #ttg.dot_op<{opIdx = 1, parent = #blocked2}>> loc(#loc)
    %70 = ttg.convert_layout %cst_2 : tensor<32x32xf32, #blocked2> -> tensor<32x32xf32, #mma> loc(#loc)
    %71 = ttg.convert_layout %48 : tensor<32x128xbf16, #ttg.dot_op<{opIdx = 0, parent = #blocked2}>> -> tensor<32x128xbf16, #ttg.dot_op<{opIdx = 0, parent = #mma, kWidth = 8}>> loc(#loc)
    %72 = ttg.convert_layout %69 : tensor<128x32xbf16, #ttg.dot_op<{opIdx = 1, parent = #blocked2}>> -> tensor<128x32xbf16, #ttg.dot_op<{opIdx = 1, parent = #mma, kWidth = 8}>> loc(#loc)
    %73 = tt.dot %71, %72, %70 : tensor<32x128xbf16, #ttg.dot_op<{opIdx = 0, parent = #mma, kWidth = 8}>> * tensor<128x32xbf16, #ttg.dot_op<{opIdx = 1, parent = #mma, kWidth = 8}>> -> tensor<32x32xf32, #mma> loc(#loc)
    %74 = ttg.convert_layout %73 : tensor<32x32xf32, #mma> -> tensor<32x32xf32, #blocked2> loc(#loc)
    %75 = ttg.convert_layout %74 : tensor<32x32xf32, #blocked2> -> tensor<32x32xf32, #blocked2> loc(#loc)
    %76 = ttg.convert_layout %outRHS : tensor<32x128xbf16, #blocked10> -> tensor<32x128xbf16, #ttg.dot_op<{opIdx = 0, parent = #blocked2}>> loc(#loc)
    %77 = ttg.fp4_to_fp %outRHS_6 {axis = 0 : i32} : tensor<64x32xi8, #blocked2> -> tensor<128x32xbf16, #blocked> loc(#loc)
    %78 = tt.trans %outRHS_8 {order = array<i32: 1, 0>} : tensor<32x4xi8, #blocked17> -> tensor<4x32xi8, #blocked1> loc(#loc)
    %79 = arith.extui %78 : tensor<4x32xi8, #blocked1> to tensor<4x32xi16, #blocked1> loc(#loc)
    %80 = arith.shli %79, %cst_1 : tensor<4x32xi16, #blocked1> loc(#loc)
    %81 = tt.bitcast %80 : tensor<4x32xi16, #blocked1> -> tensor<4x32xbf16, #blocked1> loc(#loc)
    %82 = ttg.convert_layout %81 : tensor<4x32xbf16, #blocked1> -> tensor<4x32xbf16, #ttg.slice<{dim = 2, parent = #blocked18}>> loc(#loc)
    %83 = tt.expand_dims %82 {axis = 2 : i32} : tensor<4x32xbf16, #ttg.slice<{dim = 2, parent = #blocked18}>> -> tensor<4x32x1xbf16, #blocked18> loc(#loc)
    %84 = tt.broadcast %83 : tensor<4x32x1xbf16, #blocked18> -> tensor<4x32x32xbf16, #blocked18> loc(#loc)
    %85 = tt.trans %84 {order = array<i32: 0, 2, 1>} : tensor<4x32x32xbf16, #blocked18> -> tensor<4x32x32xbf16, #blocked19> loc(#loc)
    %86 = tt.reshape %85 : tensor<4x32x32xbf16, #blocked19> -> tensor<128x32xbf16, #linear> loc(#loc)
    %87 = ttg.convert_layout %86 : tensor<128x32xbf16, #linear> -> tensor<128x32xbf16, #blocked> loc(#loc)
    %88 = arith.mulf %77, %87 : tensor<128x32xbf16, #blocked> loc(#loc)
    %89 = arith.cmpi eq, %78, %cst_0 : tensor<4x32xi8, #blocked1> loc(#loc)
    %90 = ttg.convert_layout %89 : tensor<4x32xi1, #blocked1> -> tensor<4x32xi1, #ttg.slice<{dim = 2, parent = #blocked18}>> loc(#loc)
    %91 = tt.expand_dims %90 {axis = 2 : i32} : tensor<4x32xi1, #ttg.slice<{dim = 2, parent = #blocked18}>> -> tensor<4x32x1xi1, #blocked18> loc(#loc)
    %92 = tt.broadcast %91 : tensor<4x32x1xi1, #blocked18> -> tensor<4x32x32xi1, #blocked18> loc(#loc)
    %93 = tt.trans %92 {order = array<i32: 0, 2, 1>} : tensor<4x32x32xi1, #blocked18> -> tensor<4x32x32xi1, #blocked19> loc(#loc)
    %94 = tt.reshape %93 : tensor<4x32x32xi1, #blocked19> -> tensor<128x32xi1, #linear> loc(#loc)
    %95 = ttg.convert_layout %94 : tensor<128x32xi1, #linear> -> tensor<128x32xi1, #blocked> loc(#loc)
    %96 = arith.select %95, %cst, %88 : tensor<128x32xi1, #blocked>, tensor<128x32xbf16, #blocked> loc(#loc)
    %97 = ttg.convert_layout %96 : tensor<128x32xbf16, #blocked> -> tensor<128x32xbf16, #ttg.dot_op<{opIdx = 1, parent = #blocked2}>> loc(#loc)
    %98 = ttg.convert_layout %cst_2 : tensor<32x32xf32, #blocked2> -> tensor<32x32xf32, #mma> loc(#loc)
    %99 = ttg.convert_layout %76 : tensor<32x128xbf16, #ttg.dot_op<{opIdx = 0, parent = #blocked2}>> -> tensor<32x128xbf16, #ttg.dot_op<{opIdx = 0, parent = #mma, kWidth = 8}>> loc(#loc)
    %100 = ttg.convert_layout %97 : tensor<128x32xbf16, #ttg.dot_op<{opIdx = 1, parent = #blocked2}>> -> tensor<128x32xbf16, #ttg.dot_op<{opIdx = 1, parent = #mma, kWidth = 8}>> loc(#loc)
    %101 = tt.dot %99, %100, %98 : tensor<32x128xbf16, #ttg.dot_op<{opIdx = 0, parent = #mma, kWidth = 8}>> * tensor<128x32xbf16, #ttg.dot_op<{opIdx = 1, parent = #mma, kWidth = 8}>> -> tensor<32x32xf32, #mma> loc(#loc)
    %102 = ttg.convert_layout %101 : tensor<32x32xf32, #mma> -> tensor<32x32xf32, #blocked2> loc(#loc)
    %103 = ttg.convert_layout %102 : tensor<32x32xf32, #blocked2> -> tensor<32x32xf32, #blocked2> loc(#loc)
    %104 = arith.addf %75, %103 : tensor<32x32xf32, #blocked2> loc(#loc)
    %105 = arith.muli %5, %cst_3 : tensor<32x1xi32, #blocked3> loc(#loc)
    %106 = tt.splat %out : !tt.ptr<bf16> -> tensor<32x1x!tt.ptr<bf16>, #blocked3> loc(#loc)
    %107 = tt.addptr %106, %105 : tensor<32x1x!tt.ptr<bf16>, #blocked3>, tensor<32x1xi32, #blocked3> loc(#loc)
    %108 = tt.broadcast %107 : tensor<32x1x!tt.ptr<bf16>, #blocked3> -> tensor<32x32x!tt.ptr<bf16>, #blocked3> loc(#loc)
    %109 = tt.broadcast %22 : tensor<1x32xi32, #blocked3> -> tensor<32x32xi32, #blocked3> loc(#loc)
    %110 = tt.addptr %108, %109 : tensor<32x32x!tt.ptr<bf16>, #blocked3>, tensor<32x32xi32, #blocked3> loc(#loc)
    %111 = arith.truncf %104 : tensor<32x32xf32, #blocked2> to tensor<32x32xbf16, #blocked2> loc(#loc)
    %112 = ttg.convert_layout %111 : tensor<32x32xbf16, #blocked2> -> tensor<32x32xbf16, #blocked3> loc(#loc)
    tt.store %110, %112 : tensor<32x32x!tt.ptr<bf16>, #blocked3> loc(#loc)
    tt.return loc(#loc)
  } loc(#loc)
} loc(#loc)
#loc = loc(unknown)


// -----// IR Dump Before TritonAMDGPUOptimizeEpilogue (tritonamdgpu-optimize-epilogue) ('builtin.module' operation) //----- //
#blocked = #ttg.blocked<{sizePerThread = [1, 1], threadsPerWarp = [8, 8], warpsPerCTA = [4, 1], order = [1, 0]}>
#blocked1 = #ttg.blocked<{sizePerThread = [1, 4], threadsPerWarp = [8, 8], warpsPerCTA = [4, 1], order = [1, 0]}>
#blocked2 = #ttg.blocked<{sizePerThread = [1, 8], threadsPerWarp = [2, 32], warpsPerCTA = [4, 1], order = [1, 0]}>
#blocked3 = #ttg.blocked<{sizePerThread = [16, 1], threadsPerWarp = [8, 8], warpsPerCTA = [1, 4], order = [0, 1]}>
#linear = #ttg.linear<{register = [[0, 0, 1], [0, 0, 2], [0, 0, 4], [1, 0, 0], [2, 0, 0]], lane = [[0, 1, 0], [0, 2, 0], [0, 4, 0], [0, 8, 0], [0, 0, 8], [0, 0, 16]], warp = [[0, 16, 0], [0, 0, 0]], block = []}>
#linear1 = #ttg.linear<{register = [[0, 128], [0, 1], [0, 2], [0, 4], [0, 32], [0, 64]], lane = [[1, 0], [2, 0], [4, 0], [8, 0], [0, 8], [0, 16]], warp = [[0, 0], [16, 0]], block = []}>
#linear2 = #ttg.linear<{register = [[0, 1, 0], [0, 0, 1], [0, 0, 2], [0, 0, 4], [0, 0, 32], [0, 0, 64]], lane = [[1, 0, 0], [2, 0, 0], [4, 0, 0], [8, 0, 0], [0, 0, 8], [0, 0, 16]], warp = [[0, 0, 0], [16, 0, 0]], block = []}>
#linear3 = #ttg.linear<{register = [[0, 0, 1], [0, 1, 0], [0, 2, 0], [0, 4, 0], [0, 32, 0], [0, 64, 0]], lane = [[1, 0, 0], [2, 0, 0], [4, 0, 0], [8, 0, 0], [0, 8, 0], [0, 16, 0]], warp = [[0, 0, 0], [16, 0, 0]], block = []}>
#linear4 = #ttg.linear<{register = [[64, 0], [1, 0], [2, 0], [16, 0], [32, 0]], lane = [[0, 1], [0, 2], [0, 4], [0, 8], [4, 0], [8, 0]], warp = [[0, 16], [0, 0]], block = []}>
#linear5 = #ttg.linear<{register = [[1, 0, 0], [0, 1, 0], [0, 2, 0], [0, 16, 0], [0, 32, 0]], lane = [[0, 0, 1], [0, 0, 2], [0, 0, 4], [0, 0, 8], [0, 4, 0], [0, 8, 0]], warp = [[0, 0, 16], [0, 0, 0]], block = []}>
#linear6 = #ttg.linear<{register = [[0, 0, 1], [1, 0, 0], [2, 0, 0], [16, 0, 0], [32, 0, 0]], lane = [[0, 1, 0], [0, 2, 0], [0, 4, 0], [0, 8, 0], [4, 0, 0], [8, 0, 0]], warp = [[0, 16, 0], [0, 0, 0]], block = []}>
#linear7 = #ttg.linear<{register = [[0, 4], [0, 1], [0, 2]], lane = [[1, 0], [2, 0], [4, 0], [8, 0], [0, 0], [0, 0]], warp = [[16, 0], [0, 0]], block = []}>
#linear8 = #ttg.linear<{register = [[0, 1, 0], [0, 0, 1], [0, 0, 2]], lane = [[1, 0, 0], [2, 0, 0], [4, 0, 0], [8, 0, 0], [0, 0, 0], [0, 0, 0]], warp = [[16, 0, 0], [0, 0, 0]], block = []}>
#linear9 = #ttg.linear<{register = [[0, 0, 1], [0, 1, 0], [0, 2, 0]], lane = [[1, 0, 0], [2, 0, 0], [4, 0, 0], [8, 0, 0], [0, 0, 0], [0, 0, 0]], warp = [[16, 0, 0], [0, 0, 0]], block = []}>
#linear10 = #ttg.linear<{register = [[0, 1], [0, 2]], lane = [[1, 0], [2, 0], [4, 0], [8, 0], [0, 0], [0, 0]], warp = [[16, 0], [0, 0]], block = []}>
#linear11 = #ttg.linear<{register = [[0, 1, 0], [0, 2, 0], [0, 4, 0], [1, 0, 0], [2, 0, 0]], lane = [[0, 0, 1], [0, 0, 2], [0, 0, 4], [0, 0, 8], [0, 8, 0], [0, 16, 0]], warp = [[0, 0, 16], [0, 0, 0]], block = []}>
#loc1 = loc("a_base")
#loc2 = loc("stride_a0")
#loc3 = loc("b_base")
#loc4 = loc("stride_b1")
#loc5 = loc("b_scale")
#loc6 = loc("out")
#mma = #ttg.amd_mfma<{version = 4, warpsPerCTA = [2, 2], instrShape = [16, 16], isTransposed = true}>
module attributes {"ttg.num-ctas" = 1 : i32, "ttg.num-warps" = 4 : i32, ttg.target = "hip:gfx950", "ttg.threads-per-warp" = 64 : i32} {
  tt.func public @dot_scale_kernel(%a_base: !tt.ptr<bf16> {tt.divisibility = 16 : i32, tt.pointer_range = 32 : i32} loc("a_base"), %stride_a0: i32 {tt.divisibility = 16 : i32} loc("stride_a0"), %b_base: !tt.ptr<i8> {tt.divisibility = 16 : i32, tt.pointer_range = 32 : i32} loc("b_base"), %stride_b1: i32 {tt.divisibility = 16 : i32} loc("stride_b1"), %b_scale: !tt.ptr<i8> {tt.divisibility = 16 : i32, tt.pointer_range = 32 : i32} loc("b_scale"), %out: !tt.ptr<bf16> {tt.divisibility = 16 : i32, tt.pointer_range = 32 : i32} loc("out")) attributes {noinline = false} {
    %cst = arith.constant dense<8> : tensor<32x1xi32, #blocked> loc(#loc)
    %cst_0 = arith.constant dense<32> : tensor<32x1xi32, #blocked1> loc(#loc)
    %cst_1 = arith.constant dense<0.000000e+00> : tensor<32x32xf32, #mma> loc(#loc)
…
    %136 = llvm.shl %135, %33 : i32 loc(#loc)
    %137 = llvm.bitcast %136 : i32 to f32 loc(#loc)
    %138 = llvm.fmul %137, %123 : f32 loc(#loc)
    %139 = llvm.bitcast %138 : f32 to i32 loc(#loc)
    %140 = llvm.call_intrinsic "llvm.is.fpclass"(%138, %5) : (f32, i32) -> i1 loc(#loc)
    %141 = llvm.lshr %139, %33 : i32 loc(#loc)
    %142 = llvm.and %141, %31 : i32 loc(#loc)
    %143 = llvm.add %139, %142 : i32 loc(#loc)
    %144 = llvm.add %143, %4 : i32 loc(#loc)
    %145 = llvm.select %140, %3, %144 : i1, i32 loc(#loc)
    %146 = llvm.lshr %145, %33 : i32 loc(#loc)
    %147 = llvm.trunc %146 : i32 to i16 loc(#loc)
    %148 = llvm.bitcast %147 : i16 to bf16 loc(#loc)
    %149 = llvm.zext %81 : i8 to i32 loc(#loc)
    %150 = llvm.icmp "eq" %149, %16 : i32 loc(#loc)
    %151 = llvm.select %150, %36, %134 : i1, bf16 loc(#loc)
    %152 = llvm.select %150, %36, %148 : i1, bf16 loc(#loc)
    %153 = llvm.mul %37, %35 : i32 loc(#loc)
    %154 = llvm.and %46, %16 : i32 loc(#loc)
    %155 = llvm.shl %154, %31 : i32 loc(#loc)
    %156 = llvm.xor %28, %155 : i32 loc(#loc)
    %157 = llvm.xor %28, %156 : i32 loc(#loc)
    %158 = llvm.xor %157, %28 : i32 loc(#loc)
    %159 = llvm.add %158, %15 : i32 loc(#loc)
    %160 = llvm.add %153, %159 : i32 loc(#loc)
    %161 = llvm.mul %N, %34 : i32 loc(#loc)
    %162 = llvm.icmp "slt" %160, %161 : i32 loc(#loc)
    %163 = llvm.getelementptr %mxfp_ptr[%153] : (!llvm.ptr<1>, i32) -> !llvm.ptr<1>, bf16 loc(#loc)
    %164 = rocdl.make.buffer.rsrc %163, %9, %7, %8 : <1> to <8> loc(#loc)
    %165 = llvm.and %2, %162 : i1 loc(#loc)
    %166 = llvm.insertelement %151, %1[%28 : i32] : vector<2xbf16> loc(#loc)
    %167 = llvm.insertelement %152, %166[%31 : i32] : vector<2xbf16> loc(#loc)
    %168 = llvm.bitcast %167 : vector<2xbf16> to i32 loc(#loc)
    %169 = llvm.mul %159, %0 : i32 loc(#loc)
    %170 = llvm.select %165, %169, %6 : i1, i32 loc(#loc)
    rocdl.raw.ptr.buffer.store %168, %164, %170, %28, %28 : i32 loc(#loc)
    llvm.return loc(#loc)
  } loc(#loc)
} loc(#loc)


// -----// IR Dump Before Canonicalizer (canonicalize) ('builtin.module' operation) //----- //
#loc = loc(unknown)
#loc1 = loc("x_ptr")
#loc2 = loc("scale_ptr")
#loc3 = loc("mxfp_ptr")
#loc4 = loc("N")
module attributes {"ttg.num-ctas" = 1 : i32, "ttg.num-warps" = 4 : i32, ttg.shared = 0 : i32, ttg.target = "hip:gfx950", "ttg.threads-per-warp" = 64 : i32} {
  llvm.mlir.global external @global_smem() {addr_space = 3 : i32, alignment = 16 : i64} : !llvm.array<0 x i8> loc(#loc)
  llvm.func @mxfp_upcast_kernel(%x_ptr: !llvm.ptr<1> {tt.divisibility = 16 : i32, tt.pointer_range = 32 : i32} loc("x_ptr"), %scale_ptr: !llvm.ptr<1> {tt.divisibility = 16 : i32, tt.pointer_range = 32 : i32} loc("scale_ptr"), %mxfp_ptr: !llvm.ptr<1> {tt.divisibility = 16 : i32, tt.pointer_range = 32 : i32} loc("mxfp_ptr"), %N: i32 {tt.divisibility = 16 : i32} loc("N"), %arg4: !llvm.ptr<1> loc(unknown), %arg5: !llvm.ptr<1> loc(unknown)) attributes {noinline = false, nvvm.kernel = 1 : ui1, nvvm.reqntid = array<i32: 128>} {
    %0 = llvm.mlir.constant(2 : i32) : i32 loc(#loc)
    %1 = llvm.mlir.undef : vector<2xbf16> loc(#loc)
    %2 = llvm.mlir.constant(true) : i1 loc(#loc)
    %3 = llvm.mlir.constant(2147418112 : i32) : i32 loc(#loc)
    %4 = llvm.mlir.constant(32767 : i32) : i32 loc(#loc)
    %5 = llvm.mlir.constant(3 : i32) : i32 loc(#loc)
    %6 = llvm.mlir.constant(-2147483648 : i32) : i32 loc(#loc)
    %7 = llvm.mlir.constant(2147483646 : i32) : i32 loc(#loc)
    %8 = llvm.mlir.constant(159744 : i32) : i32 loc(#loc)
    %9 = llvm.mlir.constant(0 : i16) : i16 loc(#loc)
    %10 = llvm.mlir.constant(15 : i32) : i32 loc(#loc)
    %11 = llvm.mlir.constant(4 : i32) : i32 loc(#loc)
    %12 = llvm.mlir.constant(240 : i32) : i32 loc(#loc)
    %13 = llvm.mlir.constant(6 : i32) : i32 loc(#loc)
    %14 = llvm.mlir.constant(64 : i32) : i32 loc(#loc)
    %15 = llvm.mlir.constant(0 : index) : i32 loc(#loc)
    %16 = llvm.mlir.constant(255 : i32) : i32 loc(#loc)
    %17 = llvm.mlir.constant(7 : i16) : i16 loc(#loc)
    %18 = llvm.mlir.constant(256 : i32) : i32 loc(#loc)
    %19 = llvm.mlir.constant(7 : i8) : i8 loc(#loc)
    %20 = llvm.mlir.constant(112 : i8) : i8 loc(#loc)
    %21 = llvm.mlir.constant(6 : i16) : i16 loc(#loc)
    %22 = llvm.mlir.constant(8 : i8) : i8 loc(#loc)
    %23 = llvm.mlir.constant(12 : i16) : i16 loc(#loc)
    %24 = llvm.mlir.constant(2 : i16) : i16 loc(#loc)
    %25 = llvm.mlir.constant(-128 : i8) : i8 loc(#loc)
    %26 = llvm.mlir.constant(8 : i16) : i16 loc(#loc)
    %27 = llvm.mlir.constant(6 : i8) : i8 loc(#loc)
    %28 = llvm.mlir.constant(0 : i32) : i32 loc(#loc)
    %29 = llvm.mlir.constant(16128 : i16) : i16 loc(#loc)
    %30 = llvm.mlir.constant(96 : i8) : i8 loc(#loc)
    %31 = llvm.mlir.constant(1 : i32) : i32 loc(#loc)
    %32 = llvm.mlir.constant(-32768 : i16) : i16 loc(#loc)
    %33 = llvm.mlir.constant(16 : i32) : i32 loc(#loc)
    %34 = llvm.mlir.constant(32 : i32) : i32 loc(#loc)
    %35 = llvm.mlir.constant(512 : i32) : i32 loc(#loc)
    %36 = llvm.mlir.constant(0x7FC0 : bf16) : bf16 loc(#loc)
    %37 = rocdl.workgroup.id.x : i32 loc(#loc)
    %38 = llvm.mul %37, %18 : i32 loc(#loc)
    %39 = rocdl.workitem.id.x : i32 loc(#loc)
    %40 = llvm.and %39, %16 : i32 loc(#loc)
    %41 = llvm.urem %40, %14 : i32 loc(#loc)
    %42 = llvm.udiv %40, %14 : i32 loc(#loc)
    %43 = llvm.shl %41, %28 : i32 loc(#loc)
    %44 = llvm.or %28, %43 : i32 loc(#loc)
    %45 = llvm.shl %42, %13 : i32 loc(#loc)
    %46 = llvm.or %44, %45 : i32 loc(#loc)
    %47 = llvm.and %46, %12 : i32 loc(#loc)
    %48 = llvm.lshr %47, %11 : i32 loc(#loc)
    %49 = llvm.xor %28, %48 : i32 loc(#loc)
    %50 = llvm.xor %28, %49 : i32 loc(#loc)
    %51 = llvm.xor %50, %28 : i32 loc(#loc)
    %52 = llvm.add %51, %15 : i32 loc(#loc)
    %53 = llvm.mul %52, %33 : i32 loc(#loc)
    %54 = llvm.add %38, %53 : i32 loc(#loc)
    %55 = llvm.and %46, %10 : i32 loc(#loc)
    %56 = llvm.lshr %55, %28 : i32 loc(#loc)
    %57 = llvm.xor %28, %56 : i32 loc(#loc)
    %58 = llvm.xor %28, %57 : i32 loc(#loc)
    %59 = llvm.xor %58, %28 : i32 loc(#loc)
    %60 = llvm.add %59, %15 : i32 loc(#loc)
    %61 = llvm.add %54, %60 : i32 loc(#loc)
    %62 = llvm.mul %N, %33 : i32 loc(#loc)
    %63 = llvm.icmp "slt" %61, %62 : i32 loc(#loc)
    %64 = llvm.add %53, %60 : i32 loc(#loc)
    %65 = llvm.getelementptr %x_ptr[%38] : (!llvm.ptr<1>, i32) -> !llvm.ptr<1>, i8 loc(#loc)
    %66 = rocdl.make.buffer.rsrc %65, %9, %7, %8 : <1> to <8> loc(#loc)
    %67 = llvm.mul %64, %31 : i32 loc(#loc)
    %68 = llvm.select %63, %67, %6 : i1, i32 loc(#loc)
    %69 = rocdl.raw.ptr.buffer.load %66, %68, %28, %28 : i8 loc(#loc)
    %70 = llvm.bitcast %69 : i8 to vector<1xi8> loc(#loc)
    %71 = llvm.extractelement %70[%15 : i32] : vector<1xi8> loc(#loc)
    %72 = llvm.mul %37, %33 : i32 loc(#loc)
    %73 = llvm.add %72, %52 : i32 loc(#loc)
    %74 = llvm.icmp "slt" %73, %N : i32 loc(#loc)
    %75 = llvm.getelementptr %scale_ptr[%72] : (!llvm.ptr<1>, i32) -> !llvm.ptr<1>, i8 loc(#loc)
    %76 = rocdl.make.buffer.rsrc %75, %9, %7, %8 : <1> to <8> loc(#loc)
    %77 = llvm.mul %52, %31 : i32 loc(#loc)
    %78 = llvm.select %74, %77, %6 : i1, i32 loc(#loc)
    %79 = rocdl.raw.ptr.buffer.load %76, %78, %28, %28 : i8 loc(#loc)
    %80 = llvm.bitcast %79 : i8 to vector<1xi8> loc(#loc)
    %81 = llvm.extractelement %80[%15 : i32] : vector<1xi8> loc(#loc)
    %82 = llvm.zext %81 : i8 to i16 loc(#loc)
    %83 = llvm.shl %82, %17 : i16 loc(#loc)
    %84 = llvm.and %71, %19 : i8 loc(#loc)
    %85 = llvm.and %71, %20 : i8 loc(#loc)
    %86 = llvm.zext %84 : i8 to i16 loc(#loc)
    %87 = llvm.shl %86, %21 : i16 loc(#loc)
    %88 = llvm.and %71, %22 : i8 loc(#loc)
    %89 = llvm.zext %88 : i8 to i16 loc(#loc)
    %90 = llvm.shl %89, %23 : i16 loc(#loc)
    %91 = llvm.or %87, %90 : i16 loc(#loc)
    %92 = llvm.zext %85 : i8 to i16 loc(#loc)
    %93 = llvm.shl %92, %24 : i16 loc(#loc)
    %94 = llvm.and %71, %25 : i8 loc(#loc)
    %95 = llvm.zext %94 : i8 to i16 loc(#loc)
    %96 = llvm.shl %95, %26 : i16 loc(#loc)
    %97 = llvm.or %93, %96 : i16 loc(#loc)
    %98 = llvm.and %84, %27 : i8 loc(#loc)
    %99 = llvm.zext %98 : i8 to i32 loc(#loc)
    %100 = llvm.icmp "ne" %99, %28 : i32 loc(#loc)
    %101 = llvm.add %91, %29 : i16 loc(#loc)
    %102 = llvm.select %100, %101, %91 : i1, i16 loc(#loc)
    %103 = llvm.and %85, %30 : i8 loc(#loc)
    %104 = llvm.zext %103 : i8 to i32 loc(#loc)
    %105 = llvm.icmp "ne" %104, %28 : i32 loc(#loc)
    %106 = llvm.add %97, %29 : i16 loc(#loc)
    %107 = llvm.select %105, %106, %97 : i1, i16 loc(#loc)
    %108 = llvm.zext %84 : i8 to i32 loc(#loc)
    %109 = llvm.icmp "eq" %108, %31 : i32 loc(#loc)
    %110 = llvm.and %102, %32 : i16 loc(#loc)
    %111 = llvm.or %110, %29 : i16 loc(#loc)
    %112 = llvm.select %109, %111, %102 : i1, i16 loc(#loc)
    %113 = llvm.zext %85 : i8 to i32 loc(#loc)
    %114 = llvm.icmp "eq" %113, %33 : i32 loc(#loc)
    %115 = llvm.and %107, %32 : i16 loc(#loc)
    %116 = llvm.or %115, %29 : i16 loc(#loc)
    %117 = llvm.select %114, %116, %107 : i1, i16 loc(#loc)
    %118 = llvm.zext %112 : i16 to i32 loc(#loc)
    %119 = llvm.shl %118, %33 : i32 loc(#loc)
    %120 = llvm.bitcast %119 : i32 to f32 loc(#loc)
    %121 = llvm.zext %83 : i16 to i32 loc(#loc)
    %122 = llvm.shl %121, %33 : i32 loc(#loc)
    %123 = llvm.bitcast %122 : i32 to f32 loc(#loc)
    %124 = llvm.fmul %120, %123 : f32 loc(#loc)
    %125 = llvm.bitcast %124 : f32 to i32 loc(#loc)
    %126 = llvm.call_intrinsic "llvm.is.fpclass"(%124, %5) : (f32, i32) -> i1 loc(#loc)
    %127 = llvm.lshr %125, %33 : i32 loc(#loc)
    %128 = llvm.and %127, %31 : i32 loc(#loc)
    %129 = llvm.add %125, %128 : i32 loc(#loc)
    %130 = llvm.add %129, %4 : i32 loc(#loc)
    %131 = llvm.select %126, %3, %130 : i1, i32 loc(#loc)
    %132 = llvm.lshr %131, %33 : i32 loc(#loc)
    %133 = llvm.trunc %132 : i32 to i16 loc(#loc)
    %134 = llvm.bitcast %133 : i16 to bf16 loc(#loc)
    %135 = llvm.zext %117 : i16 to i32 loc(#loc)
    %136 = llvm.shl %135, %33 : i32 loc(#loc)
    %137 = llvm.bitcast %136 : i32 to f32 loc(#loc)
    %138 = llvm.fmul %137, %123 : f32 loc(#loc)
    %139 = llvm.bitcast %138 : f32 to i32 loc(#loc)
    %140 = llvm.call_intrinsic "llvm.is.fpclass"(%138, %5) : (f32, i32) -> i1 loc(#loc)
    %141 = llvm.lshr %139, %33 : i32 loc(#loc)
    %142 = llvm.and %141, %31 : i32 loc(#loc)
    %143 = llvm.add %139, %142 : i32 loc(#loc)
    %144 = llvm.add %143, %4 : i32 loc(#loc)
    %145 = llvm.select %140, %3, %144 : i1, i32 loc(#loc)
    %146 = llvm.lshr %145, %33 : i32 loc(#loc)
    %147 = llvm.trunc %146 : i32 to i16 loc(#loc)
    %148 = llvm.bitcast %147 : i16 to bf16 loc(#loc)
    %149 = llvm.zext %81 : i8 to i32 loc(#loc)
    %150 = llvm.icmp "eq" %149, %16 : i32 loc(#loc)
    %151 = llvm.select %150, %36, %134 : i1, bf16 loc(#loc)
    %152 = llvm.select %150, %36, %148 : i1, bf16 loc(#loc)
    %153 = llvm.mul %37, %35 : i32 loc(#loc)
    %154 = llvm.and %46, %16 : i32 loc(#loc)
    %155 = llvm.shl %154, %31 : i32 loc(#loc)
    %156 = llvm.xor %28, %155 : i32 loc(#loc)
    %157 = llvm.xor %28, %156 : i32 loc(#loc)
    %158 = llvm.xor %157, %28 : i32 loc(#loc)
    %159 = llvm.add %158, %15 : i32 loc(#loc)
    %160 = llvm.add %153, %159 : i32 loc(#loc)
    %161 = llvm.mul %N, %34 : i32 loc(#loc)
    %162 = llvm.icmp "slt" %160, %161 : i32 loc(#loc)
    %163 = llvm.getelementptr %mxfp_ptr[%153] : (!llvm.ptr<1>, i32) -> !llvm.ptr<1>, bf16 loc(#loc)
    %164 = rocdl.make.buffer.rsrc %163, %9, %7, %8 : <1> to <8> loc(#loc)
    %165 = llvm.and %2, %162 : i1 loc(#loc)
    %166 = llvm.insertelement %151, %1[%28 : i32] : vector<2xbf16> loc(#loc)
    %167 = llvm.insertelement %152, %166[%31 : i32] : vector<2xbf16> loc(#loc)
    %168 = llvm.bitcast %167 : vector<2xbf16> to i32 loc(#loc)
    %169 = llvm.mul %159, %0 : i32 loc(#loc)
    %170 = llvm.select %165, %169, %6 : i1, i32 loc(#loc)
    rocdl.raw.ptr.buffer.store %168, %164, %170, %28, %28 : i32 loc(#loc)
    llvm.return loc(#loc)
  } loc(#loc)
} loc(#loc)


// -----// IR Dump Before CSE (cse) ('builtin.module' operation) //----- //
#loc = loc(unknown)
#loc1 = loc("x_ptr")
#loc2 = loc("scale_ptr")
#loc3 = loc("mxfp_ptr")
#loc4 = loc("N")
module attributes {"ttg.num-ctas" = 1 : i32, "ttg.num-warps" = 4 : i32, ttg.shared = 0 : i32, ttg.target = "hip:gfx950", "ttg.threads-per-warp" = 64 : i32} {
  llvm.mlir.global external @global_smem() {addr_space = 3 : i32, alignment = 16 : i64} : !llvm.array<0 x i8> loc(#loc)
  llvm.func @mxfp_upcast_kernel(%x_ptr: !llvm.ptr<1> {tt.divisibility = 16 : i32, tt.pointer_range = 32 : i32} loc("x_ptr"), %scale_ptr: !llvm.ptr<1> {tt.divisibility = 16 : i32, tt.pointer_range = 32 : i32} loc("scale_ptr"), %mxfp_ptr: !llvm.ptr<1> {tt.divisibility = 16 : i32, tt.pointer_range = 32 : i32} loc("mxfp_ptr"), %N: i32 {tt.divisibility = 16 : i32} loc("N"), %arg4: !llvm.ptr<1> loc(unknown), %arg5: !llvm.ptr<1> loc(unknown)) attributes {noinline = false, nvvm.kernel = 1 : ui1, nvvm.reqntid = array<i32: 128>} {
    %0 = llvm.mlir.constant(2 : i32) : i32 loc(#loc)
    %1 = llvm.mlir.undef : vector<2xbf16> loc(#loc)
    %2 = llvm.mlir.constant(true) : i1 loc(#loc)
    %3 = llvm.mlir.constant(2147418112 : i32) : i32 loc(#loc)
    %4 = llvm.mlir.constant(32767 : i32) : i32 loc(#loc)
    %5 = llvm.mlir.constant(3 : i32) : i32 loc(#loc)
    %6 = llvm.mlir.constant(-2147483648 : i32) : i32 loc(#loc)
    %7 = llvm.mlir.constant(2147483646 : i32) : i32 loc(#loc)
    %8 = llvm.mlir.constant(159744 : i32) : i32 loc(#loc)
    %9 = llvm.mlir.constant(0 : i16) : i16 loc(#loc)
    %10 = llvm.mlir.constant(15 : i32) : i32 loc(#loc)
    %11 = llvm.mlir.constant(4 : i32) : i32 loc(#loc)
    %12 = llvm.mlir.constant(240 : i32) : i32 loc(#loc)
    %13 = llvm.mlir.constant(6 : i32) : i32 loc(#loc)
    %14 = llvm.mlir.constant(64 : i32) : i32 loc(#loc)
    %15 = llvm.mlir.constant(0 : index) : i32 loc(#loc)
    %16 = llvm.mlir.constant(255 : i32) : i32 loc(#loc)
    %17 = llvm.mlir.constant(7 : i16) : i16 loc(#loc)
    %18 = llvm.mlir.constant(256 : i32) : i32 loc(#loc)
    %19 = llvm.mlir.constant(7 : i8) : i8 loc(#loc)
    %20 = llvm.mlir.constant(112 : i8) : i8 loc(#loc)
    %21 = llvm.mlir.constant(6 : i16) : i16 loc(#loc)
    %22 = llvm.mlir.constant(8 : i8) : i8 loc(#loc)
    %23 = llvm.mlir.constant(12 : i16) : i16 loc(#loc)
    %24 = llvm.mlir.constant(2 : i16) : i16 loc(#loc)
    %25 = llvm.mlir.constant(-128 : i8) : i8 loc(#loc)
    %26 = llvm.mlir.constant(8 : i16) : i16 loc(#loc)
    %27 = llvm.mlir.constant(6 : i8) : i8 loc(#loc)
    %28 = llvm.mlir.constant(0 : i32) : i32 loc(#loc)
    %29 = llvm.mlir.constant(16128 : i16) : i16 loc(#loc)
    %30 = llvm.mlir.constant(96 : i8) : i8 loc(#loc)
    %31 = llvm.mlir.constant(1 : i32) : i32 loc(#loc)
    %32 = llvm.mlir.constant(-32768 : i16) : i16 loc(#loc)
    %33 = llvm.mlir.constant(16 : i32) : i32 loc(#loc)
    %34 = llvm.mlir.constant(32 : i32) : i32 loc(#loc)
    %35 = llvm.mlir.constant(512 : i32) : i32 loc(#loc)
    %36 = llvm.mlir.constant(0x7FC0 : bf16) : bf16 loc(#loc)
    %37 = rocdl.workgroup.id.x : i32 loc(#loc)
    %38 = llvm.mul %37, %18 : i32 loc(#loc)
    %39 = rocdl.workitem.id.x : i32 loc(#loc)
    %40 = llvm.and %39, %16 : i32 loc(#loc)
    %41 = llvm.urem %40, %14 : i32 loc(#loc)
    %42 = llvm.udiv %40, %14 : i32 loc(#loc)
    %43 = llvm.shl %41, %28 : i32 loc(#loc)
    %44 = llvm.or %28, %43 : i32 loc(#loc)
    %45 = llvm.shl %42, %13 : i32 loc(#loc)
    %46 = llvm.or %44, %45 : i32 loc(#loc)
    %47 = llvm.and %46, %12 : i32 loc(#loc)
    %48 = llvm.lshr %47, %11 : i32 loc(#loc)
    %49 = llvm.xor %28, %48 : i32 loc(#loc)
    %50 = llvm.xor %28, %49 : i32 loc(#loc)
    %51 = llvm.xor %50, %28 : i32 loc(#loc)
    %52 = llvm.add %51, %15 : i32 loc(#loc)
    %53 = llvm.mul %52, %33 : i32 loc(#loc)
    %54 = llvm.add %38, %53 : i32 loc(#loc)
    %55 = llvm.and %46, %10 : i32 loc(#loc)
    %56 = llvm.lshr %55, %28 : i32 loc(#loc)
    %57 = llvm.xor %28, %56 : i32 loc(#loc)
    %58 = llvm.xor %28, %57 : i32 loc(#loc)
    %59 = llvm.xor %58, %28 : i32 loc(#loc)
    %60 = llvm.add %59, %15 : i32 loc(#loc)
    %61 = llvm.add %54, %60 : i32 loc(#loc)
    %62 = llvm.mul %N, %33 : i32 loc(#loc)
    %63 = llvm.icmp "slt" %61, %62 : i32 loc(#loc)
    %64 = llvm.add %53, %60 : i32 loc(#loc)
    %65 = llvm.getelementptr %x_ptr[%38] : (!llvm.ptr<1>, i32) -> !llvm.ptr<1>, i8 loc(#loc)
    %66 = rocdl.make.buffer.rsrc %65, %9, %7, %8 : <1> to <8> loc(#loc)
    %67 = llvm.mul %64, %31 : i32 loc(#loc)
    %68 = llvm.select %63, %67, %6 : i1, i32 loc(#loc)
    %69 = rocdl.raw.ptr.buffer.load %66, %68, %28, %28 : i8 loc(#loc)
    %70 = llvm.bitcast %69 : i8 to vector<1xi8> loc(#loc)
    %71 = llvm.extractelement %70[%15 : i32] : vector<1xi8> loc(#loc)
    %72 = llvm.mul %37, %33 : i32 loc(#loc)
    %73 = llvm.add %72, %52 : i32 loc(#loc)
    %74 = llvm.icmp "slt" %73, %N : i32 loc(#loc)
    %75 = llvm.getelementptr %scale_ptr[%72] : (!llvm.ptr<1>, i32) -> !llvm.ptr<1>, i8 loc(#loc)
    %76 = rocdl.make.buffer.rsrc %75, %9, %7, %8 : <1> to <8> loc(#loc)
    %77 = llvm.mul %52, %31 : i32 loc(#loc)
    %78 = llvm.select %74, %77, %6 : i1, i32 loc(#loc)
    %79 = rocdl.raw.ptr.buffer.load %76, %78, %28, %28 : i8 loc(#loc)
    %80 = llvm.bitcast %79 : i8 to vector<1xi8> loc(#loc)
    %81 = llvm.extractelement %80[%15 : i32] : vector<1xi8> loc(#loc)
    %82 = llvm.zext %81 : i8 to i16 loc(#loc)
    %83 = llvm.shl %82, %17 : i16 loc(#loc)
    %84 = llvm.and %71, %19 : i8 loc(#loc)
    %85 = llvm.and %71, %20 : i8 loc(#loc)
    %86 = llvm.zext %84 : i8 to i16 loc(#loc)
    %87 = llvm.shl %86, %21 : i16 loc(#loc)
    %88 = llvm.and %71, %22 : i8 loc(#loc)
    %89 = llvm.zext %88 : i8 to i16 loc(#loc)
    %90 = llvm.shl %89, %23 : i16 loc(#loc)
    %91 = llvm.or %87, %90 : i16 loc(#loc)
    %92 = llvm.zext %85 : i8 to i16 loc(#loc)
    %93 = llvm.shl %92, %24 : i16 loc(#loc)
    %94 = llvm.and %71, %25 : i8 loc(#loc)
    %95 = llvm.zext %94 : i8 to i16 loc(#loc)
    %96 = llvm.shl %95, %26 : i16 loc(#loc)
    %97 = llvm.or %93, %96 : i16 loc(#loc)
    %98 = llvm.and %84, %27 : i8 loc(#loc)
    %99 = llvm.zext %98 : i8 to i32 loc(#loc)
    %100 = llvm.icmp "ne" %99, %28 : i32 loc(#loc)
    %101 = llvm.add %91, %29 : i16 loc(#loc)
    %102 = llvm.select %100, %101, %91 : i1, i16 loc(#loc)
    %103 = llvm.and %85, %30 : i8 loc(#loc)
    %104 = llvm.zext %103 : i8 to i32 loc(#loc)
    %105 = llvm.icmp "ne" %104, %28 : i32 loc(#loc)
    %106 = llvm.add %97, %29 : i16 loc(#loc)
    %107 = llvm.select %105, %106, %97 : i1, i16 loc(#loc)
    %108 = llvm.zext %84 : i8 to i32 loc(#loc)
    %109 = llvm.icmp "eq" %108, %31 : i32 loc(#loc)
    %110 = llvm.and %102, %32 : i16 loc(#loc)
    %111 = llvm.or %110, %29 : i16 loc(#loc)
    %112 = llvm.select %109, %111, %102 : i1, i16 loc(#loc)
    %113 = llvm.zext %85 : i8 to i32 loc(#loc)
    %114 = llvm.icmp "eq" %113, %33 : i32 loc(#loc)
    %115 = llvm.and %107, %32 : i16 loc(#loc)
    %116 = llvm.or %115, %29 : i16 loc(#loc)
    %117 = llvm.select %114, %116, %107 : i1, i16 loc(#loc)
    %118 = llvm.zext %112 : i16 to i32 loc(#loc)
    %119 = llvm.shl %118, %33 : i32 loc(#loc)
    %120 = llvm.bitcast %119 : i32 to f32 loc(#loc)
    %121 = llvm.zext %83 : i16 to i32 loc(#loc)
    %122 = llvm.shl %121, %33 : i32 loc(#loc)
    %123 = llvm.bitcast %122 : i32 to f32 loc(#loc)
    %124 = llvm.fmul %120, %123 : f32 loc(#loc)
    %125 = llvm.bitcast %124 : f32 to i32 loc(#loc)
    %126 = llvm.call_intrinsic "llvm.is.fpclass"(%124, %5) : (f32, i32) -> i1 loc(#loc)
    %127 = llvm.lshr %125, %33 : i32 loc(#loc)
    %128 = llvm.and %127, %31 : i32 loc(#loc)
    %129 = llvm.add %125, %128 : i32 loc(#loc)
    %130 = llvm.add %129, %4 : i32 loc(#loc)
    %131 = llvm.select %126, %3, %130 : i1, i32 loc(#loc)
    %132 = llvm.lshr %131, %33 : i32 loc(#loc)
    %133 = llvm.trunc %132 : i32 to i16 loc(#loc)
    %134 = llvm.bitcast %133 : i16 to bf16 loc(#loc)
    %135 = llvm.zext %117 : i16 to i32 loc(#loc)
    %136 = llvm.shl %135, %33 : i32 loc(#loc)
    %137 = llvm.bitcast %136 : i32 to f32 loc(#loc)
    %138 = llvm.fmul %137, %123 : f32 loc(#loc)
    %139 = llvm.bitcast %138 : f32 to i32 loc(#loc)
    %140 = llvm.call_intrinsic "llvm.is.fpclass"(%138, %5) : (f32, i32) -> i1 loc(#loc)
    %141 = llvm.lshr %139, %33 : i32 loc(#loc)
    %142 = llvm.and %141, %31 : i32 loc(#loc)
    %143 = llvm.add %139, %142 : i32 loc(#loc)
    %144 = llvm.add %143, %4 : i32 loc(#loc)
    %145 = llvm.select %140, %3, %144 : i1, i32 loc(#loc)
    %146 = llvm.lshr %145, %33 : i32 loc(#loc)
    %147 = llvm.trunc %146 : i32 to i16 loc(#loc)
    %148 = llvm.bitcast %147 : i16 to bf16 loc(#loc)
    %149 = llvm.zext %81 : i8 to i32 loc(#loc)
    %150 = llvm.icmp "eq" %149, %16 : i32 loc(#loc)
    %151 = llvm.select %150, %36, %134 : i1, bf16 loc(#loc)
    %152 = llvm.select %150, %36, %148 : i1, bf16 loc(#loc)
    %153 = llvm.mul %37, %35 : i32 loc(#loc)
    %154 = llvm.and %46, %16 : i32 loc(#loc)
    %155 = llvm.shl %154, %31 : i32 loc(#loc)
    %156 = llvm.xor %28, %155 : i32 loc(#loc)
    %157 = llvm.xor %28, %156 : i32 loc(#loc)
    %158 = llvm.xor %157, %28 : i32 loc(#loc)
    %159 = llvm.add %158, %15 : i32 loc(#loc)
    %160 = llvm.add %153, %159 : i32 loc(#loc)
    %161 = llvm.mul %N, %34 : i32 loc(#loc)
    %162 = llvm.icmp "slt" %160, %161 : i32 loc(#loc)
    %163 = llvm.getelementptr %mxfp_ptr[%153] : (!llvm.ptr<1>, i32) -> !llvm.ptr<1>, bf16 loc(#loc)
    %164 = rocdl.make.buffer.rsrc %163, %9, %7, %8 : <1> to <8> loc(#loc)
    %165 = llvm.and %2, %162 : i1 loc(#loc)
    %166 = llvm.insertelement %151, %1[%28 : i32] : vector<2xbf16> loc(#loc)
    %167 = llvm.insertelement %152, %166[%31 : i32] : vector<2xbf16> loc(#loc)
    %168 = llvm.bitcast %167 : vector<2xbf16> to i32 loc(#loc)
    %169 = llvm.mul %159, %0 : i32 loc(#loc)
    %170 = llvm.select %165, %169, %6 : i1, i32 loc(#loc)
    rocdl.raw.ptr.buffer.store %168, %164, %170, %28, %28 : i32 loc(#loc)
    llvm.return loc(#loc)
  } loc(#loc)
} loc(#loc)


// -----// IR Dump Before SymbolDCE (symbol-dce) ('builtin.module' operation) //----- //
#loc = loc(unknown)
#loc1 = loc("x_ptr")
#loc2 = loc("scale_ptr")
#loc3 = loc("mxfp_ptr")
#loc4 = loc("N")
module attributes {"ttg.num-ctas" = 1 : i32, "ttg.num-warps" = 4 : i32, ttg.shared = 0 : i32, ttg.target = "hip:gfx950", "ttg.threads-per-warp" = 64 : i32} {
  llvm.mlir.global external @global_smem() {addr_space = 3 : i32, alignment = 16 : i64} : !llvm.array<0 x i8> loc(#loc)
  llvm.func @mxfp_upcast_kernel(%x_ptr: !llvm.ptr<1> {tt.divisibility = 16 : i32, tt.pointer_range = 32 : i32} loc("x_ptr"), %scale_ptr: !llvm.ptr<1> {tt.divisibility = 16 : i32, tt.pointer_range = 32 : i32} loc("scale_ptr"), %mxfp_ptr: !llvm.ptr<1> {tt.divisibility = 16 : i32, tt.pointer_range = 32 : i32} loc("mxfp_ptr"), %N: i32 {tt.divisibility = 16 : i32} loc("N"), %arg4: !llvm.ptr<1> loc(unknown), %arg5: !llvm.ptr<1> loc(unknown)) attributes {noinline = false, nvvm.kernel = 1 : ui1, nvvm.reqntid = array<i32: 128>} {
    %0 = llvm.mlir.constant(2 : i32) : i32 loc(#loc)
    %1 = llvm.mlir.undef : vector<2xbf16> loc(#loc)
    %2 = llvm.mlir.constant(true) : i1 loc(#loc)
    %3 = llvm.mlir.constant(2147418112 : i32) : i32 loc(#loc)
    %4 = llvm.mlir.constant(32767 : i32) : i32 loc(#loc)
    %5 = llvm.mlir.constant(3 : i32) : i32 loc(#loc)
    %6 = llvm.mlir.constant(-2147483648 : i32) : i32 loc(#loc)
    %7 = llvm.mlir.constant(2147483646 : i32) : i32 loc(#loc)
    %8 = llvm.mlir.constant(159744 : i32) : i32 loc(#loc)
    %9 = llvm.mlir.constant(0 : i16) : i16 loc(#loc)
    %10 = llvm.mlir.constant(15 : i32) : i32 loc(#loc)
    %11 = llvm.mlir.constant(4 : i32) : i32 loc(#loc)
    %12 = llvm.mlir.constant(240 : i32) : i32 loc(#loc)
    %13 = llvm.mlir.constant(6 : i32) : i32 loc(#loc)
    %14 = llvm.mlir.constant(64 : i32) : i32 loc(#loc)
    %15 = llvm.mlir.constant(0 : index) : i32 loc(#loc)
    %16 = llvm.mlir.constant(255 : i32) : i32 loc(#loc)
    %17 = llvm.mlir.constant(7 : i16) : i16 loc(#loc)
    %18 = llvm.mlir.constant(256 : i32) : i32 loc(#loc)
    %19 = llvm.mlir.constant(7 : i8) : i8 loc(#loc)
    %20 = llvm.mlir.constant(112 : i8) : i8 loc(#loc)
    %21 = llvm.mlir.constant(6 : i16) : i16 loc(#loc)
    %22 = llvm.mlir.constant(8 : i8) : i8 loc(#loc)
    %23 = llvm.mlir.constant(12 : i16) : i16 loc(#loc)
    %24 = llvm.mlir.constant(2 : i16) : i16 loc(#loc)
    %25 = llvm.mlir.constant(-128 : i8) : i8 loc(#loc)
    %26 = llvm.mlir.constant(8 : i16) : i16 loc(#loc)
    %27 = llvm.mlir.constant(6 : i8) : i8 loc(#loc)
    %28 = llvm.mlir.constant(0 : i32) : i32 loc(#loc)
    %29 = llvm.mlir.constant(16128 : i16) : i16 loc(#loc)
    %30 = llvm.mlir.constant(96 : i8) : i8 loc(#loc)
    %31 = llvm.mlir.constant(1 : i32) : i32 loc(#loc)
    %32 = llvm.mlir.constant(-32768 : i16) : i16 loc(#loc)
    %33 = llvm.mlir.constant(16 : i32) : i32 loc(#loc)
    %34 = llvm.mlir.constant(32 : i32) : i32 loc(#loc)
    %35 = llvm.mlir.constant(512 : i32) : i32 loc(#loc)
    %36 = llvm.mlir.constant(0x7FC0 : bf16) : bf16 loc(#loc)
    %37 = rocdl.workgroup.id.x : i32 loc(#loc)
    %38 = llvm.mul %37, %18 : i32 loc(#loc)
    %39 = rocdl.workitem.id.x : i32 loc(#loc)
    %40 = llvm.and %39, %16 : i32 loc(#loc)
    %41 = llvm.urem %40, %14 : i32 loc(#loc)
    %42 = llvm.udiv %40, %14 : i32 loc(#loc)
    %43 = llvm.shl %41, %28 : i32 loc(#loc)
    %44 = llvm.or %28, %43 : i32 loc(#loc)
    %45 = llvm.shl %42, %13 : i32 loc(#loc)
    %46 = llvm.or %44, %45 : i32 loc(#loc)
    %47 = llvm.and %46, %12 : i32 loc(#loc)
    %48 = llvm.lshr %47, %11 : i32 loc(#loc)
    %49 = llvm.xor %28, %48 : i32 loc(#loc)
    %50 = llvm.xor %28, %49 : i32 loc(#loc)
    %51 = llvm.xor %50, %28 : i32 loc(#loc)
    %52 = llvm.add %51, %15 : i32 loc(#loc)
    %53 = llvm.mul %52, %33 : i32 loc(#loc)
    %54 = llvm.add %38, %53 : i32 loc(#loc)
    %55 = llvm.and %46, %10 : i32 loc(#loc)
    %56 = llvm.lshr %55, %28 : i32 loc(#loc)
    %57 = llvm.xor %28, %56 : i32 loc(#loc)
    %58 = llvm.xor %28, %57 : i32 loc(#loc)
    %59 = llvm.xor %58, %28 : i32 loc(#loc)
    %60 = llvm.add %59, %15 : i32 loc(#loc)
    %61 = llvm.add %54, %60 : i32 loc(#loc)
    %62 = llvm.mul %N, %33 : i32 loc(#loc)
    %63 = llvm.icmp "slt" %61, %62 : i32 loc(#loc)
    %64 = llvm.add %53, %60 : i32 loc(#loc)
    %65 = llvm.getelementptr %x_ptr[%38] : (!llvm.ptr<1>, i32) -> !llvm.ptr<1>, i8 loc(#loc)
    %66 = rocdl.make.buffer.rsrc %65, %9, %7, %8 : <1> to <8> loc(#loc)
    %67 = llvm.mul %64, %31 : i32 loc(#loc)
    %68 = llvm.select %63, %67, %6 : i1, i32 loc(#loc)
    %69 = rocdl.raw.ptr.buffer.load %66, %68, %28, %28 : i8 loc(#loc)
    %70 = llvm.bitcast %69 : i8 to vector<1xi8> loc(#loc)
    %71 = llvm.extractelement %70[%15 : i32] : vector<1xi8> loc(#loc)
    %72 = llvm.mul %37, %33 : i32 loc(#loc)
    %73 = llvm.add %72, %52 : i32 loc(#loc)
    %74 = llvm.icmp "slt" %73, %N : i32 loc(#loc)
    %75 = llvm.getelementptr %scale_ptr[%72] : (!llvm.ptr<1>, i32) -> !llvm.ptr<1>, i8 loc(#loc)
    %76 = rocdl.make.buffer.rsrc %75, %9, %7, %8 : <1> to <8> loc(#loc)
    %77 = llvm.mul %52, %31 : i32 loc(#loc)
    %78 = llvm.select %74, %77, %6 : i1, i32 loc(#loc)
    %79 = rocdl.raw.ptr.buffer.load %76, %78, %28, %28 : i8 loc(#loc)
    %80 = llvm.bitcast %79 : i8 to vector<1xi8> loc(#loc)
    %81 = llvm.extractelement %80[%15 : i32] : vector<1xi8> loc(#loc)
    %82 = llvm.zext %81 : i8 to i16 loc(#loc)
    %83 = llvm.shl %82, %17 : i16 loc(#loc)
    %84 = llvm.and %71, %19 : i8 loc(#loc)
    %85 = llvm.and %71, %20 : i8 loc(#loc)
    %86 = llvm.zext %84 : i8 to i16 loc(#loc)
    %87 = llvm.shl %86, %21 : i16 loc(#loc)
    %88 = llvm.and %71, %22 : i8 loc(#loc)
    %89 = llvm.zext %88 : i8 to i16 loc(#loc)
    %90 = llvm.shl %89, %23 : i16 loc(#loc)
    %91 = llvm.or %87, %90 : i16 loc(#loc)
    %92 = llvm.zext %85 : i8 to i16 loc(#loc)
    %93 = llvm.shl %92, %24 : i16 loc(#loc)
    %94 = llvm.and %71, %25 : i8 loc(#loc)
    %95 = llvm.zext %94 : i8 to i16 loc(#loc)
    %96 = llvm.shl %95, %26 : i16 loc(#loc)
    %97 = llvm.or %93, %96 : i16 loc(#loc)
    %98 = llvm.and %84, %27 : i8 loc(#loc)
    %99 = llvm.zext %98 : i8 to i32 loc(#loc)
    %100 = llvm.icmp "ne" %99, %28 : i32 loc(#loc)
    %101 = llvm.add %91, %29 : i16 loc(#loc)
    %102 = llvm.select %100, %101, %91 : i1, i16 loc(#loc)
    %103 = llvm.and %85, %30 : i8 loc(#loc)
    %104 = llvm.zext %103 : i8 to i32 loc(#loc)
    %105 = llvm.icmp "ne" %104, %28 : i32 loc(#loc)
    %106 = llvm.add %97, %29 : i16 loc(#loc)
    %107 = llvm.select %105, %106, %97 : i1, i16 loc(#loc)
    %108 = llvm.zext %84 : i8 to i32 loc(#loc)
    %109 = llvm.icmp "eq" %108, %31 : i32 loc(#loc)
    %110 = llvm.and %102, %32 : i16 loc(#loc)
    %111 = llvm.or %110, %29 : i16 loc(#loc)
    %112 = llvm.select %109, %111, %102 : i1, i16 loc(#loc)
    %113 = llvm.zext %85 : i8 to i32 loc(#loc)
    %114 = llvm.icmp "eq" %113, %33 : i32 loc(#loc)
    %115 = llvm.and %107, %32 : i16 loc(#loc)
    %116 = llvm.or %115, %29 : i16 loc(#loc)
    %117 = llvm.select %114, %116, %107 : i1, i16 loc(#loc)
    %118 = llvm.zext %112 : i16 to i32 loc(#loc)
    %119 = llvm.shl %118, %33 : i32 loc(#loc)
    %120 = llvm.bitcast %119 : i32 to f32 loc(#loc)
    %121 = llvm.zext %83 : i16 to i32 loc(#loc)
    %122 = llvm.shl %121, %33 : i32 loc(#loc)
    %123 = llvm.bitcast %122 : i32 to f32 loc(#loc)
    %124 = llvm.fmul %120, %123 : f32 loc(#loc)
    %125 = llvm.bitcast %124 : f32 to i32 loc(#loc)
    %126 = llvm.call_intrinsic "llvm.is.fpclass"(%124, %5) : (f32, i32) -> i1 loc(#loc)
    %127 = llvm.lshr %125, %33 : i32 loc(#loc)
    %128 = llvm.and %127, %31 : i32 loc(#loc)
    %129 = llvm.add %125, %128 : i32 loc(#loc)
    %130 = llvm.add %129, %4 : i32 loc(#loc)
    %131 = llvm.select %126, %3, %130 : i1, i32 loc(#loc)
    %132 = llvm.lshr %131, %33 : i32 loc(#loc)
    %133 = llvm.trunc %132 : i32 to i16 loc(#loc)
    %134 = llvm.bitcast %133 : i16 to bf16 loc(#loc)
    %135 = llvm.zext %117 : i16 to i32 loc(#loc)
    %136 = llvm.shl %135, %33 : i32 loc(#loc)
    %137 = llvm.bitcast %136 : i32 to f32 loc(#loc)
    %138 = llvm.fmul %137, %123 : f32 loc(#loc)
    %139 = llvm.bitcast %138 : f32 to i32 loc(#loc)
    %140 = llvm.call_intrinsic "llvm.is.fpclass"(%138, %5) : (f32, i32) -> i1 loc(#loc)
    %141 = llvm.lshr %139, %33 : i32 loc(#loc)
    %142 = llvm.and %141, %31 : i32 loc(#loc)
    %143 = llvm.add %139, %142 : i32 loc(#loc)
    %144 = llvm.add %143, %4 : i32 loc(#loc)
    %145 = llvm.select %140, %3, %144 : i1, i32 loc(#loc)
    %146 = llvm.lshr %145, %33 : i32 loc(#loc)
    %147 = llvm.trunc %146 : i32 to i16 loc(#loc)
    %148 = llvm.bitcast %147 : i16 to bf16 loc(#loc)
    %149 = llvm.zext %81 : i8 to i32 loc(#loc)
    %150 = llvm.icmp "eq" %149, %16 : i32 loc(#loc)
    %151 = llvm.select %150, %36, %134 : i1, bf16 loc(#loc)
    %152 = llvm.select %150, %36, %148 : i1, bf16 loc(#loc)
    %153 = llvm.mul %37, %35 : i32 loc(#loc)
    %154 = llvm.and %46, %16 : i32 loc(#loc)
    %155 = llvm.shl %154, %31 : i32 loc(#loc)
    %156 = llvm.xor %28, %155 : i32 loc(#loc)
    %157 = llvm.xor %28, %156 : i32 loc(#loc)
    %158 = llvm.xor %157, %28 : i32 loc(#loc)
    %159 = llvm.add %158, %15 : i32 loc(#loc)
    %160 = llvm.add %153, %159 : i32 loc(#loc)
    %161 = llvm.mul %N, %34 : i32 loc(#loc)
    %162 = llvm.icmp "slt" %160, %161 : i32 loc(#loc)
    %163 = llvm.getelementptr %mxfp_ptr[%153] : (!llvm.ptr<1>, i32) -> !llvm.ptr<1>, bf16 loc(#loc)
    %164 = rocdl.make.buffer.rsrc %163, %9, %7, %8 : <1> to <8> loc(#loc)
    %165 = llvm.and %2, %162 : i1 loc(#loc)
    %166 = llvm.insertelement %151, %1[%28 : i32] : vector<2xbf16> loc(#loc)
    %167 = llvm.insertelement %152, %166[%31 : i32] : vector<2xbf16> loc(#loc)
    %168 = llvm.bitcast %167 : vector<2xbf16> to i32 loc(#loc)
    %169 = llvm.mul %159, %0 : i32 loc(#loc)
    %170 = llvm.select %165, %169, %6 : i1, i32 loc(#loc)
    rocdl.raw.ptr.buffer.store %168, %164, %170, %28, %28 : i32 loc(#loc)
    llvm.return loc(#loc)
  } loc(#loc)
} loc(#loc)


// -----// IR Dump Before ConvertBuiltinFuncToLLVM (convert-builtin-func-to-llvm) ('builtin.module' operation) //----- //
#loc = loc(unknown)
#loc1 = loc("x_ptr")
#loc2 = loc("scale_ptr")
#loc3 = loc("mxfp_ptr")
#loc4 = loc("N")
module attributes {"ttg.num-ctas" = 1 : i32, "ttg.num-warps" = 4 : i32, ttg.shared = 0 : i32, ttg.target = "hip:gfx950", "ttg.threads-per-warp" = 64 : i32} {
  llvm.mlir.global external @global_smem() {addr_space = 3 : i32, alignment = 16 : i64} : !llvm.array<0 x i8> loc(#loc)
  llvm.func @mxfp_upcast_kernel(%x_ptr: !llvm.ptr<1> {tt.divisibility = 16 : i32, tt.pointer_range = 32 : i32} loc("x_ptr"), %scale_ptr: !llvm.ptr<1> {tt.divisibility = 16 : i32, tt.pointer_range = 32 : i32} loc("scale_ptr"), %mxfp_ptr: !llvm.ptr<1> {tt.divisibility = 16 : i32, tt.pointer_range = 32 : i32} loc("mxfp_ptr"), %N: i32 {tt.divisibility = 16 : i32} loc("N"), %arg4: !llvm.ptr<1> loc(unknown), %arg5: !llvm.ptr<1> loc(unknown)) attributes {noinline = false, nvvm.kernel = 1 : ui1, nvvm.reqntid = array<i32: 128>} {
    %0 = llvm.mlir.constant(2 : i32) : i32 loc(#loc)
    %1 = llvm.mlir.undef : vector<2xbf16> loc(#loc)
    %2 = llvm.mlir.constant(true) : i1 loc(#loc)
    %3 = llvm.mlir.constant(2147418112 : i32) : i32 loc(#loc)
    %4 = llvm.mlir.constant(32767 : i32) : i32 loc(#loc)
    %5 = llvm.mlir.constant(3 : i32) : i32 loc(#loc)
    %6 = llvm.mlir.constant(-2147483648 : i32) : i32 loc(#loc)
    %7 = llvm.mlir.constant(2147483646 : i32) : i32 loc(#loc)
    %8 = llvm.mlir.constant(159744 : i32) : i32 loc(#loc)
    %9 = llvm.mlir.constant(0 : i16) : i16 loc(#loc)
    %10 = llvm.mlir.constant(15 : i32) : i32 loc(#loc)
    %11 = llvm.mlir.constant(4 : i32) : i32 loc(#loc)
    %12 = llvm.mlir.constant(240 : i32) : i32 loc(#loc)
    %13 = llvm.mlir.constant(6 : i32) : i32 loc(#loc)
    %14 = llvm.mlir.constant(64 : i32) : i32 loc(#loc)
    %15 = llvm.mlir.constant(0 : index) : i32 loc(#loc)
    %16 = llvm.mlir.constant(255 : i32) : i32 loc(#loc)
    %17 = llvm.mlir.constant(7 : i16) : i16 loc(#loc)
    %18 = llvm.mlir.constant(256 : i32) : i32 loc(#loc)
    %19 = llvm.mlir.constant(7 : i8) : i8 loc(#loc)
    %20 = llvm.mlir.constant(112 : i8) : i8 loc(#loc)
    %21 = llvm.mlir.constant(6 : i16) : i16 loc(#loc)
    %22 = llvm.mlir.constant(8 : i8) : i8 loc(#loc)
    %23 = llvm.mlir.constant(12 : i16) : i16 loc(#loc)
    %24 = llvm.mlir.constant(2 : i16) : i16 loc(#loc)
    %25 = llvm.mlir.constant(-128 : i8) : i8 loc(#loc)
    %26 = llvm.mlir.constant(8 : i16) : i16 loc(#loc)
    %27 = llvm.mlir.constant(6 : i8) : i8 loc(#loc)
    %28 = llvm.mlir.constant(0 : i32) : i32 loc(#loc)
    %29 = llvm.mlir.constant(16128 : i16) : i16 loc(#loc)
    %30 = llvm.mlir.constant(96 : i8) : i8 loc(#loc)
    %31 = llvm.mlir.constant(1 : i32) : i32 loc(#loc)
    %32 = llvm.mlir.constant(-32768 : i16) : i16 loc(#loc)
    %33 = llvm.mlir.constant(16 : i32) : i32 loc(#loc)
    %34 = llvm.mlir.constant(32 : i32) : i32 loc(#loc)
    %35 = llvm.mlir.constant(512 : i32) : i32 loc(#loc)
    %36 = llvm.mlir.constant(0x7FC0 : bf16) : bf16 loc(#loc)
    %37 = rocdl.workgroup.id.x : i32 loc(#loc)
    %38 = llvm.mul %37, %18 : i32 loc(#loc)
    %39 = rocdl.workitem.id.x : i32 loc(#loc)
    %40 = llvm.and %39, %16 : i32 loc(#loc)
    %41 = llvm.urem %40, %14 : i32 loc(#loc)
    %42 = llvm.udiv %40, %14 : i32 loc(#loc)
    %43 = llvm.shl %41, %28 : i32 loc(#loc)
    %44 = llvm.or %28, %43 : i32 loc(#loc)
    %45 = llvm.shl %42, %13 : i32 loc(#loc)
    %46 = llvm.or %44, %45 : i32 loc(#loc)
    %47 = llvm.and %46, %12 : i32 loc(#loc)
    %48 = llvm.lshr %47, %11 : i32 loc(#loc)
    %49 = llvm.xor %28, %48 : i32 loc(#loc)
    %50 = llvm.xor %28, %49 : i32 loc(#loc)
    %51 = llvm.xor %50, %28 : i32 loc(#loc)
    %52 = llvm.add %51, %15 : i32 loc(#loc)
    %53 = llvm.mul %52, %33 : i32 loc(#loc)
    %54 = llvm.add %38, %53 : i32 loc(#loc)
    %55 = llvm.and %46, %10 : i32 loc(#loc)
    %56 = llvm.lshr %55, %28 : i32 loc(#loc)
    %57 = llvm.xor %28, %56 : i32 loc(#loc)
    %58 = llvm.xor %28, %57 : i32 loc(#loc)
    %59 = llvm.xor %58, %28 : i32 loc(#loc)
    %60 = llvm.add %59, %15 : i32 loc(#loc)
    %61 = llvm.add %54, %60 : i32 loc(#loc)
    %62 = llvm.mul %N, %33 : i32 loc(#loc)
    %63 = llvm.icmp "slt" %61, %62 : i32 loc(#loc)
    %64 = llvm.add %53, %60 : i32 loc(#loc)
    %65 = llvm.getelementptr %x_ptr[%38] : (!llvm.ptr<1>, i32) -> !llvm.ptr<1>, i8 loc(#loc)
    %66 = rocdl.make.buffer.rsrc %65, %9, %7, %8 : <1> to <8> loc(#loc)
    %67 = llvm.mul %64, %31 : i32 loc(#loc)
    %68 = llvm.select %63, %67, %6 : i1, i32 loc(#loc)
    %69 = rocdl.raw.ptr.buffer.load %66, %68, %28, %28 : i8 loc(#loc)
    %70 = llvm.bitcast %69 : i8 to vector<1xi8> loc(#loc)
    %71 = llvm.extractelement %70[%15 : i32] : vector<1xi8> loc(#loc)
    %72 = llvm.mul %37, %33 : i32 loc(#loc)
    %73 = llvm.add %72, %52 : i32 loc(#loc)
    %74 = llvm.icmp "slt" %73, %N : i32 loc(#loc)
    %75 = llvm.getelementptr %scale_ptr[%72] : (!llvm.ptr<1>, i32) -> !llvm.ptr<1>, i8 loc(#loc)
    %76 = rocdl.make.buffer.rsrc %75, %9, %7, %8 : <1> to <8> loc(#loc)
    %77 = llvm.mul %52, %31 : i32 loc(#loc)
    %78 = llvm.select %74, %77, %6 : i1, i32 loc(#loc)
    %79 = rocdl.raw.ptr.buffer.load %76, %78, %28, %28 : i8 loc(#loc)
    %80 = llvm.bitcast %79 : i8 to vector<1xi8> loc(#loc)
    %81 = llvm.extractelement %80[%15 : i32] : vector<1xi8> loc(#loc)
    %82 = llvm.zext %81 : i8 to i16 loc(#loc)
    %83 = llvm.shl %82, %17 : i16 loc(#loc)
    %84 = llvm.and %71, %19 : i8 loc(#loc)
    %85 = llvm.and %71, %20 : i8 loc(#loc)
    %86 = llvm.zext %84 : i8 to i16 loc(#loc)
    %87 = llvm.shl %86, %21 : i16 loc(#loc)
    %88 = llvm.and %71, %22 : i8 loc(#loc)
    %89 = llvm.zext %88 : i8 to i16 loc(#loc)
    %90 = llvm.shl %89, %23 : i16 loc(#loc)
    %91 = llvm.or %87, %90 : i16 loc(#loc)
    %92 = llvm.zext %85 : i8 to i16 loc(#loc)
    %93 = llvm.shl %92, %24 : i16 loc(#loc)
    %94 = llvm.and %71, %25 : i8 loc(#loc)
    %95 = llvm.zext %94 : i8 to i16 loc(#loc)
    %96 = llvm.shl %95, %26 : i16 loc(#loc)
    %97 = llvm.or %93, %96 : i16 loc(#loc)
    %98 = llvm.and %84, %27 : i8 loc(#loc)
    %99 = llvm.zext %98 : i8 to i32 loc(#loc)
    %100 = llvm.icmp "ne" %99, %28 : i32 loc(#loc)
    %101 = llvm.add %91, %29 : i16 loc(#loc)
    %102 = llvm.select %100, %101, %91 : i1, i16 loc(#loc)
    %103 = llvm.and %85, %30 : i8 loc(#loc)
    %104 = llvm.zext %103 : i8 to i32 loc(#loc)
    %105 = llvm.icmp "ne" %104, %28 : i32 loc(#loc)
    %106 = llvm.add %97, %29 : i16 loc(#loc)
    %107 = llvm.select %105, %106, %97 : i1, i16 loc(#loc)
    %108 = llvm.zext %84 : i8 to i32 loc(#loc)
    %109 = llvm.icmp "eq" %108, %31 : i32 loc(#loc)
    %110 = llvm.and %102, %32 : i16 loc(#loc)
    %111 = llvm.or %110, %29 : i16 loc(#loc)
    %112 = llvm.select %109, %111, %102 : i1, i16 loc(#loc)
    %113 = llvm.zext %85 : i8 to i32 loc(#loc)
    %114 = llvm.icmp "eq" %113, %33 : i32 loc(#loc)
    %115 = llvm.and %107, %32 : i16 loc(#loc)
    %116 = llvm.or %115, %29 : i16 loc(#loc)
    %117 = llvm.select %114, %116, %107 : i1, i16 loc(#loc)
    %118 = llvm.zext %112 : i16 to i32 loc(#loc)
    %119 = llvm.shl %118, %33 : i32 loc(#loc)
    %120 = llvm.bitcast %119 : i32 to f32 loc(#loc)
    %121 = llvm.zext %83 : i16 to i32 loc(#loc)
    %122 = llvm.shl %121, %33 : i32 loc(#loc)
    %123 = llvm.bitcast %122 : i32 to f32 loc(#loc)
    %124 = llvm.fmul %120, %123 : f32 loc(#loc)
    %125 = llvm.bitcast %124 : f32 to i32 loc(#loc)
    %126 = llvm.call_intrinsic "llvm.is.fpclass"(%124, %5) : (f32, i32) -> i1 loc(#loc)
    %127 = llvm.lshr %125, %33 : i32 loc(#loc)
    %128 = llvm.and %127, %31 : i32 loc(#loc)
    %129 = llvm.add %125, %128 : i32 loc(#loc)
    %130 = llvm.add %129, %4 : i32 loc(#loc)
    %131 = llvm.select %126, %3, %130 : i1, i32 loc(#loc)
    %132 = llvm.lshr %131, %33 : i32 loc(#loc)
    %133 = llvm.trunc %132 : i32 to i16 loc(#loc)
    %134 = llvm.bitcast %133 : i16 to bf16 loc(#loc)
    %135 = llvm.zext %117 : i16 to i32 loc(#loc)
    %136 = llvm.shl %135, %33 : i32 loc(#loc)
    %137 = llvm.bitcast %136 : i32 to f32 loc(#loc)
    %138 = llvm.fmul %137, %123 : f32 loc(#loc)
    %139 = llvm.bitcast %138 : f32 to i32 loc(#loc)
    %140 = llvm.call_intrinsic "llvm.is.fpclass"(%138, %5) : (f32, i32) -> i1 loc(#loc)
    %141 = llvm.lshr %139, %33 : i32 loc(#loc)
    %142 = llvm.and %141, %31 : i32 loc(#loc)
    %143 = llvm.add %139, %142 : i32 loc(#loc)
    %144 = llvm.add %143, %4 : i32 loc(#loc)
    %145 = llvm.select %140, %3, %144 : i1, i32 loc(#loc)
    %146 = llvm.lshr %145, %33 : i32 loc(#loc)
    %147 = llvm.trunc %146 : i32 to i16 loc(#loc)
    %148 = llvm.bitcast %147 : i16 to bf16 loc(#loc)
    %149 = llvm.zext %81 : i8 to i32 loc(#loc)
    %150 = llvm.icmp "eq" %149, %16 : i32 loc(#loc)
    %151 = llvm.select %150, %36, %134 : i1, bf16 loc(#loc)
    %152 = llvm.select %150, %36, %148 : i1, bf16 loc(#loc)
    %153 = llvm.mul %37, %35 : i32 loc(#loc)
    %154 = llvm.and %46, %16 : i32 loc(#loc)
    %155 = llvm.shl %154, %31 : i32 loc(#loc)
    %156 = llvm.xor %28, %155 : i32 loc(#loc)
    %157 = llvm.xor %28, %156 : i32 loc(#loc)
    %158 = llvm.xor %157, %28 : i32 loc(#loc)
    %159 = llvm.add %158, %15 : i32 loc(#loc)
    %160 = llvm.add %153, %159 : i32 loc(#loc)
    %161 = llvm.mul %N, %34 : i32 loc(#loc)
    %162 = llvm.icmp "slt" %160, %161 : i32 loc(#loc)
    %163 = llvm.getelementptr %mxfp_ptr[%153] : (!llvm.ptr<1>, i32) -> !llvm.ptr<1>, bf16 loc(#loc)
    %164 = rocdl.make.buffer.rsrc %163, %9, %7, %8 : <1> to <8> loc(#loc)
    %165 = llvm.and %2, %162 : i1 loc(#loc)
    %166 = llvm.insertelement %151, %1[%28 : i32] : vector<2xbf16> loc(#loc)
    %167 = llvm.insertelement %152, %166[%31 : i32] : vector<2xbf16> loc(#loc)
    %168 = llvm.bitcast %167 : vector<2xbf16> to i32 loc(#loc)
    %169 = llvm.mul %159, %0 : i32 loc(#loc)
    %170 = llvm.select %165, %169, %6 : i1, i32 loc(#loc)
    rocdl.raw.ptr.buffer.store %168, %164, %170, %28, %28 : i32 loc(#loc)
    llvm.return loc(#loc)
  } loc(#loc)
} loc(#loc)



// -----// AMDGCN Dump //----- //
	.amdgcn_target "amdgcn-amd-amdhsa--gfx950"
	.amdhsa_code_object_version 5
	.text
	.globl	mxfp_upcast_kernel              ; -- Begin function mxfp_upcast_kernel
	.p2align	8
	.type	mxfp_upcast_kernel,@function
mxfp_upcast_kernel:                     ; @mxfp_upcast_kernel
; %bb.1:
	s_load_dwordx2 s[2:3], s[0:1], 0x0
	s_load_dwordx8 s[4:11], s[0:1], 0x8
	s_load_dwordx2 s[12:13], s[0:1], 0x28
	s_waitcnt lgkmcnt(0)
	s_branch .LBB0_0
	.p2align	8
; %bb.2:
.LBB0_0:
	s_lshl_b32 s0, s14, 8
	s_lshl_b32 s9, s8, 4
	s_ashr_i32 s1, s0, 31
	v_or_b32_e32 v1, s0, v0
	s_add_u32 s0, s2, s0
	s_addc_u32 s1, s3, s1
	v_bfrev_b32_e32 v2, 1
	v_cmp_gt_i32_e32 vcc, s9, v1
	s_and_b32 s1, s1, 0xffff
	s_mov_b32 s3, 0x27000
	s_mov_b32 s2, 0x7ffffffe
	v_cndmask_b32_e32 v1, v2, v0, vcc
	buffer_load_ubyte v1, v1, s[0:3], 0 offen
	s_lshl_b32 s0, s14, 4
	v_lshrrev_b32_e32 v3, 4, v0
	s_ashr_i32 s1, s0, 31
	v_or_b32_e32 v4, s0, v3
	s_add_u32 s0, s4, s0
	s_addc_u32 s1, s5, s1
	v_cmp_gt_i32_e32 vcc, s8, v4
	s_and_b32 s1, s1, 0xffff
	s_movk_i32 s4, 0x80
	v_cndmask_b32_e32 v3, v2, v3, vcc
	buffer_load_ubyte v3, v3, s[0:3], 0 offen
	s_movk_i32 s5, 0x3f00
	v_mov_b32_e32 v4, 0xffff8000
	s_movk_i32 s9, 0x7fff
	s_lshl_b32 s0, s14, 9
	v_mov_b32_e32 v5, 0x7fff
	s_ashr_i32 s1, s0, 31
	s_movk_i32 s10, 0xff
	v_lshlrev_b32_e32 v7, 2, v0
	s_lshl_b32 s8, s8, 5
	v_lshl_or_b32 v0, v0, 1, s0
	s_lshl_b64 s[0:1], s[0:1], 1
	v_mov_b32_e32 v6, 0x7fc0
	s_add_u32 s0, s6, s0
	s_mov_b32 s11, 0x5040100
	s_addc_u32 s1, s7, s1
	s_and_b32 s1, s1, 0xffff
	s_waitcnt vmcnt(1)
	v_and_b32_e32 v8, 7, v1
	v_and_b32_e32 v10, 8, v1
	v_and_b32_e32 v9, 0x70, v1
	v_lshlrev_b16_e32 v13, 6, v8
	v_lshlrev_b16_e32 v10, 12, v10
	v_and_b32_sdwa v11, v1, s4 dst_sel:BYTE_1 dst_unused:UNUSED_PAD src0_sel:DWORD src1_sel:DWORD
	v_and_b32_e32 v12, 6, v1
	v_lshlrev_b16_e32 v14, 2, v9
	v_or_b32_e32 v10, v13, v10
	v_and_b32_e32 v1, 0x60, v1
	v_or_b32_e32 v11, v14, v11
	v_add_u16_e32 v13, 0x3f00, v10
	v_cmp_eq_u16_e32 vcc, 0, v12
	v_add_u16_e32 v14, 0x3f00, v11
	s_waitcnt vmcnt(0)
	v_lshlrev_b32_e32 v15, 23, v3
	v_cndmask_b32_e32 v10, v13, v10, vcc
	v_cmp_eq_u16_e32 vcc, 0, v1
	s_nop 1
	v_cndmask_b32_e32 v1, v14, v11, vcc
	v_bitop3_b16 v11, v10, s5, v4 bitop3:0xec
	v_cmp_eq_u16_e32 vcc, 1, v8
	v_bitop3_b16 v4, v1, s5, v4 bitop3:0xec
	s_nop 0
	v_cndmask_b32_e32 v8, v10, v11, vcc
	v_cmp_eq_u16_e32 vcc, 16, v9
	s_nop 1
	v_cndmask_b32_e32 v1, v1, v4, vcc
	v_lshlrev_b32_e32 v4, 16, v8
	v_lshlrev_b32_e32 v1, 16, v1
	v_mul_f32_e32 v4, v15, v4
	v_mul_f32_e32 v1, v1, v15
	v_bfe_u32 v8, v4, 16, 1
	v_bfe_u32 v9, v1, 16, 1
	v_add3_u32 v8, v4, v8, s9
	v_add3_u32 v9, v1, v9, s9
	v_lshrrev_b32_e32 v8, 16, v8
	v_cmp_o_f32_e32 vcc, v4, v4
	v_lshrrev_b32_e32 v9, 16, v9
	s_nop 0
	v_cndmask_b32_e32 v4, v5, v8, vcc
	v_cmp_o_f32_e32 vcc, v1, v1
	s_nop 1
	v_cndmask_b32_e32 v1, v5, v9, vcc
	v_cmp_eq_u16_e32 vcc, s10, v3
	s_nop 1
	v_cndmask_b32_e32 v3, v4, v6, vcc
	v_cndmask_b32_e32 v1, v1, v6, vcc
	v_cmp_gt_i32_e32 vcc, s8, v0
	v_perm_b32 v1, v1, v3, s11
	s_nop 0
	v_cndmask_b32_e32 v0, v2, v7, vcc
	buffer_store_dword v1, v0, s[0:3], 0 offen
	s_endpgm
	.section	.rodata,"a",@progbits
	.p2align	6, 0x0
	.amdhsa_kernel mxfp_upcast_kernel
		.amdhsa_group_segment_fixed_size 0
		.amdhsa_private_segment_fixed_size 0
		.amdhsa_kernarg_size 48
		.amdhsa_user_sgpr_count 14
		.amdhsa_user_sgpr_dispatch_ptr 0
		.amdhsa_user_sgpr_queue_ptr 0
		.amdhsa_user_sgpr_kernarg_segment_ptr 1
		.amdhsa_user_sgpr_dispatch_id 0
		.amdhsa_user_sgpr_kernarg_preload_length 12
		.amdhsa_user_sgpr_kernarg_preload_offset 0
		.amdhsa_user_sgpr_private_segment_size 0
		.amdhsa_uses_dynamic_stack 0
		.amdhsa_enable_private_segment 0
		.amdhsa_system_sgpr_workgroup_id_x 1
		.amdhsa_system_sgpr_workgroup_id_y 0
		.amdhsa_system_sgpr_workgroup_id_z 0
		.amdhsa_system_sgpr_workgroup_info 0
		.amdhsa_system_vgpr_workitem_id 0
		.amdhsa_next_free_vgpr 16
		.amdhsa_next_free_sgpr 15
		.amdhsa_accum_offset 16
		.amdhsa_reserve_vcc 1
		.amdhsa_reserve_xnack_mask 1
		.amdhsa_float_round_mode_32 0
		.amdhsa_float_round_mode_16_64 0
		.amdhsa_float_denorm_mode_32 3
		.amdhsa_float_denorm_mode_16_64 3
		.amdhsa_dx10_clamp 1
		.amdhsa_ieee_mode 1
		.amdhsa_fp16_overflow 0
		.amdhsa_tg_split 0
		.amdhsa_exception_fp_ieee_invalid_op 0
		.amdhsa_exception_fp_denorm_src 0
		.amdhsa_exception_fp_ieee_div_zero 0
		.amdhsa_exception_fp_ieee_overflow 0
		.amdhsa_exception_fp_ieee_underflow 0
		.amdhsa_exception_fp_ieee_inexact 0
		.amdhsa_exception_int_div_zero 0
	.end_amdhsa_kernel
	.text
.Lfunc_end0:
	.size	mxfp_upcast_kernel, .Lfunc_end0-mxfp_upcast_kernel
                                        ; -- End function
	.set mxfp_upcast_kernel.num_vgpr, 16
	.set mxfp_upcast_kernel.num_agpr, 0
	.set mxfp_upcast_kernel.numbered_sgpr, 15
	.set mxfp_upcast_kernel.private_seg_size, 0
	.set mxfp_upcast_kernel.uses_vcc, 1
	.set mxfp_upcast_kernel.uses_flat_scratch, 0
	.set mxfp_upcast_kernel.has_dyn_sized_stack, 0
	.set mxfp_upcast_kernel.has_recursion, 0
	.set mxfp_upcast_kernel.has_indirect_call, 0
	.section	.AMDGPU.csdata,"",@progbits
; Kernel info:
; codeLenInByte = 736
; TotalNumSgprs: 21
; NumVgprs: 16
; NumAgprs: 0
; TotalNumVgprs: 16
; ScratchSize: 0
; MemoryBound: 0
; FloatMode: 240
; IeeeMode: 1
; LDSByteSize: 0 bytes/workgroup (compile time only)
; SGPRBlocks: 2
; VGPRBlocks: 1
; NumSGPRsForWavesPerEU: 21
; NumVGPRsForWavesPerEU: 16
; AccumOffset: 16
; Occupancy: 8
; WaveLimiterHint : 0
; COMPUTE_PGM_RSRC2:SCRATCH_EN: 0
; COMPUTE_PGM_RSRC2:USER_SGPR: 14
; COMPUTE_PGM_RSRC2:TRAP_HANDLER: 0
; COMPUTE_PGM_RSRC2:TGID_X_EN: 1
; COMPUTE_PGM_RSRC2:TGID_Y_EN: 0
; COMPUTE_PGM_RSRC2:TGID_Z_EN: 0
; COMPUTE_PGM_RSRC2:TIDIG_COMP_CNT: 0
; COMPUTE_PGM_RSRC3_GFX90A:ACCUM_OFFSET: 3
; COMPUTE_PGM_RSRC3_GFX90A:TG_SPLIT: 0
	.text
	.p2alignl 6, 3212836864
	.fill 256, 4, 3212836864
	.section	.AMDGPU.gpr_maximums,"",@progbits
	.set amdgpu.max_num_vgpr, 0
	.set amdgpu.max_num_agpr, 0
	.set amdgpu.max_num_sgpr, 0
	.text
	.section	".note.GNU-stack","",@progbits
	.amdgpu_metadata
---
amdhsa.kernels:
  - .agpr_count:     0
    .args:
      - .address_space:  global
        .offset:         0
        .size:           8
        .value_kind:     global_buffer
      - .address_space:  global
        .offset:         8
        .size:           8
        .value_kind:     global_buffer
      - .address_space:  global
        .offset:         16
        .size:           8
        .value_kind:     global_buffer
      - .offset:         24
        .size:           4
        .value_kind:     by_value
      - .address_space:  global
        .offset:         32
        .size:           8
        .value_kind:     global_buffer
      - .address_space:  global
        .offset:         40
        .size:           8
        .value_kind:     global_buffer
    .group_segment_fixed_size: 0
    .kernarg_segment_align: 8
    .kernarg_segment_size: 48
    .max_flat_workgroup_size: 256
    .name:           mxfp_upcast_kernel
    .private_segment_fixed_size: 0
    .sgpr_count:     21
    .sgpr_spill_count: 0
    .symbol:         mxfp_upcast_kernel.kd
    .uses_dynamic_stack: false
    .vgpr_count:     16
    .vgpr_spill_count: 0
    .wavefront_size: 64
amdhsa.target:   amdgcn-amd-amdhsa--gfx950
amdhsa.version:
  - 1
  - 2
...

	.end_amdgpu_metadata

.

=============================== warnings summary ===============================
python/test/unit/language/test_core.py::test_scaled_dot[32-32-256-False-True-True-e2m1-bf16-4-16-1]
  /data/triton/python/test/unit/language/test_core.py:4366: UserWarning: Attempting to use hipBLASLt on an unsupported architecture! Overriding blas backend to hipblas (Triggered internally at /therock/pytorch/aten/src/ATen/Context.cpp:370.)
    return torch.matmul(x_upcast, y_upcast)

-- Docs: https://docs.pytest.org/en/stable/how-to/capture-warnings.html
================ 1 passed, 17618 deselected, 1 warning in 4.00s ================
